uncertain/Swimmer-v2/actor.pth (torch, 21797 bytes, 6 tensors)

l1.weight f4 [64, 8]
0	0xbcff57a3	-0.031169718
1	0x3dc9ae42	0.0984769
2	0xbf105735	-0.5638307
3	0x3e28162e	0.16414711
4	0x3e05f1eb	0.13080566
5	0x3ec4e5d9	0.3845661
6	0xbe8e7c3f	-0.27829167
7	0x3e2a7a91	0.16648318
8	0x3e9d607d	0.30737677
9	0xbf0158b4	-0.50525975
10	0x3f8a2608	1.0792856
11	0x3d1af530	0.037831485
12	0xbdcbdfbb	-0.099547826
13	0x3e56fa94	0.20994025
14	0xbc70591f	-0.014669686
15	0x3d1c48f4	0.03815551
16	0xbd2571a2	-0.04039157
17	0x3f0ae2fd	0.54252607
18	0x3f37a99a	0.71743166
19	0xbdfea2d6	-0.12433402
20	0xbe57f4f8	-0.21089542
21	0x3ea46b28	0.32113004
22	0x3da81d06	0.08208661
23	0xbc7d7cbd	-0.015471634
24	0xbd68fc28	-0.0568811
25	0x3f1f3932	0.6219665
26	0xbe023d12	-0.12718609
27	0x3f424710	0.7588968
28	0xbf5112a2	-0.81669056
29	0x3e352105	0.17688377
30	0x3d9446c8	0.07240063
31	0x3d93f998	0.072253406
32	0xbeda39b6	-0.42622155
33	0x3f22f2cb	0.6365172
34	0xbe91c807	-0.2847292
35	0xbe943bb2	-0.28951794
36	0xbee597d6	-0.44842404
37	0x3f243879	0.6414867
38	0xbd5de59b	-0.054174047
39	0xbd36d515	-0.044636805
40	0xbf30335c	-0.6882837
41	0x3f09a69f	0.5376987
42	0x3e3b8e64	0.18316036
43	0xbf43afce	-0.7644013
44	0x3f50b60d	0.8152779
45	0xbea22f4f	-0.3167672
46	0xbe578719	-0.2104763
47	0x3e71e22b	0.23621432
48	0xbf6238ea	-0.88368094
49	0xbe800acd	-0.2500824
50	0xbec0e5ec	-0.37675416
51	0xbe83cdba	-0.25742894
52	0x3e9d76a4	0.30754578
53	0xbec9741d	-0.393464
54	0x3d3ec1cb	0.046571534
55	0xbe1bc319	-0.15211143
56	0x3e984c81	0.29745868
57	0xbf133550	-0.57503223
58	0xbf1e451f	-0.6182422
59	0xbf8dd3a6	-1.1080215
60	0x3f5144e1	0.81745726
61	0x3eb3c082	0.3510781
62	0xbdd0b503	-0.10190775
63	0x3e5b8b20	0.2143979
64	0xbd9bfdd0	-0.0761677
65	0x3e9e2e31	0.30894616
66	0xbf65a86c	-0.89710116
67	0x3ebec20d	0.37257424
68	0x3f5fb12d	0.87379724
69	0xbe7ede35	-0.24889453
70	0x3eff3f29	0.49852875
71	0x3e5f6c25	0.21818598
72	0xbe5d0dad	-0.21587248
73	0x3f3d55b8	0.7395892
74	0xbf0fbc64	-0.56146836
75	0x3e950340	0.29104042
76	0xbf212e06	-0.6296085
77	0xbe89deea	-0.26927882
78	0xbe2bfe30	-0.16796184
79	0x3d2f367e	0.042776577
80	0xbdb5e2b8	-0.08881134
81	0x3e3fd971	0.18735291
82	0xbf672cf2	-0.90302956
83	0x3eb19321	0.34682563
84	0x3dfcfc21	0.12352777
85	0xbcb6b7f0	-0.022304505
86	0x3c7bfe12	0.015380399
87	0xbcaddbae	-0.021222916
88	0x3d90bb4c	0.07066974
89	0x3ebc84b0	0.36819983
90	0xbec4f045	-0.3846456
91	0xbf85d370	-1.0455151
92	0x3e7a9d29	0.24474014
93	0xbdf9c53b	-0.12195822
94	0x3f1c5aa9	0.61075836
95	0x3d991300	0.07474327
96	0xbf31e334	-0.6948731
97	0xbec31937	-0.38105175
98	0x3cb497c3	0.022045022
99	0xbe10fa0f	-0.1415789
100	0x3e7b1e0e	0.24523184
101	0xbdb8610d	-0.09002886
102	0xbd7ffbd3	-0.062496018
103	0x3d7b99e9	0.061426077
104	0xbe0a1098	-0.13482893
105	0xbe8d745f	-0.27627847
106	0xbeac3832	-0.33636624
107	0x3d03d94a	0.032189645
108	0xbeffe05c	-0.4997586
109	0xbdc5f57a	-0.096659616
110	0xbe4d184e	-0.20028803
111	0x3e39c93c	0.18143171
112	0xbe208a16	-0.15677676
113	0x3f88a339	1.0674812
114	0x3e03ab37	0.12858282
115	0x3e065c18	0.13121068
116	0x3ee14f39	0.44005755
117	0x3e1d5542	0.15364555
118	0xbeadab73	-0.33919868
119	0xbd8d757a	-0.069071725
120	0xbf123264	-0.5710814
121	0x3f2bad64	0.6706145
122	0xbf394dc3	-0.7238428
123	0x3d1357fc	0.03597258
124	0x3e292577	0.16518198
125	0xbd378184	-0.04480125
126	0xbc92789f	-0.017879782
127	0x3c9b84f4	0.018984295
128	0x3f095217	0.53640884
129	0x3f416c54	0.7555592
130	0x3e839dec	0.25706422
131	0x3e425220	0.1897664
132	0x3d4893a1	0.048968915
133	0xbe35d661	-0.1775756
134	0x3ef54657	0.47905228
135	0xbce3d94c	-0.027813576
136	0xbed78a8d	-0.42097893
137	0x3ed9e28e	0.4255566
138	0x3dd72dbf	0.10506772
139	0xbf54b9e2	-0.83096135
140	0xbebe5495	-0.37173906
141	0xbe1c42bf	-0.15259837
142	0x3db4b6ce	0.0882393
143	0x3ee4a4a5	0.44656864
144	0x3f82466d	1.0177742
145	0xbec7546d	-0.389316
146	0xbe2f1d24	-0.1710096
147	0xbed0eca3	-0.4080554
148	0xbbfd6c10	-0.0077338293
149	0x3e2538c7	0.1613494
150	0xbe372bce	-0.17887804
151	0xbc941fc3	-0.018081551
152	0x3f5a9b10	0.85392857
153	0x3e4f9890	0.20273042
154	0x3f574240	0.84085464
155	0xbe205b84	-0.1565991
156	0x3f1b2a10	0.6061106
157	0x3d3dc8b2	0.046333976
158	0x3e465251	0.19367339
159	0x3e7981ec	0.24365968
160	0xbe9ab607	-0.30217
161	0xbdd63808	-0.10459906
162	0xbf0100b0	-0.50391674
163	0xbe84db90	-0.25948763
164	0x3ed1489f	0.40875718
165	0xbc2502f7	-0.010071508
166	0xbcdb054b	-0.026735922
167	0x3bd02f2f	0.006353281
168	0x3f3feafd	0.7496794
169	0x3e1c607e	0.15271184
170	0x3f1b2a53	0.60611457
171	0x3e245b68	0.16050494
172	0xbec0e77e	-0.37676615
173	0x3de16dee	0.110072955
174	0xbc511561	-0.012761445
175	0x3d587d3a	0.0528538
176	0x3f0cce50	0.5500231
177	0x3e883e37	0.26609966
178	0xbe38dbc0	-0.18052578
179	0x3d369650	0.044576943
180	0x3dd27434	0.1027607
181	0xbe898077	-0.26855823
182	0x3e8ffe70	0.28123808
183	0xbdf0210c	-0.11725053
184	0xbf04efe1	-0.51928526
185	0x3ef43e51	0.47703794
186	0xbf301360	-0.68779564
187	0x3e37777a	0.1791667
188	0xbf19a175	-0.6001199
189	0x3e34c304	0.17652518
190	0xbe121b9e	-0.14268348
191	0xbd82f23c	-0.06393859
192	0x3e779d6f	0.2418115
193	0x3f1bf86d	0.6092594
194	0x3e40b76b	0.18819968
195	0xbb7616e7	-0.0037550272
196	0x3e8193e5	0.25308147
197	0xbdf5038a	-0.11963566
198	0x3ea58f95	0.32336107
199	0x3ca3cf2c	0.019996248
200	0xbef89230	-0.48549032
201	0xbe8dc609	-0.2769015
202	0xbe7827b1	-0.24233891
203	0x3ddf0e23	0.10891368
204	0x3df75a34	0.12077752
205	0x3dad2586	0.08454423
206	0x3e2d933a	0.16950694
207	0xbec15ce8	-0.37766194
208	0x3f08ba27	0.53409046
209	0x3ea65bf7	0.3249204
210	0x3ed50c65	0.4161102
211	0xbe746df1	-0.23870064
212	0xbe1f42af	-0.15552782
213	0x3e9fed73	0.31235847
214	0xbed6a60a	-0.41923553
215	0x3b228d77	0.0024803558
216	0xbe4b6990	-0.19864488
217	0x3f643e26	0.8915733
218	0x3d6079a7	0.054803517
219	0x3eee1398	0.46499324
220	0x3eb13796	0.3461272
221	0xbdf88095	-0.121339
222	0xbd21acee	-0.03947156
223	0xbc919397	-0.017770572
224	0xbe5b9c33	-0.21446304
225	0x3ed41ae2	0.4142676
226	0xbed29265	-0.41127315
227	0xbf4bd276	-0.7961801
228	0x3e3eb417	0.18623386
229	0x3e4bde73	0.19909076
230	0xbdbbdba7	-0.09172755
231	0x3d48af7a	0.048995472
232	0xbf0ba77a	-0.54552424
233	0xbf8a6f6c	-1.0815253
234	0xbe45bd82	-0.19310573
235	0x3e0cfdd5	0.13768704
236	0x3c0161cd	0.007896853
237	0xbed848e8	-0.42243123
238	0xbe011b0f	-0.12607978
239	0x3d7e077c	0.062018856
240	0x3efa0779	0.48833826
241	0xbbb28085	-0.0054474496
242	0x3f3770f1	0.7165671
243	0xbbaea2cc	-0.0053294655
244	0x3e0d488a	0.13797203
245	0x3e276761	0.1634803
246	0xbd2643ee	-0.040592127
247	0x3dc98c24	0.09841183
248	0xbed827d6	-0.42217892
249	0xbf776fc6	-0.9665493
250	0x3f314558	0.69246435
251	0x3db78824	0.08961514
252	0xbef6e5c5	-0.48222175
253	0x3e7c0afc	0.24613565
254	0xbcc5e219	-0.024155663
255	0xbd2a1938	-0.041527957

l1.bias f4 [64]
0	0x3f707d59	0.93941265
1	0x3f56df4a	0.8393446
2	0xbbbd942c	-0.0057854857
3	0x3ea189f8	0.31550574
4	0xbe46bddb	-0.19408362
5	0xbe5802a3	-0.21094756
6	0x3f589787	0.8460621
7	0xbf416d2d	-0.75557214
8	0xbef34e1e	-0.47520536
9	0xbeb259e3	-0.34834203
10	0x3f135b60	0.575613
11	0x3f1df8aa	0.61707556
12	0xbe9f7176	-0.3114125
13	0x3f9c0fa3	1.2192272
14	0xbe56441f	-0.20924424
15	0xbf04ed37	-0.5192446
16	0xbd300aef	-0.042979177
17	0xbe6b22a9	-0.2296244
18	0xbf67bacb	-0.905194
19	0x3e9bff02	0.30467993
20	0x3f2260bd	0.6342886
21	0x3f23a1b7	0.6391863
22	0xbe57a736	-0.2105988
23	0xbf2aae33	-0.66672057
24	0x3e70c778	0.23513591
25	0x3f9efd8b	1.2421125
26	0xbf733951	-0.9500933
27	0xbe1517ba	-0.14559832
28	0x3ed3bbc9	0.41354206
29	0x3ed229ba	0.4104746
30	0x3f828bcd	1.0198914
31	0x3f61fc9f	0.88276094
32	0x3f62fcf5	0.8866723
33	0x3f5545d9	0.83309704
34	0x3ebf7e84	0.3740121
35	0xbf88868e	-1.0666063
36	0x3f0564b3	0.5210678
37	0x3d9a042a	0.075203255
38	0x3f0bb792	0.5457698
39	0xbe16db9e	-0.14732215
40	0x3f89cccc	1.0765624
41	0x3f2aa518	0.66658163
42	0x3f8af081	1.0854646
43	0x3e43a609	0.19106306
44	0x3ef621ce	0.48072666
45	0x3e8302cd	0.25588074
46	0x3d46310b	0.048386615
47	0x3f6015fa	0.87533534
48	0x3da24261	0.07922817
49	0xbf41eaa0	-0.75748634
50	0x3f19f553	0.6013996
51	0x3d2fc83b	0.042915564
52	0xbe0e8e5f	-0.13921498
53	0xbdb48228	-0.08813888
54	0x3f4a0683	0.78916186
55	0x3d711743	0.058860075
56	0x3f88f72f	1.0700434
57	0x3f296367	0.661673
58	0xbe266f86	-0.1625348
59	0xbe034971	-0.12820984
60	0x3f617527	0.88069385
61	0x3ed44b37	0.41463634
62	0x3e0e1213	0.13874082
63	0xbe6a6958	-0.22891748

l2.weight f4 [64, 64]
0	0xbe27e61b	-0.16396372
1	0x3e896ac0	0.26839256
2	0xbf1fad81	-0.6237412
3	0x3f13eaac	0.57779956
4	0xbe32df1c	-0.17467922
5	0x3e901679	0.28142145
6	0x3db8007a	0.08984466
7	0x3e551831	0.2081001
8	0x3eca9742	0.39568526
9	0x3ddc3e5d	0.10754082
10	0x3e8e5278	0.27797294
11	0x3cdc8a90	0.02692154
12	0x3faa04a9	1.3282672
13	0x3e9754e5	0.29556957
14	0x3e7aeb5f	0.2450385
15	0x3e817955	0.25287881
16	0xbe98a5ef	-0.29814097
17	0x3eac53d4	0.33657706
18	0x3f44f5fa	0.7693783
19	0xbdb6c970	-0.0892514
20	0xbdbd652e	-0.09247814
21	0x3ebbcb75	0.36678663
22	0xbd722ffe	-0.0591278
23	0x3f6155c5	0.880215
24	0xbed08896	-0.40729207
25	0x3de03b37	0.10948794
26	0x3ec13434	0.3773514
27	0xbe99ccb1	-0.3003898
28	0x3e0f15b5	0.13973124
29	0x3ef528cb	0.47882685
30	0x3edda234	0.43287814
31	0x3f1a1001	0.6018067
32	0x3e545d0e	0.20738623
33	0x3d230fee	0.039810114
34	0xbddefd51	-0.1088816
35	0x3f1f7529	0.6228815
36	0xbec71efb	-0.38890824
37	0x3db33dea	0.087520435
38	0xbd9257a7	-0.071456246
39	0x3e874c1b	0.2642525
40	0x3d284297	0.04107913
41	0x3f17539c	0.5911195
42	0xba88341a	-0.0010391504
43	0x3e123d18	0.14281118
44	0x3e4d40a6	0.20044193
45	0xbc844bb1	-0.016149374
46	0xbcfb7778	-0.030696616
47	0x3e975e63	0.295642
48	0x3ebd4564	0.36967003
49	0xbec438c4	-0.3832456
50	0xbf25016c	-0.64455295
51	0x3ef1de14	0.47239745
52	0x3f28fe28	0.6601281
53	0x3e9b3593	0.3031431
54	0x3ead1393	0.33803996
55	0x3dc62b9f	0.09676289
56	0x3ec0734f	0.37587973
57	0xbf1a8c2f	-0.60370153
58	0x3ea91137	0.33020946
59	0x3e121ef9	0.14269628
60	0xbdce8ab0	-0.10085046
61	0x3e526cca	0.20549312
62	0x3e3c32ab	0.18378703
63	0x3bbd6d90	0.005780883
64	0xbc907c5d	-0.017637426
65	0x3ecb9dd9	0.39768866
66	0x3db7480f	0.08949291
67	0x3e421882	0.18954661
68	0xbd87fab2	-0.06639613
69	0x3e678c21	0.22612049
70	0x3f06158e	0.5237664
71	0xbf0d53bc	-0.55205894
72	0x3e12e72c	0.14345998
73	0xbdb07fa9	-0.08618099
74	0x3e711a0c	0.23545092
75	0x3e9d5384	0.3072778
76	0x3f868d0b	1.0511793
77	0xbe34c85b	-0.17654555
78	0x3ecfa18e	0.40552944
79	0xbf38ffe5	-0.72265464
80	0x3ebe997f	0.37226483
81	0x3ddaad11	0.10677541
82	0x3e94d386	0.2906763
83	0x3f39401e	0.7236346
84	0xbd9bd4a4	-0.07608917
85	0x3cfbec38	0.030752286
86	0xbec4c731	-0.3843322
87	0xbe083caf	-0.13304399
88	0x3d0aaabb	0.033854228
89	0x3e0eb175	0.13934882
90	0x3eb2dc37	0.34933636
91	0x3d098e8d	0.033583213
92	0x3e847266	0.2586853
93	0x3ef978bf	0.48724934
94	0x3d714086	0.058899425
95	0x3e44022f	0.19141458
96	0x3e58ac42	0.21159461
97	0xbf4f95f3	-0.8108818
98	0x3d1843c9	0.03717402
99	0xbfa08c42	-1.2542803
100	0x3e306079	0.17224301
101	0x3d926138	0.07147449
102	0xbe5aff68	-0.21386492
103	0x3de3d32f	0.111242644
104	0x3d57208e	0.05252128
105	0x3f0049f7	0.5011286
106	0x3eb15e05	0.34642044
107	0xbe27f8d0	-0.16403508
108	0xbeae7338	-0.3407228
109	0x3d768e16	0.060194097
110	0xbe486733	-0.19570617
111	0x3e3b6767	0.18301164
112	0x3d1f57f0	0.038902223
113	0x3e44462b	0.19167392
114	0x3ea368ec	0.31915987
115	0x3de92b37	0.11385196
116	0xbc6b4428	-0.014359511
117	0xbd9ff86d	-0.07811055
118	0xbe3aa25a	-0.18225995
119	0x3e877825	0.2645885
120	0xbe039e60	-0.12853384
121	0x3ec819d2	0.390822
122	0x3d80eb14	0.062948376
123	0x3e97fa1b	0.29683003
124	0xbf03a61c	-0.5142534
125	0x3effd351	0.4996591
126	0x3e99f836	0.30072182
127	0xbf166878	-0.58753157
128	0xbd9d139e	-0.07669757
129	0x3f1646c7	0.5870175
130	0x3e7e836b	0.2485482
131	0xbd336879	-0.043800805
132	0xbf2607d0	-0.6485567
133	0xbc481723	-0.0122125475
134	0x3f6bc569	0.920981
135	0xbeb26ed5	-0.34850183
136	0xbe825c04	-0.25460827
137	0x3d3b59d5	0.045739967
138	0x3e171eda	0.14757863
139	0xbc940f3f	-0.018073676
140	0xbf12e187	-0.5737538
141	0xbe9ef0fa	-0.31043226
142	0xbe10d712	-0.14144543
143	0xbc3da77a	-0.011575574
144	0x3b0aba5a	0.0021168203
145	0xbca1e693	-0.019763267
146	0xbe9d3648	-0.30705476
147	0xbd92e801	-0.071731575
148	0x3ee915bd	0.45524397
149	0xbead4a90	-0.3384595
150	0xbe72ba1b	-0.23703806
151	0xbf8871ea	-1.0659764
152	0xbdd602b5	-0.10449735
153	0x3db29e6f	0.08721625
154	0xbec8e026	-0.39233512
155	0x3e4a17cd	0.19735642
156	0x3bb6028e	0.0055545038
157	0x3f77c3c2	0.9678308
158	0xbedb6578	-0.42850852
159	0x3d7dee58	0.06199488
160	0x3ef5420e	0.47901958
161	0xbf0a889f	-0.5411472
162	0x3e601f61	0.2188697
163	0xbe1a6320	-0.15076876
164	0xbd905134	-0.07046738
165	0x3e92153b	0.28531823
166	0xbf798687	-0.974709
167	0xbbb1881f	-0.005417838
168	0x3e5cd4ca	0.21565548
169	0xbdacffbc	-0.08447215
170	0x3dd7a7a6	0.10530023
171	0x3ee712c9	0.4513152
172	0x3e28c806	0.16482553
173	0x3e64a5e5	0.22328909
174	0x3d45d01f	0.048294183
175	0x3e328c82	0.17436412
176	0xbd4b4634	-0.049627498
177	0xbf5526ea	-0.83262503
178	0x3bf09cce	0.0073429113
179	0xbe906b68	-0.28206944
180	0x3ded3487	0.115822844
181	0x3f3984b3	0.7246811
182	0x3ef7ed21	0.48423102
183	0x3f024c94	0.508981
184	0x3ec2bbd3	0.38033924
185	0xbeaadf78	-0.33373618
186	0xbc07bb96	-0.00828447
187	0xba7eec1a	-0.0009724513
188	0xbec24301	-0.37941745
189	0xbca55a65	-0.020184705
190	0xbca9a766	-0.020709705
191	0x3c5a06a1	0.0133072445
192	0x3e9b9054	0.3038355
193	0x3df7d7b6	0.121016905
194	0x3ed1994a	0.40937263
195	0x3eb26e1e	0.34849638
196	0x3ee93243	0.4554616
197	0xbbd09e9c	-0.006366564
198	0xbea81857	-0.3283107
199	0xbe4cff25	-0.20019205
200	0x3f789ae5	0.9711135
201	0xbf13f2d4	-0.577924
202	0x3d730aa3	0.059336316
203	0xbea2baca	-0.31783134
204	0x3f021c6f	0.50824636
205	0x3e9f5b97	0.31124565
206	0x3e585a69	0.21128239
207	0xbf99c712	-1.2013876
208	0xbfb85abd	-1.4402691
209	0x3e4ef5ed	0.20211
210	0x3e8e5cc1	0.2780514
211	0xbc8f3004	-0.01747895
212	0xbdc6e1d9	-0.09711046
213	0x3eb27241	0.34852794
214	0xbe570302	-0.20997241
215	0x3f1e3256	0.61795557
216	0x3e8dd58a	0.2770198
217	0x3ebe4f63	0.37169942
218	0xbd519f61	-0.051177386
219	0x3e7c7dbb	0.24657337
220	0x3ee3c8a1	0.44489005
221	0xbf0190e0	-0.50611687
222	0x3ec63b16	0.38716954
223	0x3e97dfef	0.29663035
224	0x3d9cf0a8	0.07663089
225	0x3f08e641	0.5347634
226	0x3eafa6d9	0.34306982
227	0x3e8700af	0.2636771
228	0x3dfc333e	0.12314461
229	0xbf012011	-0.50439554
230	0x3e95287f	0.2913246
231	0x3eaa9ea6	0.33324164
232	0x3ecf28be	0.4046077
233	0xbd5db812	-0.05413062
234	0x3e22216c	0.15833062
235	0x3e1d4035	0.15356524
236	0xbe087905	-0.13327415
237	0xbfa11b66	-1.2586486
238	0xbd340b5b	-0.043956142
239	0xbc0a076a	-0.008424619
240	0xbcc9339a	-0.024560738
241	0x3fa09b73	1.2547439
242	0xbebfbfc3	-0.3745099
243	0x3eff882b	0.49908575
244	0xbdf0bcd3	-0.11754765
245	0xbac286f6	-0.0014841247
246	0x3e95c409	0.29251125
247	0x3dbea79e	0.09309314
248	0x3e01e6fe	0.12685773
249	0xbd588db3	-0.05286951
250	0xbf559a43	-0.8343851
251	0x3d1f1ad8	0.03884396
252	0x3e87fb99	0.2655914
253	0x3d8a1ba7	0.067435555
254	0x3d973075	0.07382289
255	0xbea7241a	-0.3264473

l2.bias f4 [64]
0	0xbe84784d	-0.25873032
1	0x3df692a0	0.12039685
2	0x3e9878c6	0.29779643
3	0x3df156d5	0.1178414
4	0x3ddb52bc	0.1070914
5	0x3b0b72a6	0.0021278053
6	0xbdddd7f5	-0.10832206
7	0x3e84b0a1	0.25916007
8	0xbeffbc52	-0.49948364
9	0x3e1cb778	0.15304363
10	0x3ea1c522	0.31595713
11	0xbe53e0d7	-0.20691238
12	0xbd3f5a98	-0.046717256
13	0x3c854034	0.016265966
14	0x3e39d648	0.18148148
15	0x3e8aecb5	0.27133718
16	0x3e1c79a7	0.15280782
17	0xbe5b0cc2	-0.21391585
18	0x3ebf131f	0.37319276
19	0xbf206af4	-0.626632
20	0xbed7edba	-0.42173558
21	0x3e4a055a	0.19728604
22	0xbcacc775	-0.021091202
23	0x3dac63e9	0.08417494
24	0x3defda01	0.11711503
25	0x3f012ad9	0.50456005
26	0x3ea43b6a	0.3207658
27	0x3dc5c452	0.09656586
28	0xbe7b4fed	-0.24542208
29	0xbeccab62	-0.39974505
30	0xbe2a6d4c	-0.16643256
31	0x3efd83f5	0.49514738
32	0x3efed154	0.4976908
33	0xbdbabeba	-0.091184095
34	0x3e1d7192	0.15375355
35	0xbdae2763	-0.08503606
36	0x3ccb8a8e	0.024846341
37	0x3e5d622e	0.21619484
38	0x3f21b81d	0.6317156
39	0x3d560d39	0.052258704
40	0x3dccf3b7	0.100074224
41	0x3efd84a9	0.49515274
42	0x3e6566dc	0.22402519
43	0x3e479f67	0.19494401
44	0x3ec92e31	0.39293054
45	0x3e058480	0.13038826
46	0x3e8929fc	0.26789844
47	0xbe96d16d	-0.29456654
48	0x3dc248a3	0.094865106
49	0x3eba6da0	0.36411762
50	0x3ee7ad58	0.45249438
51	0x3de93463	0.11386945
52	0x3e916743	0.28399095
53	0x3e09a895	0.13443215
54	0xbe12ef79	-0.14349164
55	0xbdabf371	-0.08396042
56	0x3e52fae5	0.20603521
57	0x3d1bb2e0	0.038012385
58	0xbe0b5609	-0.13607039
59	0xbefd40be	-0.49463457
60	0xbdc82fce	-0.09774743
61	0xbc72ef47	-0.014827556
62	0xbdf0337b	-0.11728569
63	0xbdb44c46	-0.088036105

l3.weight f4 [2, 64]
0	0xbee75abc	-0.45186412
1	0x3eca7633	0.39543304
2	0x3fbc850f	1.4728106
3	0xbf9e4f49	-1.2367946
4	0xbf6c348e	-0.9226769
5	0x3e598e77	0.21245752
6	0xbf7de3e6	-0.9917587
7	0x3f34e60d	0.7066353
8	0xbfb21f38	-1.3915777
9	0x3ec37e1d	0.38182154
10	0x3fcf5a74	1.6199479
11	0x3fc513fe	1.5396726
12	0xbf538ce1	-0.8263684
13	0xbfebed07	-1.843171
14	0xbf444923	-0.766741
15	0x400f1340	2.23555
16	0xbe5d3d8d	-0.21605511
17	0xbf1836d3	-0.59458655
18	0xbf0e3b88	-0.5555959
19	0x402cabf2	2.6979947
20	0xc00f5d72	-2.2400784
21	0x3f379165	0.7170623
22	0xbe5a29cc	-0.21305007
23	0xc0080396	-2.1252189
24	0xbf35244a	-0.707585
25	0xbd8a2faa	-0.067473724
26	0xbf6693c0	-0.900692
27	0xbedc24e4	-0.42996895
28	0x3f89cc64	1.07655
29	0x3fccde52	1.6005347
30	0x3f2493f0	0.64288235
31	0x3fd79a21	1.6843911
32	0xbe0a12d0	-0.13483739
33	0x3db1fcb4	0.086907774
34	0x3ec13176	0.37733048
35	0x404a0996	3.156835
36	0xbf48589f	-0.78260225
37	0xbe329253	-0.17438631
38	0xbf93f60b	-1.1559461
39	0x403d9131	2.9619868
40	0x3e4830d5	0.19549878
41	0x3e4a0d4d	0.19731636
42	0x3fb91ea5	1.4462477
43	0x3fe94878	1.8225241
44	0xbf98d98c	-1.194139
45	0xbf723d47	-0.9462475
46	0x3fadeb36	1.3587406
47	0xc0223bf3	-2.534909
48	0x3fe7e733	1.8117431
49	0xbd601e92	-0.054716654
50	0xbd9afe69	-0.07568056
51	0xbe854a29	-0.26033142
52	0x3f9ef6fb	1.2419122
53	0x3e1bf073	0.15228443
54	0x3f9b3f49	1.2128688
55	0xbf71dadf	-0.94474596
56	0xbed7f6d1	-0.42180493
57	0xbf43a7a0	-0.7642765
58	0xbf8c28b7	-1.0949925
59	0xbf696dc6	-0.91183126
60	0x3f253afb	0.6454312
61	0x40336586	2.8030715
62	0xbfb6c16e	-1.427778
63	0xbe90677b	-0.2820395
64	0xbf9195ac	-1.1373801
65	0xbea206d9	-0.3164585
66	0x3e902328	0.28151822
67	0xbeefdd9a	-0.46848756
68	0x3e6c496a	0.2307488
69	0xbf45a554	-0.77205396
70	0xbfb6bd1b	-1.427646
71	0x3f54f426	0.8318504
72	0x3f37bfa5	0.717768
73	0xbe92fe3f	-0.287096
74	0x3ebf7190	0.3739133
75	0xbda2ec9c	-0.07955286
76	0xbff0ee2a	-1.8822682
77	0xc0317d4d	-2.7732728
78	0x3f2301f7	0.63674873
79	0x3ebff81f	0.3749399
80	0xc020ac33	-2.5105102
81	0x3efea5e8	0.4973595
82	0x3f3c3060	0.73511314
83	0x3fdc6562	1.721844
84	0xbf997501	-1.1988832
85	0xbf3af3c6	-0.7302822
86	0xbef5e3a7	-0.48025247
87	0x3c078efa	0.008273834
88	0x3f432f15	0.76243716
89	0x3f723be6	0.9462265
90	0x3f8a88bf	1.0822982
91	0xbf089eb8	-0.53367186
92	0x3ff83d1f	1.9393653
93	0x3f488ee6	0.78343046
94	0x3fd85537	1.6901006
95	0x3e618b6b	0.2202584
96	0x3fdc0923	1.7190288
97	0xbf83ab03	-1.0286564
98	0xbe4ce540	-0.20009327
99	0x3f88793f	1.0662001
100	0x3e495d37	0.19664465
101	0x3fb14a0f	1.3850726
102	0x3f2633ad	0.649226
103	0xbff65975	-1.924605
104	0xbeabdeab	-0.3356832
105	0x3fb1730d	1.3863236
106	0x3f369658	0.71323156
107	0xbe9681dc	-0.2939595
108	0x3f89efe9	1.077634
109	0xbfd4bbeb	-1.6619848
110	0xbf812e37	-1.0092229
111	0x3fbab09b	1.4585146
112	0x3ec75f96	0.38940114
113	0x3f1edcab	0.6205546
114	0x3f9f9126	1.2466171
115	0x3e87cce0	0.26523495
116	0xbf101892	-0.5628749
117	0xbe972564	-0.29520714
118	0xc0078bde	-2.1179118
119	0x3fcabeec	1.5839515
120	0xc00cfc72	-2.202908
121	0xbd02943c	-0.03187965
122	0xbf93eae1	-1.1556054
123	0x40053dc1	2.0818942
124	0xbf1ea920	-0.61976814
125	0x3fb2d3df	1.3970908
126	0xbfa5b0b9	-1.2944556
127	0xbe5462cf	-0.20740817

l3.bias f4 [2]
0	0x3e34185a	0.17587414
1	0xbd304705	-0.04303648
