uncertain/Swimmer-v2/uncertain.pth (torch, 22047 bytes, 5 tensors)

layer1.weight f4 [64, 10]
-0.21569745 -0.20355698 -0.2139571 -0.17481291 -0.05653636 0.030955411 0.14947589 0.11088759
-0.031182278 0.00459593 0.046134252 -0.22406708 -0.14672787 -0.016211737 -0.1402985 -0.040897574
0.26700142 0.16643944 -0.049904812 0.1282269 0.21891613 0.13285491 -8.137672e-05 1.0840349e-05
0.19836876 3.3068663e-05 -0.19667754 -0.1349288 -0.12477577 -0.010732344 0.12696938 -0.24757434
-0.20907749 0.08246085 -0.09205322 -0.26066536 -0.2416123 -0.038562782 8.674401e-13 0.23864052
0.14504787 0.14232121 0.28764743 0.0049397396 0.12921792 0.017663827 -0.21129164 0.09306852
0.18064241 0.22956169 0.10193971 -0.26127526 0.25371924 0.0059252195 0.22559568 0.13294587
-0.045150273 -0.000106981934 -0.03342403 0.11699432 -0.20600724 0.08124889 -0.053379785 -0.23720905
-0.10863662 0.036208946 -0.22574341 0.18931967 0.30693287 0.10105653 -0.1532661 0.0907611
-0.23638596 -0.0033869762 -0.018045012 0.0013272315 0.0040637297 -0.062309828 -0.046999224 0.17581369
0.118030205 0.15358412 -0.26842523 -0.20142713 -0.00016921689 -0.11777814 0.0996673 -0.1564505
0.16157141 -0.15564172 8.346219e-06 -0.21112408 0.04464168 -0.16213042 -0.11438172 0.18708646
0.260777 0.040169343 -0.26332822 0.124953344 -0.17353888 0.06173932 0.08549486 0.17250377
-0.08572586 0.1107573 -0.24493995 -0.065791525 0.26556432 -0.08078044 0.12823686 -0.012449084
-0.07821003 -0.11949243 0.25640592 -0.046496034 0.11041453 0.12971233 -0.056693256 -0.17897019
0.21884686 0.14138831 0.10110278 -0.16577196 -0.07126349 0.0037329982 0.0042809546 -0.19524862
0.045814842 -0.21846174 -0.17231749 0.17493166 0.0076717813 0.26027453 0.0031248822 0.117471635
0.21640533 -0.0064189737 0.24608558 0.09061564 -0.01224666 0.2543328 0.09135081 0.23498347
-0.16595316 -0.23990063 -0.0951679 -0.044922855 0.20558208 -0.23124911 -0.14705317 0.04767931
-0.056334887 -0.17115219 0.16600543 0.0937602 0.052713245 -0.10848283 0.21394885 0.031893935
0.004689886 -4.0305506e-05 0.012169632 0.0020394078 0.0017517813 -0.121158615 -0.1850253 -0.038292266
-0.14357527 0.017434508 0.03314483 -0.0034013442 0.24216455 -0.09137791 0.18765345 0.0031838943
-0.15440126 0.14138393 -0.21946646 -0.09689331 -0.06975731 -0.08926129 0.25982118 -0.23976243
-0.22198422 -0.2026626 -0.0034060893 -0.05932789 -0.0329622 -0.025926808 0.1810784 -0.14909047
-0.06630464 0.12508151 -0.20694302 -0.24418043 0.11663354 0.14732078 -0.09958875 0.1870715
0.19810648 -0.04748384 0.15687025 0.20060797 -0.04914946 0.015731057 0.083436005 -0.0035448289
0.18140264 0.04060499 0.2039484 0.19207913 -0.19209819 0.23962218 -0.16923235 0.0021695467
-0.0073610456 0.018620117 0.05360389 -0.06536555 -0.27282885 0.21667819 -0.10169923 -0.24609172
-0.21961315 0.00047487277 0.016262626 -0.0072560073 0.30344418 0.041776653 0.109492615 -0.18203808
-0.18786067 0.072291896 0.17287286 0.051817097 -0.063806094 0.0061917687 0.03306605 -0.18204075
0.13830306 0.2978046 0.2964018 0.12731163 -0.061479148 0.114434935 0.00087153784 0.010521519
0.04232517 -0.16745478 -0.10447158 0.06813126 -0.05397039 -0.11465745 -0.12533687 0.03748763
00000000: cbdf 5cbe 3e71 50be 9217 5bbe 2802 33be
00000010: ac92 67bd 3496 fd3c 3510 193e 0819 e33d
00000020: fa71 ffbc 7599 963b 45f7 3c3d d771 65be
00000030: d53f 16be 7ace 84bc 69aa 0fbe 3784 27bd
00000040: 69b4 883e 1a6f 2a3e fd68 4cbd ea4d 033e
00000050: 8d2b 603e 1e0b 083e cba8 aab8 f2de 3537
00000060: 2e21 4b3e 35b3 0a38 d665 49be c62a 0abe
00000070: 708a ffbd b7d6 2fbc 4304 023e 2184 7dbe
00000080: 6918 56be 3ce1 a83d 6686 bcbd ee75 85be
00000090: 3769 77be 02f4 1dbd a629 742b 2e5e 743e
000000a0: 6e87 143e a7bc 113e 8646 933e 8add a13b
000000b0: b451 043e bbb3 903c d65c 58be b59a be3d
000000c0: 53fa 383e 3812 6b3e c4c5 d03d dfc5 85be
000000d0: 7de7 813e 5828 c23b 8e02 673e f622 083e
000000e0: 7eef 38bd 7d5b e0b8 a3e7 08bd b89a ef3d
000000f0: 90f3 52be d165 a63d c3a4 5abd eee6 72be
00000100: e07c debd d54f 143d 4829 67be 04dd 413e
00000110: 4e26 9d3e baf6 ce3d caf1 1cbe f5e0 b93d
00000120: 290f 72be 08f8 5dbb 22d3 93bc 80f6 ad3a
00000130: 0929 853b 9738 7fbd 4282 40bd 8108 343e
00000140: d2b9 f13d 2845 1d3e 086f 89be ea42 4ebe
00000150: d06f 31b9 aa35 f1bd 5f1e cc3d 8f34 20be
00000160: fa72 253e 8b60 1fbe bd06 0c37 e930 58be
00000170: 32da 363d 8405 26be f740 eabd 9893 3f3e
00000180: 9084 853e 9c88 243d f5d2 86be 8ae7 ff3d
00000190: 2db4 31be 5fe2 7c3d ee17 af3d d4a4 303e
000001a0: 0a91 afbd b9d4 e23d 8ad1 7abe b5bd 86bd
000001b0: 0cf8 873e 3770 a5bd 8650 033e 3ef7 4bbc
000001c0: 952c a0bd 72b8 f4bd a347 833e a072 3ebd
000001d0: 0321 e23d 4fd3 043e 3037 68bd f643 37be
000001e0: 6419 603e 19c8 103e f90e cf3d 20c0 29be
000001f0: 98f2 91bd 51a5 743b 4047 8c3b 41ef 47be
00000200: 58a8 3b3d 6fb4 5fbe ff73 30be 4921 333e
00000210: 9163 fb3b b442 853e d3ca 4c3b f894 f03d
00000220: 5c99 5d3e 4156 d2bb dcfd 7b3e b194 b93d
00000230: 37a6 48bc e937 823e 2216 bb3d 829f 703e
00000240: a0ef 29be 83a8 75be 63e7 c2bd 0701 38bd
00000250: 1c84 523e 91cc 6cbe 1b95 16be 614b 433d
00000260: 69bf 66bd 8542 2fbe 54fd 293e 5905 c03d
00000270: d8e9 573d 3f2c debd 6815 5b3e 37a3 023d
00000280: 9dad 993b b50d 29b8 2363 473c 96a7 053b
00000290: 079c e53a 0222 f8bd 4677 3dbe 5ad8 1cbd
000002a0: 6505 13be d0d2 8e3c e0c2 073d 16e9 5ebb
000002b0: fcf9 773e 5724 bbbd 3a28 403e e2a8 503b
000002c0: 5d1b 1ebe f3c6 103e d1bb 60be 0070 c6bd
000002d0: ecdc 8ebd a0ce b6bd 4807 853e 4884 75be
000002e0: d54f 63be c986 4fbe b238 5fbb cd01 73bd
000002f0: 5f03 07bd 7564 d4bc 9e6c 393e 2cab 18be
00000300: baca 87bd 5e15 003e dfe8 53be 6f0a 7abe
00000310: 91dd ee3d 42db 163e 30f5 cbbd ac8f 3f3e
00000320: 6ddc 4a3e 6a7e 42bd 98a2 203e 2d6c 4d3e
00000330: f250 49bd 6bde 803c 7fe0 aa3d 5c50 68bb
00000340: 9dc1 393e 6b51 263d d9d7 503e 64b0 443e
00000350: 63b5 44be 845f 753e 3f4b 2dbe f42e 0e3b
00000360: ed34 f1bb 3789 983c c18f 5b3d 60de 85bd
00000370: 39b0 8bbe e3e0 5d3e b047 d0bd 78ff 7bbe
00000380: 45e2 60be 58f8 f839 3339 853c cdc3 edbb
00000390: 095d 9b3e ff1d 2b3d aa3d e03d 3168 3abe
000003a0: 8c5e 40be c60d 943d 9505 313e 2a3e 543d
000003b0: c5ac 82bd 52e4 ca3b 4470 073d e468 3abe
000003c0: 519f 0d3e d879 983e fac1 973e fb5d 023e
000003d0: 8fd1 7bbd dd5c ea3d ea77 643a 7362 2c3c
000003e0: 285d 2d3d 4479 2bbe 32f5 d5bd 6788 8b3d
000003f0: 0e10 5dbd 86d1 eabd 4f58 00be a18c 193d

layer1.bias f4 [64]
-0.05386957 0.031401634 -0.0002099594 -0.24898246 0.029861784 0.0905335 -0.13258466 -0.1837118
0.13164261 0.0048242197 0.16607478 -0.017868774 0.07271266 0.267717 0.041096505 -0.104416214
0.007243027 0.17451936 -0.20913906 -0.209441 0.009424071 0.050734863 0.24382696 0.0005965591
-0.22446376 -0.21173854 0.039974343 -0.09973588 0.16214302 -0.1424355 -0.22863777 -0.05791923
-0.0076468224 0.16106537 0.087567 -0.108392 0.2511435 -0.14653301 -0.28607538 -0.09742945
0.18134408 0.2318189 0.2602263 -0.26723498 0.24365094 -0.077792466 -0.2646552 0.024567239
0.082032844 -0.043163374 0.20529416 -0.11396441 -0.0849032 0.20365226 0.17242749 0.21971774
0.15765528 -0.16995849 -0.027589723 0.1815205 0.08455549 0.22478803 0.10752849 -0.19578718
00000000: 57a6 5cbd 009f 003d 8c28 5cb9 42f5 7ebe
00000010: b3a0 f43c a169 b93d 46c4 07be f21e 3cbe
00000020: 52cd 063e 7d14 9e3b 820f 2a3e 8961 92bc
00000030: 60ea 943d 3412 893e cf54 283d 2bd8 d5bd
00000040: ea56 ed3b 34b5 323e 8d28 56be b477 56be
00000050: 6b67 1a3c 5ccf 4f3d c6ad 793e 6762 1c3a
00000060: d4d9 65be fdd1 58be 23bc 233d 5342 ccbd
00000070: d208 263e 9dda 11be 0520 6abe b73c 6dbd
00000080: 3292 fabb 52ee 243e 5456 b33d a0fc ddbd
00000090: e195 803e c00c 16be 7978 92be 1789 c7bd
000000a0: 43b2 393e ef61 6d3e 623c 853e 06d3 88be
000000b0: a27f 793e a851 9fbd e380 87be 3c41 c93c
000000c0: d600 a83d 14cc 30bd a238 523e 2c66 e9bd
000000d0: bbe1 adbd 388a 503e d590 303e b0fd 603e
000000e0: 6370 213e 9909 2ebe d803 e2bc 83e0 393e
000000f0: 6e2b ad3d d52e 663e e637 dc3d 6f7c 48be

layer2.weight f4 [64, 64]
-0.028485846 -0.0012198088 -0.010257481 0.027571248 0.01850103 0.031287715 0.003242433 0.06668083
-0.013562707 -0.027941888 -0.056281358 0.023912301 0.07077863 -0.0166937 0.029044556 0.033998244
0.0004305449 0.044128425 -0.07476802 0.05328791 0.07025986 0.0054551563 -0.002399638 0.00033239898
0.026722146 -0.07378364 0.03647884 -0.033777814 0.053911876 -0.02448484 1.203983e-09 -0.03509102
-0.07946793 -7.716836e-06 0.00027134398 0.041125156 0.07545526 0.04199023 -0.007143359 -0.032864906
-8.478117e-05 0.000110497305 -0.027791375 -0.009615551 0.0037265099 -0.017888082 -0.0051564854 -0.00462318
-0.027455688 0.0633208 0.00029810867 -0.06684359 -0.0002888477 0.06956774 0.071172036 0.046452347
-0.04028724 -0.0002725404 0.030616574 -0.0028501034 -0.0726008 0.007651026 -0.071789145 -0.011171692
-0.028224804 0.001241277 0.06412766 -0.023249015 0.00025254177 -0.03804552 -0.01149973 0.0012483493
0.015101124 -0.065671 1.4277333e-13 0.043869603 0.07515282 -0.059676554 0.0040891473 0.003257022
0.06746856 0.00672321 -0.026103843 -0.007897727 0.0029151414 0.0009227908 -0.00084244553 0.000299222
0.017626256 -0.00065286126 0.075647205 3.7835955e-06 0.006793466 -0.052124728 0.0023340692 0.0062182005
0.0151265105 0.04516262 -0.012978639 -0.036959972 -0.0676381 0.014727934 0.06438497 0.00013839196
0.0024764622 -0.0017625641 -0.0011728659 0.028244644 -0.012272756 0.061481677 0.017414693 -0.033052187
2.7704415e-05 -0.006815948 -0.048889913 0.03472352 0.07654504 -0.022084478 -0.050151285 2.446805e-13
0.06788332 -0.0069718384 -0.069053665 -0.07249938 0.06190388 -0.029372105 0.027253028 0.037373245
0.065082535 -0.037270658 0.03964605 -4.6143323e-15 -2.035145e-08 -0.07058769 -0.057008132 0.05912879
-0.013931642 0.051874187 2.6981875e-06 -0.079519205 -0.027568668 -0.076015204 0.0084780725 2.5803937e-14
-0.05512148 7.9105325e-07 0.02563515 0.012470909 -0.047687877 -0.013236239 1.4850187e-06 -0.011118433
2.3002975e-13 4.5848243e-05 -8.4254754e-14 0.01186181 -0.03968054 0.012763021 0.026044397 -0.062765814
4.980447e-10 0.0245189 0.03505007 0.003218225 -0.00016337 0.036427584 -0.07672478 -0.039414532
0.034582414 0.018949097 0.042269494 0.021552686 0.068365216 1.3656609e-14 -0.004822085 -0.0119247725
-0.002486289 0.016361091 -0.039284416 0.0002335189 0.055750698 0.011014012 0.020996327 -0.028912535
-0.012446115 0.04083777 0.042827915 -0.063539214 -0.07152665 0.020917714 -0.017425999 -0.0135072665
0.030436082 0.011692392 -8.647245e-06 0.033324882 -0.010532799 -4.680816e-05 0.09504962 -0.03552427
0.024833744 -0.050772715 -0.09652072 0.008030092 0.047323637 0.13132492 -0.07721219 -0.015940182
-1.1828939e-05 0.0039812704 -0.006220464 -0.008282004 0.0043361583 0.035407227 0.045282524 -0.040746007
-0.032559026 0.06874037 0.047711976 0.009749866 0.008777157 -0.0809492 0.0010346493 -0.052515138
-0.072982155 0.023249526 -0.061244868 -0.00048429257 0.07436506 -0.06001373 0.0506262 -0.023853887
0.02488725 0.054177083 0.06534151 -0.05854422 0.025791224 0.04333703 0.019914145 -0.022016361
-0.06668503 0.028412173 0.071313724 -0.07897139 0.0037851008 0.0022333006 0.08287212 0.061336208
0.028640676 0.019034557 2.3914958e-05 -0.031249095 0.053602304 -0.031641487 -0.020448241 0.04037715
00000000: 265b e9bc fee1 9fba fe0e 28bc 19dd e13c
00000010: 798f 973c 8c27 003d 007f 543b f68f 883d
00000020: 1e36 5ebc 63e6 e4bc 4887 66bd bbe3 c33c
00000030: 63f4 903d 3ac1 88bc d9ee ed3c be41 0b3d
00000040: c2ba e139 02c0 343d fa1f 99bd 6c44 5a3d
00000050: 67e4 8f3d 2bc1 b23b 3f43 1dbb d645 ae39
00000060: 67e8 da3c e11b 97bd d66a 153d 9b5a 0abd
00000070: b3d2 5c3d 6e94 c8bc 6379 a530 9abb 0fbd
00000080: 15c0 a2bd 8f77 01b7 2c43 8e39 da72 283d
00000090: 4a88 9a3d f3fd 2b3d d712 eabb 5a9d 06bd
000000a0: 8bcc b1b8 caba e738 bdaa e3bc 8b8a 1dbc
000000b0: 7638 743b 078a 92bc bcf7 a8bb 0b7e 97bb
000000c0: c0ea e0bc 56ae 813d 784b 9c39 4be5 88bd
000000d0: 7b70 97b9 8879 8e3d a5c2 913d d144 3e3d
000000e0: 3c04 25bd c1e3 8eb9 9ccf fa3c cdc8 3abb
000000f0: baaf 94bd 75b5 fa3b 3006 93bd 7909 37bc
00000100: b437 e7bc 58b2 a23a 5d55 833d b874 bebc
00000110: 9567 8439 9fd5 1bbd 5d69 3cbc a79f a33a
00000120: b46a 773c 847e 86bd 9cbf 202a 9db0 333d
00000130: b9e9 993d 676f 74bd 41fe 853b c373 553b
00000140: f52c 8a3d 604e dc3b bad7 d5bc 7865 01bc
00000150: f50b 3f3b 71e7 713a 90d7 5cba e6e0 9c39
00000160: f064 903c c724 2bba ecec 9a3d ade9 7d36
00000170: b99b de3b bd80 55bd 2ff7 183b 0cc2 cb3b
00000180: 2fd5 773c 70fc 383d 5ca4 54bc 5763 17bd
00000190: d885 8abd 6f4d 713c 44dc 833d 4f1d 1139
000001a0: 244c 223b d605 e7ba d9ba 99ba 5061 e73c
000001b0: ab13 49bc 36d4 7b3d 42a9 8e3c bb61 07bd
000001c0: c766 e837 5158 dfbb ca40 48bd 403a 0e3d
000001d0: a5c3 9c3d 82ea b4bc 6f6b 4dbd 2dbe 892a
000001e0: 6906 8b3d 0574 e4bb 026c 8dbd 8e7a 94bd
000001f0: ec8e 7d3d c59d f0bc be41 df3c b014 193d
00000200: fe49 853d 1ea9 18bd e663 223d b43f a6a7
00000210: 50d1 aeb2 4790 90bd 5c81 69bd 0831 723d
00000220: 8b41 64bc 077a 543d 8212 3536 f7da a2bd
00000230: b0d7 e1bc dcad 9bbd 9de7 0a3c d46b e828
00000240: 10c7 61bd c458 5435 ce00 d23c c952 4c3c
00000250: 5d54 43bd cfdc 58bc db50 c735 172a 36bc
00000260: c87e 812a 2d4d 4038 8fb9 bda9 0a58 423c
00000270: 1088 22bd fd1b 513c 0f5b d53c 5d8b 80bd
00000280: c8e6 0830 dcdb c83c aa90 0f3d dbe8 523b
00000290: 4d4e 2bb9 1735 153d e221 9dbd 2271 21bd
000002a0: 4aa6 0d3d 233b 9b3c c722 2d3d 428f b03c
000002b0: 1003 8c3d fe03 7628 9502 9ebb 1f60 43bc
000002c0: 02f1 22bb b207 863c b2e8 20bd c1dc 7439
000002d0: d85a 643d 1d74 343c 7d00 ac3c fbd9 ecbc
000002e0: caea 4bbc 8145 273d 536c 2f3d d920 82bd
000002f0: 907c 92bd a05b ab3c f8c0 8ebc 954d 5dbc
00000300: 1755 f93c 7291 3f3c a213 11b7 ac7f 083d
00000310: c391 2cbc e153 44b8 60a9 c23d e681 11bd
00000320: 2370 cb3c 0df7 4fbd a8ac c5bd a690 033c
00000330: 6ed6 413d 0a7a 063e 6d21 9ebd fc94 82bc
00000340: e874 46b7 5175 823b 09d5 cbbb 3eb1 07bc
00000350: 5516 8e3b 2b07 113d 2b7a 393d 49e5 26bd
00000360: 9d5c 05bd c0c7 8c3d a26d 433d e7bd 1f3c
00000370: 11ce 0f3c b2c8 a5bd 129d 873a 1d1a 57bd
00000380: ab77 95bd ca75 be3c e6db 7abd a6e8 fdb9
00000390: b54c 983d f5d0 75bd 6b5d 4f3d 3a69 c3bc
000003a0: 59e0 cb3c cae8 5d3d c5d1 853d 10cc 6fbd
000003b0: 1e48 d33c 2b82 313d fd22 a33c a85b b4bc
000003c0: 2992 88bd a5c0 e83c ee0c 923d c1bb a1bd
000003d0: 740f 783b 915c 123b dcb8 a93d ad3b 7b3d
000003e0: da9f ea3c 5cee 9b3c fb9c c837 1afe ffbc
000003f0: 178e 5b3d 819a 01bd 1283 a7bc 8362 253d

layer2.bias f4 [64]
-0.076999396 -0.0011910829 -0.019071054 0.089372605 0.052615426 0.103193924 0.075047836 -0.010066982
-0.007471816 0.0102551645 0.026426887 0.036180016 0.0068545337 -0.06988354 0.025252128 0.05804504
-0.044700366 0.035678115 0.015780536 0.08976585 -0.01901211 0.07942431 0.03864288 -0.012418054
0.08551914 0.03842961 0.06905325 0.08133042 0.1276876 0.09734877 0.04810603 0.057005133
-0.021606904 -0.036785886 0.09675693 0.023724617 -0.053632863 -0.022540728 0.06652432 0.07014052
0.069158666 0.022640608 -0.006990039 -0.11170192 -0.062020175 -0.035581782 0.07810487 -0.056010313
-0.002198195 0.10391239 0.02361649 -0.06031738 0.041630905 0.0030196179 -0.07063376 0.003954396
-0.035056233 -0.012227725 -0.01666336 0.02053834 0.016672153 -0.039279114 -0.044638682 0.086002894
00000000: dcb1 9dbd 1c1e 9cba e63a 9cbc fc08 b73d
00000010: 4683 573d 5657 d33d aeb2 993d fcef 24bc
00000020: 23d6 f4bb 4705 283c 337d d83c 7f31 143d
00000030: ff9b e03b 1a1f 8fbd 8ddd ce3c a3c0 6d3d
00000040: bb17 37bd 3723 123d 2f46 813c 28d7 b73d
00000050: 49bf 9bbc 36a9 a23d ff47 1e3d 1875 4bbc
00000060: a924 af3d 5e68 1d3d ca6b 8d3d 9090 a63d
00000070: 8ac0 023e cb5e c73d d40a 453d 377e 693d
00000080: f600 b1bc ccac 16bd 7f28 c63d 215a c23c
00000090: 22ae 5bbd 55a7 b8bc e73d 883d d5a5 8f3d
000000a0: 0fa3 8d3d cc78 b93c b20c e5bb fac3 e4bd
000000b0: de08 7ebd 34be 11bd 72f5 9f3d 126b 65bd
000000c0: 980f 10bb 05d0 d43d 5f77 c13c 5b0f 77bd
000000d0: 2b85 2a3d c8e4 453b 6fa8 90bd e193 813b
000000e0: 2097 0fbd cc56 48bc 9981 88bc 0540 a83c
000000f0: 0a94 883c 23e3 20bd 0dd7 36bd 4922 b03d

layer3.weight f4 [1, 64]
0.029160494 0.07133771 -3.7135637e-12 0.035099044 -0.09037097 0.12482917 -0.007275474 -0.014670705
-0.026514838 -0.05217282 0.034115575 0.056850564 -0.10059445 -0.052072868 0.08992624 0.10404438
0.12684251 0.1259224 0.06803214 0.100794174 -0.05559844 -0.09743059 0.05611863 -0.049391232
0.103138484 -0.0604936 -0.00935631 -0.10019436 0.031110572 0.0030106686 0.11875443 -0.056561247
-0.06455343 0.10252087 -0.0494803 -0.0962699 0.0019323088 0.040226426 -0.05974124 0.031898562
0.08460172 0.008694045 -0.044292137 -0.096386544 0.096262746 0.0012919912 0.07159173 0.02044612
0.14065166 0.029678917 0.06756669 -0.0523967 -0.018852096 0.112781994 -0.019417517 0.019986723
0.04412774 -0.0865313 0.023112392 0.097354546 0.04475208 -0.067552276 -0.06795627 0.023097575
00000000: fde1 ee3c 8119 923d cfa8 82ac 04c4 0f3d
00000010: 6a14 b9bd 70a6 ff3d 1967 eebb 665d 70bc
00000020: a535 d9bc 2bb3 55bd c6bc 0b3d 23dc 683d
00000030: 7704 cebd 5c4a 55bd 402b b83d 3815 d53d
00000040: 01e3 013e cdf1 003e 6f54 8b3d 2d6d ce3d
00000050: 31bb 63bd b089 c7bd a6dc 653d 764e 4abd
00000060: 453a d33d 23c8 77bd 354b 19bc b332 cdbd
00000070: 99db fe3c a34e 453b 8635 f33d c4ac 67bd
00000080: 9734 84bd 76f6 d13d dbab 4abd 2729 c5bd
00000090: 8645 fd3a 77c4 243d 3bb3 74bd 11a8 023d
000000a0: ab43 ad3d 7871 0e3c ac6b 35bd 4f66 c5bd
000000b0: 6725 c53d 0858 a93a af9e 923d 9f7e a73c
000000c0: fd06 103e 3321 f33c 6860 8a3d ec9d 56bd
000000d0: b66f 9abc 3ffa e63d 7c11 9fbc 32bb a33c
000000e0: 4abf 343d 5237 b1bd 3356 bd3c d261 c73d
000000f0: f54d 373d d958 8abd a82c 8bbd 2037 bd3c
