uncertain/Reacher-v2/actor.pth (torch, 505055 bytes, 6 tensors)

l1.weight f4 [400, 11]
-0.5346139 0.23263574 -0.012928042 0.29950333 -1.9242191 1.017189 -0.012171703 -0.025542976
0.14680016 0.13497546 0.031997204 -0.08791652 0.06562794 0.58189106 -0.17073594 0.8424072
1.5141616 0.022365248 -0.003325093 0.03704018 -0.5664352 0.27728254 -0.57186186 -0.016772512
0.24398234 0.27989063 -0.30971357 0.5687495 -0.03497406 -0.032126717 0.8574351 -0.022302879
0.059353292 -0.2943322 0.2552664 -0.1892899 0.013968151 -0.80328375 1.0474265 -0.0068063443
0.021052724 0.21949224 -0.67405486 0.29083294 -0.106151685 -0.32360032 0.088335566 0.18518333
1.2470169 1.7309284 0.043105774 0.02371323 -1.5306963 -0.7717281 0.083152145 -0.13281633
-0.0038030914 0.13495259 0.128549 -0.19754562 -0.008727737 0.0021822813 -0.009896024 1.0706637
0.25394157 0.29658198 0.20878197 -0.20051913 0.25920853 -0.056848824 -0.1701871 -1.2573125
-0.0038814854 -0.0107034035 0.24883279 0.17139693 -0.20409247 -0.42555645 -0.09271684 0.008015293
0.31224823 1.1610552 0.8037488 0.051530864 0.023684528 -0.37953964 -0.99188423 -0.20462316
-0.07805565 -0.18999366 -0.10665399 0.08714095 -0.40502203 -1.9264138 0.027971221 0.015753368
0.31692073 0.7277433 0.20704746 0.26025057 0.03607054 0.17653379 0.039797556 0.5491338
-0.6494355 0.0035050847 0.01628643 -0.191378 0.6613677 0.29552305 -0.31106737 0.27605215
0.093925215 0.1462262 -0.7201679 0.2896091 0.026701847 -0.015333678 -0.072647214 -0.12333699
-0.20977975 0.019911315 -0.11414495 -0.11848632 -0.08380587 -0.61027515 -0.47556233 -0.0005951752
0.0028581403 0.47945297 0.15832491 0.1908372 0.057231277 -0.379192 -0.08176773 -0.08998835
0.53468037 1.2011517 -0.010404117 -0.052286718 0.14012012 -1.0974545 -0.22077125 0.08369047
0.29331452 0.15969385 -0.00634921 1.1019495 0.12178686 0.006890779 0.010107545 0.037991963
-0.36538842 0.25156868 -0.15380126 0.065295115 0.1252124 -0.046429195 -0.817339 1.5176353
-0.03722575 0.009281364 0.07618544 -1.3873863 -0.1200812 0.016776083 -0.7090169 0.30350605
0.41779107 -0.13643472 -1.3908066 -0.01890666 0.06352467 -0.23743246 0.6533188 -0.28420597
-0.23664708 0.030933267 -0.25019193 0.13627413 -0.24159193 0.58743465 -0.024589548 -0.0014786111
-0.046536285 -0.7287932 0.08571097 -0.06726146 0.05386105 0.010837047 -0.2473186 0.010744967
2.095214 0.0011500128 -0.053939268 0.18159045 -0.8667999 0.29176462 0.36601475 0.18656026
-0.2530159 -0.18619649 1.1006291 0.005866933 -0.04580395 -0.00085315824 0.27074677 -0.2805451
0.042609334 -0.36949003 0.07630284 -0.25868613 -0.04676377 -0.6401456 -0.8188293 -0.03250126
-0.039358534 0.34773383 0.5696597 -0.08414386 0.4822813 0.0676861 -0.27830282 -0.32948634
0.87854964 -0.591474 -0.004991319 0.004547633 0.39694053 -0.11059385 0.05568382 -0.055501938
0.043112833 0.2572021 0.6924507 -0.3235896 1.8463722 0.011838073 0.05133719 0.6845707
-1.4961765 -0.00030052662 -0.040823065 0.008164711 -0.25325832 -0.16254765 0.0046030623 1.0393894
-0.04524646 -0.0078394255 -0.07180309 -0.86295784 -0.15114702 0.27799132 0.15002513 0.0050389376
00000000: 75dc 08bf 1038 6e3e 23d0 53bc 8058 993e
00000010: d04c f6bf 4033 823f d36b 47bc 813f d1bc
00000020: c852 163e 0237 0a3e 800f 033d 940d b4bd
00000030: f167 863d d0f6 143f 67d5 2ebe 00a8 573f
00000040: 0cd0 c13f 5337 b73c cee9 59bb 72b7 173d
00000050: e601 11bf faf7 8d3e 8a65 12bf 8266 89bc
00000060: 82d6 793e d34d 8f3e c792 9ebe 9199 113f
00000070: f640 0fbd 4e97 03bd de80 5b3f 87b4 b6bc
00000080: 701c 733d b6b2 96be 47b2 823e 36d5 41be
00000090: acda 643c 01a4 4dbf 1212 863f c107 dfbb
000000a0: c376 ac3c 93c2 603e dc8e 2cbf 0ee8 943e
000000b0: 0e66 d9bd f1ae a5be 47e9 b43d b3a0 3d3e
000000c0: 409e 9f3f 108f dd3f ae8f 303d 3f42 c23c
000000d0: dbed c3bf f98f 45bf ac4b aa3d 0101 08be
000000e0: 493d 79bb 0331 0a3e 59a2 033e 6649 4abe
000000f0: c8fe 0ebc 9b04 0f3b ef22 22bc 820b 893f
00000100: a104 823e 98d9 973e f1ca 553e e354 4dbe
00000110: fbb6 843e 50da 68bd 8745 2ebe 9eef a0bf
00000120: 8560 7ebb 545d 2fbc 06ce 7e3e ad82 2f3e
00000130: 9efd 50be 89e2 d9be 54e2 bdbd 9352 033c
00000140: 00df 9f3e 759d 943f 7bc2 4d3f 0712 533d
00000150: 0e06 c23c 0553 c2be 20ec 7dbf bc88 51be
00000160: a4db 9fbd b38d 42be 686d dabd f476 b23d
00000170: 0c5f cfbe ba94 f6bf e723 e53c 350d 813c
00000180: 6f43 a23e 634d 3a3f 4004 543e 903f 853e
00000190: b4be 133d 46c5 343e c302 233d 0894 0c3f
000001a0: 6841 26bf 90b5 653b 1f6b 853c 98f8 43be
000001b0: 654f 293f cc4e 973e 3944 9fbe b556 8d3e
000001c0: dd5b c03d 52bc 153e ec5c 38bf a547 943e
000001d0: d5bd da3c 1b3a 7bbc 10c8 94bd 1b98 fcbd
000001e0: 81d0 56be 0e1d a33c d4c4 e9bd f5a8 f2bd
000001f0: 69a2 abbd fe3a 1cbf e87c f3be 8805 1cba
00000200: a34f 3b3b dc7a f53e ed1f 223e d46a 433e
00000210: 586b 6a3d 7425 c2be d775 a7bd d04b b8bd
00000220: d0e0 083f 57bf 993f 0876 2abc 992a 56bd
00000230: a67b 0f3e 6479 8cbf dc11 62be e965 ab3d
00000240: 522d 963e c986 233e 090d d0bb ae0c 8d3f
00000250: 646b f93d 0bcc e13b 1e9a 253c 769d 1b3d
00000260: 3114 bbbe 9ccd 803e 147e 1dbe 72b9 853d
00000270: ae37 003e 8a2c 3ebd 213d 51bf e041 c23f
00000280: 077a 18bd dd10 183c 1d07 9c3d e095 b1bf
00000290: 22ed f5bd ff6d 893c 2282 35bf 2565 9b3e
000002a0: b6e8 d53e 8bb5 0bbe f305 b2bf 24e2 9abc
000002b0: 3919 823d 7f21 73be e73f 273f 7283 91be
000002c0: 9d53 72be c367 fd3c 2819 80be 728b 0b3e
000002d0: e063 77be 1e62 163f 0570 c9bc f5cd c1ba
000002e0: d59c 3ebd 3192 3abf 3c89 af3d 60c0 89bd
000002f0: 689d 5c3d df8d 313c 1641 7dbe a80b 303c
00000300: fc17 0640 07bc 963a 6cef 5cbd d9f2 393e
00000310: 99e6 5dbf 2c62 953e 4966 bb3e a709 3f3e
00000320: 4d8b 81be 4baa 3ebe 6ae1 8c3f 673f c03b
00000330: ec9c 3bbd 7ba6 5fba 529f 8a3e 9ba3 8fbe
00000340: 2087 2e3d cc2d bdbe aa44 9c3d 8272 84be
00000350: 5e8b 3fbd 95e0 23bf cc9e 51bf 0b20 05bd
00000360: 6a36 21bd 2b0a b23e 38d5 113f 9e53 acbd
00000370: 93ed f63e 039f 8a3d b57d 8ebe 6fb2 a8be
00000380: a1e8 603f d76a 17bf 388e a3bb 5004 953b
00000390: ca3b cb3e 077f e2bd b814 643d 0056 63bd
000003a0: 1597 303d feaf 833e 7344 313f 89ad a5be
000003b0: ed55 ec3f 7af4 413c f246 523d 0740 2f3f
000003c0: b682 bfbf 0090 9db9 1636 27bd 48c5 053c
000003d0: 13ab 81be e472 26be 49d5 963b b60a 853f
000003e0: 5a54 39bd ef70 00bc 800d 93bd ceea 5cbf
000003f0: 49c6 1abe e154 8e3e 30a0 193e ac1d a53b

l1.bias f4 [400]
-0.74761707 -0.24530247 -0.4665335 0.027151654 0.09298212 0.12924883 -0.22729686 -0.429173
0.22669385 -0.07657889 0.35426468 -0.54962134 -0.044037264 -0.30605292 -0.2604462 -0.5162842
0.025527872 -0.47836354 -0.49415508 -0.41699135 -0.7541256 -0.09785675 -0.037869293 -0.43899482
-0.17856866 -0.39128482 -0.43534625 -0.44920522 0.24113914 -0.63193834 -0.49646026 0.05376787
0.072731614 -0.16284697 -0.50006086 -0.6304419 -0.54876244 -0.43049857 -0.16235487 0.29587662
-0.37682125 -0.44067436 -0.34271201 -0.46707183 -0.35903177 0.17721584 0.006813469 -0.32138646
-0.53569466 -0.24682836 -0.15226035 0.5185702 -0.44518715 -0.28711146 -0.27143916 -0.16362597
-0.44733807 -0.20826304 -0.6649254 -0.21658808 -0.35576755 -0.020730345 -0.18921737 -0.20325479
-0.25825843 -0.7596716 -0.5050981 -0.22136928 -0.19889353 -0.5352507 -0.172291 -0.76978856
-0.22734079 -0.70826995 -0.44372347 -0.41595295 -0.37514532 -0.44792625 0.025554957 0.055507943
0.02944953 -0.01042543 -0.11362949 -0.9364503 -0.26637498 -0.12932587 -0.42810166 0.082922235
-0.43309402 -0.020606967 -0.88888055 -0.070165634 0.0013228935 -0.2517431 -0.46132886 0.13816838
-0.69549614 -0.14247316 0.0038912692 -0.1807755 -0.5362392 -0.7038937 -0.062386043 -0.38283253
-0.4566547 -0.49386197 -0.10015885 0.21598059 -0.11510186 -0.70020485 -0.23905185 -0.15643357
0.15060544 -0.12380435 -0.56200933 -0.24312006 0.05782059 -0.16543904 -0.31865197 0.13640592
-0.20535786 0.16597547 -0.13882463 0.042408902 0.2934876 0.22903931 -0.69525206 -0.21577393
-0.68469477 -0.49628973 -1.1026386 -0.6225422 -0.28628746 -0.7643269 -0.306723 0.42629805
-0.4564655 -0.33500528 0.011525324 0.239313 -0.04463961 -0.42139435 0.19765481 -0.671986
-0.5193917 -0.007838832 0.010842709 -1.0181082 -0.54930764 -0.13461788 -0.44444448 -0.01968776
-0.37465712 -0.14356485 -0.378906 -0.38198748 -0.71392983 0.10654056 -0.15369374 -0.09679592
-0.15395415 -0.841422 -0.88235754 -0.9385391 -0.19446534 -0.2255615 -0.23670465 -0.8692725
0.14094102 -0.061385114 -1.1142726 0.4744763 -0.21921203 -0.6003027 -0.8171497 0.23376222
-0.18549213 -0.4378171 -0.026938459 -0.5153466 -0.4970327 -0.45737994 -0.6386655 -0.40536323
-0.15344143 -0.49509162 -0.52547467 -0.15297426 -0.27203682 -0.18032837 -0.21647282 -0.16590406
-0.08016801 -0.68303686 -0.33676878 -0.10533171 -0.04754619 -0.27234757 -0.25871503 -0.36923626
0.080496304 -0.101018175 -0.27569225 0.1359621 -0.91999704 -0.4762782 -0.22934316 0.2420928
-0.36546242 -0.6289967 -0.04224581 -0.26206276 -0.53017956 -0.52121055 0.10331438 0.17096935
-0.5693263 -0.32967684 -0.31370398 -0.36464936 -0.34072536 -0.34880823 -0.6642368 0.17353779
-0.47507063 -0.51760125 -0.3189419 -0.3991139 -0.48214033 -0.30358472 -0.77110225 0.03857885
0.24514079 -0.9871504 -0.22118096 0.10728329 -0.09514245 0.10562833 -0.47961345 0.36212176
-0.5930875 -0.7334736 -0.24283047 -0.10086962 -0.6372116 -0.29000854 0.00229441 -0.79345995
-0.31039983 -0.4700775 -0.713101 0.04593483 -0.43269882 -0.29878995 -0.21798818 -0.961027
00000000: d563 3fbf 9230 7bbe 7bdd eebe 256d de3c
00000010: 696d be3d ce59 043e 82c0 68be 90bc dbbe
00000020: 6f22 683e 65d5 9cbd 2e62 b53e fcb3 0cbf
00000030: 6b60 34bd f8b2 9cbe 3459 85be 342b 04bf
00000040: d41f d13c 11ec f4be e501 fdbe e47f d5be
00000050: 600e 41bf 1f69 c8bd d51c 1bbd eec3 e0be
00000060: b4da 36be 7c56 c8be b4e5 debe 3afe e5be
00000070: 2eed 763e b6c6 21bf 0a30 febe b33b 5c3d
00000080: 50f4 943d 5bc1 26be fd03 00bf a464 21bf
00000090: b27b 0cbf 4f6a dcbe 5b40 26be 247d 973e
000000a0: b7ee c0be 12a0 e1be f377 afbe 0a24 efbe
000000b0: 03d3 b7be 1278 353e 8543 df3b c48c a4be
000000c0: 4923 09bf 93c0 7cbe 23ea 1bbe 04c1 043f
000000d0: 92ef e3be 4600 93be 13fa 8abe 918d 27be
000000e0: 7f09 e5be e842 55be 8d38 2abf 44c9 5dbe
000000f0: 2a27 b6be afd2 a9bc 33c2 41be 0622 50be
00000100: 733a 84be d779 42bf 1c4e 01bf a1ae 62be
00000110: bfaa 4bbe 3106 09bf 0d6d 30be dd10 45bf
00000120: 06cc 68be 2e51 35bf b92f e3be c9f7 d4be
00000130: 0c13 c0be 9756 e5be a158 d13c 4c5c 633d
00000140: 2440 f13c 6ccf 2abc 94b6 e8bd 35bb 6fbf
00000150: 4d62 88be 006e 04be 2430 dbbe 22d3 a93d
00000160: 80be ddbe f1cf a8bc ad8d 63bf 00b3 8fbd
00000170: f164 ad3a 79e4 80be 4c33 ecbe 037c 0d3e
00000180: 090c 32bf 7ce4 11be aa04 7f3b 361d 39be
00000190: f946 09bf 6132 34bf 8288 7fbd a002 c4be
000001a0: a5ce e9be 7adb fcbe 1520 cdbd 042a 5d3e
000001b0: 86ba ebbd a040 33bf 02ca 74be 1f30 20be
000001c0: 5038 1a3e 238d fdbd d8df 0fbf 77f4 78be
000001d0: 48d5 6c3d da68 29be 5a26 a3be fead 0b3e
000001e0: 5549 52be 79f5 293e 0b28 0ebe f5b4 2d3d
000001f0: 0244 963e 4889 6a3e 0afc 31bf d7f3 5cbe
00000200: 2848 2fbf b019 febe 4323 8dbf ed5e 1fbf
00000210: 4594 92be edaa 43bf cc0a 9dbe bd43 da3e
00000220: d9b5 e9be d085 abbe b6d4 3c3c 780e 753e
00000230: 06d8 36bd 00c1 d7be 0666 4a3e 4607 2cbf
00000240: dbf6 04bf 726e 00bc 9ea5 313c 5f51 82bf
00000250: 6d9f 0cbf 45d9 09be 3a8e e3be 3a48 a1bc
00000260: 0fd3 bfbe aa02 13be f8ff c1be dd93 c3be
00000270: 1bc4 36bf f031 da3d e461 1dbe f03c c6bd
00000280: 28a6 1dbe 6f67 57bf 2fe2 61bf 1944 70bf
00000290: ec21 47be 98f9 66be b462 72be a488 5ebf
000002a0: d852 103e f56e 7bbd 7ca0 8ebf 8fee f23e
000002b0: 1e79 60be 70ad 19bf b930 51bf 5d5f 6f3e
000002c0: a6f1 3dbe 9029 e0be 0bae dcbc c1ed 03bf
000002d0: 127b febe b42d eabe 957f 23bf c58b cfbe
000002e0: c01f 1dbe a67c fdbe 8285 06bf 49a5 1cbe
000002f0: 6948 8bbe 00a8 38be 0dab 5dbe c1e2 29be
00000300: 202f a4bd 81db 2ebf f56c acbe 27b8 d7bd
00000310: cbbf 42bd 2471 8bbe 4c76 84be 890c bdbe
00000320: 3fdb a43d 9ee2 cebd 8927 8dbe a639 0b3e
00000330: ed84 6bbf bcda f3be efd8 6abe 2de7 773e
00000340: e41d bbbe ed05 21bf f109 2dbd 172d 86be
00000350: d9b9 07bf 0e6e 05bf 7d96 d33d 9712 2f3e
00000360: 5ebf 11bf 67cb a8be cf9d a0be 52b3 babe
00000370: 8e73 aebe fe96 b2be 6c0b 2abf e4b3 313e
00000380: 753c f3be 8481 04bf 5a4c a3be a858 ccbe
00000390: 19db f6be 756f 9bbe f566 45bf db04 1e3d
000003a0: 3006 7b3e e3b5 7cbf 437d 62be 57b7 db3d
000003b0: 0bda c2bd aa53 d83d e58f f5be 0668 b93e
000003c0: 95d4 17bf edc4 3bbf 8da8 78be bb94 cebd
000003d0: 4d20 23bf 007c 94be d05d 163b 3120 4bbf
000003e0: baec 9ebe 00ae f0be ca8d 36bf 2926 3c3d
000003f0: b38a ddbe fffa 98be 4b38 5fbe de05 76bf

l2.weight f4 [300, 400]
0.22451678 -0.021141043 0.44390985 -0.3055145 -0.29755244 -0.62906414 -0.23803666 0.5055051
-0.19828388 0.67082655 -0.06350403 -0.10347614 -0.5772098 -0.30143216 -0.43503672 0.3173445
-0.2024146 0.13139619 0.14595458 -0.0575469 -0.46303824 -0.31308565 -0.020186456 0.223576
0.20548716 -0.31859732 -0.34134096 0.10351521 0.33110565 -0.17522585 -0.25218767 -0.31009272
-0.7953709 -0.26321393 -0.39546788 -0.05694722 0.09785089 0.49907503 -0.3030804 -0.16858077
0.31183317 0.112871855 0.16139378 -0.49035734 0.22789723 -0.17585437 0.11338868 0.04661405
-0.08791794 -0.3599228 -0.048670154 0.03557792 0.18516274 0.2752288 0.11393634 0.4056576
-0.0044200663 -0.1947363 0.25718018 -0.46766663 0.11889453 0.060258836 -0.20188124 -0.29612607
-0.20132363 0.17706771 0.13356583 -0.37801847 0.002149257 0.41910678 -0.36059648 0.055934183
-0.05017468 0.24819905 -0.25841004 -0.20667392 -0.14569324 0.16642079 0.21882254 -0.15625313
0.24323186 -0.16594742 0.20052657 0.19378008 -0.5968354 -0.47134867 -0.32589027 0.17407833
0.27020925 0.045498803 0.051259615 -0.085172206 0.036240824 -0.36864722 -0.3025684 -0.26722717
0.6531783 -0.37409472 0.59654975 -0.05308732 -0.56594664 -0.14640498 -0.46121663 -0.0607165
-0.10396356 -0.23821975 0.26060957 -0.44273016 -0.43035418 0.4165077 -0.5967288 -0.21359733
-0.26413947 -0.27329642 -0.03730118 0.11605835 0.33098295 -0.08235998 -0.03816934 -0.3578613
0.034716446 -0.33203816 -0.25658777 -0.15369923 0.28933066 -0.5077707 -0.39490727 0.29831272
-0.028545275 0.008801181 -0.122421995 0.39219028 0.022016587 0.029949753 0.06968152 -0.14790413
-0.087069444 -0.2804776 -0.68929654 -0.51714003 0.13226339 0.026407383 0.18820757 0.12408652
-0.5430219 -0.18426025 -0.2034866 0.115489006 -0.12105991 0.1237516 0.18070824 -0.6953523
0.09028843 0.22617586 0.28727457 -0.0783364 0.26083943 0.321431 0.024362423 -0.49460626
0.20306495 -0.115669705 0.64692104 -0.2227306 -0.30354565 0.27013484 -0.19446136 0.08400386
-0.46327072 0.036202274 0.2893758 -0.112066396 -0.33813852 0.2704475 -0.39628336 -0.20864783
0.05976498 -0.34830254 -0.4768348 0.109264955 0.29302523 0.015558711 0.04412795 -0.21914731
0.14056897 0.2686471 0.034652367 -0.028247926 0.28649828 -0.91410196 -0.04107142 -0.029899873
-0.5092447 -0.16133997 -0.0754164 0.46271384 0.029242989 -0.10382579 -0.63879764 0.064531304
-0.15820621 0.05529782 -0.5317463 0.16244052 -0.33001888 -0.0030634163 0.0059787743 -0.28996298
-0.7369921 -0.04515218 -0.11763606 -0.09167115 -0.2123891 0.4664366 -0.34939054 -0.80256706
0.16471903 -0.30857438 -0.27941313 -0.23156944 0.07242139 0.006103307 -0.30732638 -0.12313314
-0.35373747 -0.6062631 0.44759434 0.036149167 0.0771144 -0.3933435 -0.11661191 -0.13568853
0.10321671 -0.026523102 0.104838334 -0.2430049 -0.104036674 -0.26680824 -0.20740075 -0.18778606
-0.027510434 -0.29457608 -0.7927715 -0.20550047 0.89320356 -0.57537365 -0.15120426 0.034808733
-0.22556578 0.16156192 -0.03675575 -0.14175089 0.1907527 -0.7548998 -0.026462527 0.24182807
00000000: bae7 653e fb2f adbc 2748 e33e 666c 9cbe
00000010: cb58 98be 590a 21bf e2bf 73be c868 013f
00000020: ee0a 4bbe 4abb 2b3f 670e 82bd 4ceb d3bd
00000030: 05c4 13bf 5155 9abe 22bd debe fa7a a23e
00000040: c645 4fbe b98c 063e 1e75 153e 4cb6 6bbd
00000050: 5913 edbe c34c a0be 115e a5bc 1bf1 643e
00000060: 3a6b 523e 301f a3be 3ec4 aebe c8ff d33d
00000070: ae86 a93e 686e 33be be1e 81be 79c4 9ebe
00000080: 6d9d 4bbf fac3 86be c47a cabe 7d41 69bd
00000090: 0c66 c83d c386 ff3e 5b2d 9bbe 70a0 2cbe
000000a0: 99a8 9f3e 5c29 e73d 6944 253e 1e10 fbbe
000000b0: e45d 693e 2b13 34be 5338 e83d 60ee 3e3d
000000c0: 520e b4bd cd47 b8be 5b5a 47bd 27ba 113d
000000d0: 4d9b 3d3e caea 8c3e 7557 e93d 5ab2 cf3e
000000e0: 34d6 90bb f468 47be 1fad 833e 0072 efbe
000000f0: fa7e f33d f8d1 763d f5b9 4ebe d69d 97be
00000100: c827 4ebe 3d51 353e 7bc5 083e a38b c1be
00000110: 8dda 0c3b 2a95 d63e 1aa0 b8be 3e1b 653d
00000120: f783 4dbd e427 7e3e 524e 84be 54a2 53be
00000130: 9c30 15be 366a 2a3e 0413 603e d200 20be
00000140: c611 793e 1fee 29be d656 4d3e 496e 463e
00000150: 34ca 18bf 9d54 f1be 17db a6be 9741 323e
00000160: de58 8a3e f45c 3a3d 9af5 513d c46e aebd
00000170: 4271 143d 54bf bcbe 3fea 9abe 00d2 88be
00000180: b136 273f 5889 bfbe 7cb7 183f 1772 59bd
00000190: e1e1 10bf 30eb 15be 9624 ecbe ddb1 78bd
000001a0: d9ea d4bd e1ef 73be 9e6e 853e 87ad e2be
000001b0: 6257 dcbe 7f40 d53e 38c3 18bf 42b9 5abe
000001c0: 4a3d 87be 82ed 8bbe 1fc9 18bd 00b0 ed3d
000001d0: 9976 a93e 59ac a8bd 7457 1cbd 9939 b7be
000001e0: d532 0e3d e800 aabe 795f 83be 5563 1dbe
000001f0: 2623 943e 43fd 01bf 4931 cabe 72bc 983e
00000200: c8d7 e9bc d432 103c 62b8 fabd 2acd c83e
00000210: 215c b43c 2f59 f53c 2fb5 8e3d 2e74 17be
00000220: 7751 b2bd c39a 8fbe bd75 30bf 4a63 04bf
00000230: 0e70 073e 4c54 d83c 7cb9 403e 1321 fe3d
00000240: 7c03 0bbf b8ae 3cbe cb5e 50be 8085 ec3d
00000250: 42ee f7bd 7b71 fd3d 950b 393e 9c02 32bf
00000260: 24e9 b83d a59a 673e a715 933e d66e a0bd
00000270: bf8c 853e 9b92 a43e b493 c73c 083d fdbe
00000280: 42f0 4f3e 3de4 ecbd 9e9c 253f 7e13 64be
00000290: 566a 9bbe 1d4f 8a3e e120 47be 370a ac3d
000002a0: d231 edbe d648 143d 1129 943e 1183 e5bd
000002b0: 7e20 adbe 1878 8a3e a7e5 cabe c7a7 55be
000002c0: 20cc 743d b654 b2be b123 f4be 4ec6 df3d
000002d0: 6707 963e f7e9 7e3c 82bf 343d 2768 60be
000002e0: 50f1 0f3e 1d8c 893e a4ef 0d3d 3268 e7bc
000002f0: e7af 923e 9602 6abf 813a 28bd 94f0 f4bc
00000300: dc5d 02bf 4e36 25be ea73 9abd d4e8 ec3e
00000310: fe8e ef3c 9ea2 d4bd 3e88 23bf fd28 843d
00000320: cf00 22be f87f 623d 8720 08bf cf56 263e
00000330: 3cf8 a8be 99c3 48bb 98e9 c33b 0776 94be
00000340: 84ab 3cbf 7ef1 38bd 2deb f0bd 15be bbbd
00000350: 877c 59be c7d0 ee3e 51e3 b2be 0975 4dbf
00000360: 1bac 283e 76fd 9dbe 3d0f 8fbe 8a20 6dbe
00000370: aa51 943d 40fe c73b e259 9dbe 3a2d fcbd
00000380: 141d b5be 0f34 1bbf 162b e53e 2611 143d
00000390: 28ee 9d3d 5264 c9be 3ad2 eebd eff1 0abe
000003a0: 4863 d33d fa46 d9bc 7bb5 d63d 47d6 78be
000003b0: 2e11 d5bd 179b 88be dd60 54be fd4a 40be
000003c0: 905d e1bc add2 96be 13f3 4abf b76e 52be
000003d0: fda8 643f b04b 13bf 4ad5 1abe 9a93 0e3d
000003e0: b7fa 66be 7d70 253e 338d 16bd 2527 11be
000003f0: ad54 433e 1d41 41bf f1c7 d8bc c7a1 773e

l2.bias f4 [300]
-0.0023853893 -0.20087397 -0.16005881 0.20225713 -0.13646619 0.0033147319 -0.120201536 0.023143271
-0.03460179 0.13805756 -0.12871131 -0.08619433 0.0064896904 -0.29446664 -0.26618525 0.046688266
-0.11369149 -0.20841068 -0.3766493 -0.08088016 -0.058925807 -0.009493113 -0.010535499 0.043758627
0.028803218 -0.16917682 -0.10469563 -0.012546326 -0.20470856 0.009842545 -0.09532224 -0.11817446
0.11280747 0.021737121 -0.20963718 0.11134539 0.017692354 -0.14548224 0.17329988 -0.068558685
-0.03333758 -0.08118183 -0.33351448 -0.08626494 -0.11550355 -0.15933728 -0.22354093 -0.0427245
-0.12339366 -0.19385971 -0.08115808 -0.06288274 -0.17359988 -0.12936805 -0.13074253 0.18461889
-0.20587891 0.36784074 -0.18152235 -0.06628693 -0.025017004 -0.107231244 -0.15477756 -0.11264294
-0.19124763 0.1069273 -0.15716591 -0.13154243 0.20902765 0.10657972 -0.17565629 0.07285956
-0.06730167 -0.047465548 -0.035055168 0.12038444 -0.010103938 -0.22136986 -0.020789506 -0.18987155
-0.08898858 -0.2208945 -0.10924617 -0.26577052 -0.07855345 -0.023370983 -0.14731732 -0.11139378
-0.22436623 -0.033821814 -0.21900573 -0.17155966 -0.1827716 -0.30928499 -0.17326486 -0.05082391
-0.16340597 0.019340185 -0.025954481 -0.15669374 -0.17137842 0.25400323 0.17788093 -0.14968361
-0.33642814 -0.061382264 0.12838885 -0.25550035 0.040867917 0.19455089 -0.08940562 -0.17664054
-0.1574391 -0.11629921 -0.24447687 -0.22327794 -0.09970425 0.08577875 0.019095125 -0.02682101
-0.13444415 -0.30254084 -0.041994054 -0.3557571 0.08038665 -0.07023053 -0.36636716 -0.043755446
0.22698116 0.09982052 -0.032594435 0.10415871 -0.05288043 -0.09726389 -0.03601725 -0.19151776
-0.21126199 -0.010475901 0.2353232 -0.20608209 -0.1312708 -0.051926035 -0.151916 -0.5327913
-0.110547714 0.03017209 -0.2907227 -0.011119954 -0.1191 -0.048460443 -0.21103016 0.018246287
0.011933041 0.13944007 -0.014714102 -0.0037937588 0.06761415 -0.23609717 -0.096063405 -0.26738328
-0.24608521 0.032968413 -0.53452617 0.21424936 -0.17130186 -0.29521888 0.14434046 0.11768873
0.028646948 -0.10419107 -0.060937352 -0.021384982 -0.30070806 -0.26994413 -0.033825684 -0.014193456
0.0002357105 -0.071038336 -0.046549726 0.09967651 -0.09531358 -0.062118758 -0.20715323 -0.3804122
-0.124544054 -0.42647403 -0.08737958 -0.1090236 -0.13458224 -0.11065739 0.010272618 -0.04571384
-0.06782274 -0.12860428 -0.061103687 -0.020690493 -0.12380316 0.0016900058 0.05443064 -0.15412419
-0.022451056 -0.07196081 0.069602735 -0.094162434 0.039771177 0.2234058 -0.060136795 -0.13943169
-0.10959166 -0.091931164 0.13463618 -0.18727908 -0.24984531 -0.1216381 -0.15009874 -0.18007958
-0.08672871 0.022159066 -0.075232565 -0.2089113 -0.046392187 -0.06810933 0.06959654 -0.06742588
-0.03986648 -0.40893236 0.20748831 0.031855214 -0.049232006 -0.0453977 0.19806784 -0.27407423
-0.0077526784 -0.33607528 0.23279637 0.021121632 -0.29551527 0.00037494526 -0.29879436 -0.154959
-0.15828094 0.006070422 -0.23317648 -0.124135524 -0.26362035 -0.06743863 -0.11912413 -0.12985833
0.111183934 -0.06309987 0.19011573 -0.18996663 0.14747074 -0.057470843 -0.0029374636 -0.2041576
00000000: 3154 1cbb e8b1 4dbe 75e6 23be 7e1c 4f3e
00000010: cbbd 0bbe f93b 593b 392c f6bd f596 bd3c
00000020: 9bba 0dbd f65e 0d3e e6cc 03be a786 b0bd
00000030: 78a7 d43b 55c4 96be 6f49 88be 323c 3f3d
00000040: 15d7 e8bd 9c69 55be 2dd8 c0be 7fa4 a5bd
00000050: 305c 71bd 0089 1bbc 169d 2cbc 3f3c 333d
00000060: baf4 eb3c b03c 2dbe aa6a d6bd 1b8f 4dbc
00000070: 1f9f 51be a042 213c 4e38 c3bd 7405 f2bd
00000080: 9a07 e73d 0c12 b23c 21ab 56be 0d09 e43d
00000090: 8eef 903c 4cf9 14be 8675 313e 7f68 8cbd
000000a0: fc8c 08bd a942 a6bd 69c2 aabe acab b0bd
000000b0: 208d ecbd 5029 23be eae7 64be e3ff 2ebd
000000c0: d1b5 fcbd 2983 46be 3536 a6bd aac8 80bd
000000d0: 2bc4 31be 0f79 04be 5fe1 05be bc0c 3d3e
000000e0: ecd1 52be 9f55 bc3e ffe0 39be 71c1 87bd
000000f0: 76f0 ccbc 0e9c dbbd 027e 1ebe 57b1 e6bd
00000100: 6bd6 43be b3fc da3d 1af0 20be 0fb3 06be
00000110: 580b 563e 7846 da3d 3edf 33be 6537 953d
00000120: 75d5 89bd 3c6b 42bd 0296 0fbd 1e8c f63d
00000130: fd8a 25bc c8ae 62be c14e aabc b06d 42be
00000140: a53f b6bd 2b32 62be 75bc dfbd 1313 88be
00000150: a2e0 a0bd 8174 bfbc 5ada 16be 6c22 e4bd
00000160: 43c0 65be be88 0abd 0a43 60be 56ad 2fbe
00000170: 7a28 3bbe 9a5a 9ebe 586c 31be bb2c 50bd
00000180: e553 27be 4f6f 9e3c 7e9e d4bc 5374 20be
00000190: d37d 2fbe b60c 823e 6b26 363e a946 19be
000001a0: 4f40 acbe f86b 7bbd 5e78 033e f1d0 82be
000001b0: 1e65 273d 5938 473e 4b1a b7bd 42e1 34be
000001c0: b737 21be 482e eebd 2558 7abe f9a2 64be
000001d0: be31 ccbd c5ac af3d 616d 9c3c bcb7 dbbc
000001e0: baab 09be a2e6 9abe f501 2cbd cb25 b6be
000001f0: c2a1 a43d 06d5 8fbd 7a94 bbbe e938 33bd
00000200: c06d 683e b36e cc3d be81 05bd 2951 d53d
00000210: 2699 58bd 4a32 c7bd d386 13bd 3b1d 44be
00000220: 1055 58be 1da3 2bbc 91f8 703e 2f07 53be
00000230: da6b 06be 65b0 54bd de8f 1bbe 0365 08bf
00000240: d766 e2bd 752b f73c 9bd9 94be 7830 36bc
00000250: b3ea f3bd 757e 46bd 4a18 58be 3d79 953c
00000260: cd82 433c 61c9 0e3e 6b13 71bc b6a0 78bb
00000270: 4a79 8a3d 75c3 71be e4bc c4bd 76e6 88be
00000280: c3fd 7bbe e309 073d b5d6 08bf 2f64 5b3e
00000290: c169 2fbe ee26 97be fccd 133e ca06 f13d
000002a0: 01ad ea3c 2162 d5bd 7299 79bd 8f2f afbc
000002b0: 68f6 99be 1e36 8abe cd8c 0abd ab8b 68bc
000002c0: 0e29 7739 8c7c 91bd edaa 3ebd 3323 cc3d
000002d0: c433 c3bd 3d70 7ebd fa1f 54be 63c5 c2be
000002e0: f410 ffbd ce5a dabe 11f4 b2bd c447 dfbd
000002f0: edcf 09be 57a0 e2bd 7c4e 283c 6f3e 3bbd
00000300: a6e6 8abd d7b0 03be dc47 7abd 1c7f a9bc
00000310: 838c fdbd 2f83 dd3a aaf2 5e3d bbd2 1dbe
00000320: 47eb b7bc 3060 93bd e18b 8e3d 3cd8 c0bd
00000330: 1ae7 223d 7dc4 643e 0052 76bd 2ec7 0ebe
00000340: 9871 e0bd 6846 bcbd 11de 093e 16c6 3fbe
00000350: 73d7 7fbe 651d f9bd 7cb3 19be c866 38be
00000360: d29e b1bd ee86 b53c 8813 9abd d8ec 55be
00000370: bc05 3ebd e87c 8bbd a188 8e3d 9416 8abd
00000380: 094b 23bd 955f d1be d177 543e 9d7a 023d
00000390: 80a7 49bd f0f2 39bd 4cd2 4a3e 7553 8cbe
000003a0: 2e0a febb 0f12 acbe 2c62 6e3e 4607 ad3c
000003b0: c74d 97be 4d94 c439 93fb 98be 92ad 1ebe
000003c0: 6614 22be 64ea c63b d1c5 6ebe c43a febd
000003d0: 3ff9 86be 441d 8abd 5af7 f3bd 95f9 04be
000003e0: 67b4 e33d 813a 81bd b3ad 423e 9d86 42be
000003f0: 9202 173e 8c66 6bbd 7682 40bb b10e 51be

l3.weight f4 [2, 300]
0.60988945 0.75321835 0.3635237 -0.0059424196 2.1507564 -0.2781878 -0.28319022 0.037144396
-0.027165882 -0.01002964 -0.020018106 0.016269244 0.16476141 -0.5808045 -0.018298937 -0.04362111
-3.615306 0.08548962 0.15628701 0.9246726 -0.004184854 -0.0066967905 0.039645914 0.2945675
-0.20296359 -0.29180855 -0.5331354 -0.33280897 -1.2967281 -0.55459404 0.007478244 1.3012596
-0.08194017 -0.0033805221 -0.5049799 0.04011174 -0.30657753 -1.9894916 -0.004810682 -0.14522444
0.34118733 -0.76701236 0.05691891 -0.046848003 -0.033227816 0.001085319 0.30776852 -0.85248524
0.049234785 -1.0459263 0.45516258 0.024493588 -0.37177375 0.29795483 1.218436 -0.17874658
-0.003969118 -0.083365604 -0.09265752 -0.0022680403 -0.04657247 0.059503082 0.26483756 0.5430112
-0.3002385 -0.33954853 -0.50980574 -1.5051731 0.060061697 -0.55280334 -0.26693875 -0.41792637
-0.23431228 0.028659517 -0.219522 0.0073845694 0.13385482 0.109128974 -0.0011455371 0.907992
0.12544154 -0.42756322 -0.2335358 0.3757807 0.08280411 0.96447384 0.4050337 0.49742243
-1.160247 -0.00065707177 -0.0014768578 -0.008182095 -1.9633192 -1.8159784 0.012804145 -8.202835
0.70897955 0.012154955 -0.7707433 0.0041403687 -3.4295466 -0.004741522 0.025633203 0.0033643516
0.52049714 0.008510754 0.3250753 -0.027138283 0.20262188 -0.005315606 -0.6274833 -1.3319451
0.025453761 1.4619251 -0.25289726 -0.58970785 -0.21615641 0.009813619 -0.33912653 -0.0013455844
-0.08239793 -0.007251016 3.566439 -0.07487176 0.0031880608 -0.47292554 0.6436204 5.0561204
-0.0011428498 -0.27852866 0.54110855 1.57836 -3.2454016 0.5599229 2.0185406 0.006104515
-1.3075743 0.18945794 0.0061010425 -0.08156091 0.008033894 -1.3374851 -0.2646368 1.6532205
-2.5873356 0.60843575 -0.0005788341 -0.0030960608 -0.2741823 0.010814691 0.26705024 -0.0044522975
-0.052522283 -0.005141737 -0.5624102 0.21744855 -0.35565197 1.2498444 5.991738e-05 0.008135259
-3.2801905 0.62732726 -1.8988965 -0.0012850869 -0.6768926 -1.1929528 -0.06469559 -0.35335615
0.088423386 -0.4525503 -1.3163934 -0.004299716 4.441374 0.38911733 0.04859665 -0.0028678668
-0.003395135 0.13016315 0.95566916 0.036523882 1.8620359 -0.4196417 -2.4786448 0.3007345
-0.26316068 0.4524919 4.2655716 0.98803985 0.317642 4.4298205 0.05548123 -0.036177818
-1.202005 -1.1381646 -2.5078976 0.015092413 1.6806564 0.24083818 0.0017559819 -0.03015329
-0.0015945886 0.5409118 0.8236381 0.3166552 0.31352854 -0.13728711 -0.124224775 0.77092886
0.63501793 -0.6884704 -0.017373635 -0.06274398 -0.13109699 0.59330034 -0.639842 -2.7266314
-0.37290418 -0.0442653 -0.019067515 -0.13056365 -3.3734384 -0.11201328 -0.061705396 0.49498054
-1.0293756 1.5823697 -0.0022476583 -0.44148237 0.037060283 -0.0051469123 0.04566512 -0.8370739
0.7951227 -0.0019877544 -0.58073926 0.010530461 -0.22651643 0.008597675 0.15108578 -2.8029108
0.123741694 -0.18310696 0.39092505 -2.664562 -0.224124 -0.0004740585 -0.0050415588 -0.1926735
-0.005636042 -0.81289726 0.10192074 0.7105626 -0.28836054 -0.25489354 0.15168613 -1.7267514
00000000: b721 1c3f ebd2 403f c71f ba3e a1b8 c2bb
00000010: fea5 0940 a26e 8ebe 4ffe 90be b924 183d
00000020: fc8a debc 5c53 24bc 03fd a3bc 1447 853c
00000030: 37b7 283e 9baf 14bf a7e7 95bc 0dac 32bd
00000040: 2c61 67c0 2f15 af3d b409 203e 58b7 6c3f
00000050: 1a21 89bb c070 dbbb c163 223d 8dd1 963e
00000060: b0d5 4fbe ee67 95be 907b 08bf f065 aabe
00000070: 30fb a5bf e0f9 0dbf 0f0c f53b ad8f a63f
00000080: 3fd0 a7bd c08b 5dbb 5d46 01bf 354c 243d
00000090: bbf7 9cbe a9a7 febf eda2 9dbb b7b5 14be
000000a0: 1bb0 ae3e ec5a 44bf ce23 693d b1e3 3fbd
000000b0: e419 08bd 4341 8e3a d693 9d3e 793c 5abf
000000c0: 6aaa 493d eae0 85bf 120b e93e c7a6 c83c
000000d0: 2159 bebe 898d 983e b6f5 9b3f 5809 37be
000000e0: 600f 82bb 96bb aabd 3ac3 bdbd 67a3 14bb
000000f0: c6c2 3ebd 81b9 733d ca98 873e c802 0b3f
00000100: dcb8 99be 4ed9 adbe a182 02bf 83a9 c0bf
00000110: 4103 763d 8584 0dbf 32ac 88be 72fa d5be
00000120: 8fef 6fbe 5dc7 ea3c 60ca 60be 42fa f13b
00000130: 3d11 093e 037f df3d d925 96ba 2a72 683f
00000140: bf73 003e 91e9 dabe 0224 6fbe 5466 c03e
00000150: 3495 a93d c2e7 763f 9460 cf3e 27ae fe3e
00000160: f982 94bf 573f 2cba 2093 c1ba 320e 06bc
00000170: 0b4e fbbf fb71 e8bf 7ac8 513c d03e 03c1
00000180: af7f 353f 9425 473c 6f4f 45bf eeab 873b
00000190: b17d 5bc0 c55e 9bbb b9fc d13c 747c 5c3b
000001a0: 4d3f 053f b170 0b3c 4570 a63e 1b51 debc
000001b0: 1c7c 4f3e 892e aebb bfa2 20bf 2d7d aabf
000001c0: 6884 d03c 5d20 bb3f c07b 81be 18f7 16bf
000001d0: 1b58 5dbe 4dc9 203c fea1 adbe 525e b0ba
000001e0: 3fc0 a8bd ee99 edbb 8940 6440 5e56 99bd
000001f0: c9ee 503b 4c23 f2be 4ec4 243f bdcb a140
00000200: adcb 95ba 4f9b 8ebe 1786 0a3f b307 ca3f
00000210: a9b4 4fc0 1b57 0f3f c52f 0140 6208 c83b
00000220: 985e a7bf 4301 423e 41eb c73b 6809 a7bd
00000230: 98a0 033c b632 abbf 7a7e 87be bb9c d33f
00000240: e896 25c0 72c2 1b3f e6bc 17ba 48e7 4abb
00000250: 9f61 8cbe 1a30 313c cfba 883e 94e4 91bb
00000260: 9b21 57bd 047c a8bb 1dfa 0fbf d5aa 5e3e
00000270: 0418 b6be e7fa 9f3f cc4f 7b38 c049 053c
00000280: a4ee 51c0 8598 203f 0a0f f3bf 5c70 a8ba
00000290: d548 2dbf adb2 98bf 1f7f 84bd 19eb b4be
000002a0: 5217 b53d acb4 e7be 947f a8bf a2e4 8cbb
000002b0: bc1f 8e40 633a c73e 480d 473d d2f2 3bbb
000002c0: ea80 5ebb 7d49 053e bca6 743f 119a 153d
000002d0: 3157 ee3f 47db d6be 1ea2 1ec0 dff9 993e
000002e0: ffbc 86be 05ad e73e 907f 8840 2ef0 7c3f
000002f0: f9a1 a23e 17c1 8d40 4940 633d 312f 14bd
00000300: 4ddb 99bf 61af 91bf 6581 20c0 2b46 773c
00000310: c01f d73f 499e 763e fa28 e63a 0804 f7bc
00000320: 8401 d1ba 3279 0a3f f2d9 523f a120 a23e
00000330: d086 a03e fe94 0cbe 8f69 febd 985b 453f
00000340: 8990 223f 993f 30bf 2753 8ebc ea7f 80bd
00000350: 4a3e 06be 88e2 173f afcc 23bf 2181 2ec0
00000360: 4ced bebe 884f 35bd 7a33 9cbc 7ab2 05be
00000370: 6ae6 57c0 3867 e5bd ccbe 7cbd 176e fd3e
00000380: 94c2 83bf 178b ca3f 734d 13bb fa09 e2be
00000390: 86cc 173d 6ea7 a8bb 590b 3b3d 7a4a 56bf
000003a0: 298d 4b3f fc44 02bb 54ab 14bf f487 2c3c
000003b0: ecf3 67be 43dd 0c3c 3bb6 1a3e e462 33c0
000003c0: 496c fd3d 6480 3bbe 5427 c83e 2f88 2ac0
000003d0: c380 65be 0e8b f8b9 a933 a5bb 344c 45be
000003e0: 8cae b8bb 091a 50bf d2bb d03d 6ee7 353f
000003f0: fea3 93be 6881 82be 9c53 1b3e 3106 ddbf

l3.bias f4 [2]
-0.087907985 -0.020642592
00000000: 1a09 b4bd a71a a9bc
