uncertain/Reacher-v2/critic.pth (torch, 507039 bytes, 5 tensors)

l1.weight f4 [400, 13]
0	0xbfc529a0	-1.5403328
1	0x3f912722	1.1340067
2	0xbef186f3	-0.4717327
3	0x3f968838	1.1760321
4	0xc0d5afd4	-6.6777134
5	0xc1451b15	-12.319112
6	0xbab1d55a	-0.0013567612
7	0xbcca3007	-0.024681104
8	0x40bc51e2	5.8849955
9	0x402b4305	2.6759655
10	0xbe6f8432	-0.23390272
11	0xbd829a21	-0.06377054
12	0x3d975942	0.073900715
13	0xbffb815a	-1.964885
14	0xbe164557	-0.14674889
15	0xbee86df3	-0.45396385
16	0xc02ac1b1	-2.668072
17	0x409cab84	4.895937
18	0x3f651da9	0.8949838
19	0x3bd4a097	0.0064888704
20	0x3bdd5a55	0.006755153
21	0x3fd71d56	1.6805828
22	0xbf857aec	-1.0428138
23	0x3d1a2758	0.037635177
24	0xbdcbfcb5	-0.099603094
25	0x3e961545	0.29313102
26	0xbe97517e	-0.2955436
27	0xbf84b3cf	-1.0367373
28	0x3f5b9436	0.85773027
29	0x3f7b6694	0.98203397
30	0xc181968f	-16.198515
31	0xc0d59df2	-6.6755304
32	0x3c84cd71	0.016211243
33	0xbdbaca21	-0.09120584
34	0x4095d52a	4.682271
35	0xc090e142	-4.5274973
36	0xbd386f7c	-0.045028195
37	0xbdfb8ae5	-0.122823514
38	0xbf1152bf	-0.56766886
39	0xbfacf49d	-1.351215
40	0x3e882bec	0.2659601
41	0x3e017f2a	0.12646165
42	0xc05c4f2f	-3.442333
43	0xc02e02ca	-2.7189202
44	0x4096c62d	4.7116914
45	0xbc485e2e	-0.012229485
46	0xbcb56c30	-0.022146314
47	0x40de3833	6.9443603
48	0xc035bc13	-2.8396041
49	0x3e5fec4a	0.21867481
50	0x3e50e1f8	0.203987
51	0xbf6908f0	-0.9102926
52	0xbfb6f818	-1.4294462
53	0xbdb55c3f	-0.08855485
54	0xc024ffb5	-2.578107
55	0xc02a9444	-2.6652994
56	0xc000ca7b	-2.0123584
57	0xc0b2f736	-5.592677
58	0xba7f4de5	-0.0009739085
59	0x3cc1157b	0.023569813
60	0x411bc28c	9.734997
61	0x40c951c5	6.2912316
62	0x3e800a45	0.25007835
63	0x3e1dd28b	0.15412347
64	0x3e7ba419	0.24574317
65	0x3de892ac	0.113561004
66	0x40556629	3.3343604
67	0xbfd9c9f5	-1.7014757
68	0xc00af558	-2.1712246
69	0x40e54c40	7.165558
70	0xc06a8183	-3.6641548
71	0xbb4c4cfd	-0.0031173818
72	0x3b87e402	0.0041470537
73	0x408900ec	4.2813625
74	0x408565da	4.168683
75	0xbdbfdffc	-0.093688935
76	0x3e9d8c15	0.30770937
77	0x3e94905d	0.2901639
78	0x3f9b7aa2	1.21468
79	0xbfb90a61	-1.4456292
80	0xbf7cecce	-0.98798835
81	0x3f9b69fb	1.2141718
82	0x40b3bd7a	5.6168795
83	0xc0c9e742	-6.3094797
84	0x3babc985	0.005242529
85	0x3cb19ed0	0.021682173
86	0x4017c532	2.3714108
87	0xbf0d8877	-0.55286354
88	0x3dab7dc4	0.08373597
89	0x3a5e21f0	0.0008473685
90	0xbde24660	-0.11048579
91	0xbf202241	-0.6255227
92	0x4011c79e	2.2778087
93	0x3f876470	1.0577526
94	0xbd8e0aa6	-0.06935625
95	0xc067e6de	-3.623466
96	0xc0c8ead4	-6.2786655
97	0x3bca7870	0.006178908
98	0x3c92851e	0.01788574
99	0x400bbd09	2.1834128
100	0xbf9d7579	-1.2301475
101	0x3e75cabe	0.24003121
102	0xbdddfd99	-0.108393855
103	0x3cd695c0	0.026194453
104	0xbe5c9d87	-0.21544467
105	0x40036087	2.0527666
106	0xbfaed7e7	-1.3659638
107	0xbdcb3b12	-0.09923376
108	0x414652d2	12.39522
109	0xc033090a	-2.7974267
110	0x3df4d62c	0.119549125
111	0xbc14c6d7	-0.00908061
112	0x3ed5d66e	0.4176516
113	0xbfda9b2b	-1.7078604
114	0x3e6b8002	0.2299805
115	0x3ec59089	0.38586834
116	0xbf122eb7	-0.5710253
117	0x3f4f0099	0.80860287
118	0x3e1f5cc2	0.15562728
119	0x3f4dc0a6	0.80372083
120	0xc0168a3a	-2.3521867
121	0xbff2a590	-1.8956776
122	0xc17079a1	-15.029695
123	0x3c6eb997	0.014570615
124	0x3ce7a2e5	0.028275916
125	0x409071bc	4.5138836
126	0x40659677	3.5873086
127	0xbdb68c32	-0.08913459
128	0x3d3874ff	0.04503345
129	0x3ead1f12	0.33812767
130	0xbea306ca	-0.31841117
131	0x4019e331	2.4044917
132	0xbe499f3e	-0.19689652
133	0xbfa0d323	-1.2564434
134	0xc1692a2d	-14.572797
135	0xc135dec3	-11.366885
136	0x3c255cd3	0.010092932
137	0x3d7f44d7	0.06232151
138	0x40d4cb48	6.6498146
139	0x3ff1e058	1.8896589
140	0xbd8a7afe	-0.0676174
141	0x3cefa869	0.029255109
142	0x3f2f5177	0.6848368
143	0xbe1fd6d7	-0.15609299
144	0x401829a3	2.3775413
145	0xbf559151	-0.8342486
146	0x3feb6c56	1.8392437
147	0x41122c60	9.135834
148	0xbf76266d	-0.96152383
149	0x3c149653	0.009069043
150	0x3c75facc	0.015013408
151	0xbfc9d149	-1.5766994
152	0xc091d741	-4.557526
153	0x3e6c029a	0.23047867
154	0xbe80519e	-0.2506227
155	0x3ea77bcf	0.32711646
156	0x402e04f7	2.719053
157	0x3f9f81e1	1.2461511
158	0xc01a9d03	-2.4158332
159	0x3ea2f17f	0.31824872
160	0xc0888380	-4.2660522
161	0xc0df545c	-6.979048
162	0xbc49ea8e	-0.012323989
163	0x3d3144ad	0.043278385
164	0x40617bf8	3.5231915
165	0xc079d805	-3.9038098
166	0xbe21b45e	-0.15791461
167	0x3d4c1ad9	0.04983029
168	0x3ebdcd3a	0.37070638
169	0xc024892b	-2.570872
170	0x3f2f9775	0.6859048
171	0x4022d7a7	2.5444124
172	0x3f82a445	1.0206381
173	0x4114a128	9.289345
174	0x40877b58	4.2338066
175	0x3c625157	0.013813338
176	0xbc8c87db	-0.017154625
177	0x40dd633e	6.9183645
178	0xc13e793b	-11.904597
179	0xbdb4ae36	-0.088222906
180	0x3ead2947	0.33820555
181	0xbebcff6c	-0.3691362
182	0xbe62f92b	-0.22165363
183	0xbf52fa60	-0.8241329
184	0xbf40ab63	-0.75261515
185	0xbf7b6b4b	-0.9821059
186	0xc04e55ca	-3.2239861
187	0xc0159b4f	-2.3376043
188	0x3d483aa7	0.04888406
189	0xbe31d6a2	-0.17367032
190	0xc01ab7a8	-2.4174595
191	0x40405115	3.0049489
192	0x3d688cc0	0.056774855
193	0x3e344842	0.17605689
194	0xbf3cf5f3	-0.7381279
195	0x3b890d41	0.004182488
196	0xbc91d9c4	-0.017804034
197	0x3c9a8752	0.018863354
198	0x3cccfac5	0.02502192
199	0xbe945a4b	-0.28975138
200	0xbecfa4ca	-0.40555412
201	0xbbcc26a1	-0.006230191
202	0xbb61c85e	-0.0034451704
203	0x3ed972f1	0.42470506
204	0xbcaf3639	-0.02138816
205	0xbb431e00	-0.002977252
206	0xbd46b94c	-0.048516557
207	0x40610551	3.5159495
208	0xbffd0a31	-1.9768735
209	0x3f8334c8	1.0250483
210	0x3f36b736	0.7137331
211	0x3f2a4543	0.66511935
212	0xbf10dcb9	-0.56586796
213	0x40c7aafe	6.239623
214	0x3c911034	0.017707922
215	0xbde66728	-0.11250144
216	0x4001d750	2.0287666
217	0xc08ecb79	-4.462338
218	0x3e6be4de	0.23036525
219	0x3db3b3e3	0.08774545
220	0xbead9057	-0.33899185
221	0x4016ae1b	2.3543766
222	0x3dd9d50e	0.1063634
223	0xc0091073	-2.141629
224	0xbf0653f1	-0.52471834
225	0xbd9fca0d	-0.0780221
226	0xc1265f85	-10.39832
227	0x3c336443	0.010949197
228	0x3c21fe9f	0.009887367
229	0xc03df41f	-2.968025
230	0x40940ada	4.6263247
231	0xbe507b9e	-0.20359656
232	0x3bf3525a	0.0074255886
233	0xbf1c7f2f	-0.61131567
234	0xbed0bc5a	-0.407687
235	0x3f6e3f1a	0.93065035
236	0xbf4df575	-0.8045266
237	0xbe56cf70	-0.20977569
238	0xc0419478	-3.0246868
239	0x405cfd89	3.4529746
240	0xba3ee72f	-0.0007282374
241	0x3d19ac1f	0.037517663
242	0x406042ae	3.5040698
243	0xbd7b1a1c	-0.061304197
244	0x3cc9ac40	0.024618268
245	0xbccc6e27	-0.024954868
246	0x3ebeaf74	0.37243235
247	0x3f58bc6c	0.8466251
248	0x4025e892	2.59232
249	0x3b899571	0.004198723
250	0xbf902a59	-1.1262923
251	0xc023f17e	-2.5616145
252	0x40395cc1	2.8962862
253	0x3c3f8c95	0.011691232
254	0x3c8496c7	0.016185177
255	0x3d634c51	0.055492703

l1.bias f4 [400]
0	0xc0d68098	-6.7031975
1	0xc0b9138e	-5.783637
2	0x4002a8ed	2.0415604
3	0xc0f5821d	-7.672133
4	0xc100ad05	-8.042241
5	0xc0ea8964	-7.3292713
6	0xbf35f66a	-0.71079123
7	0xc09e9528	-4.9557076
8	0xc0bbcd7b	-5.868833
9	0xc10d37bf	-8.82611
10	0xc120e3e5	-10.055638
11	0xc0ed9a0e	-7.4250555
12	0xc10b6172	-8.71129
13	0xc1064e3c	-8.3941
14	0x3fc72b01	1.5559999
15	0xbfc845db	-1.5646318
16	0xbfa8cd67	-1.3187684
17	0xc0ddd09b	-6.9317145
18	0xc02b1f63	-2.6737907
19	0xc0e2a5ca	-7.082738
20	0xc10d5a7b	-8.83459
21	0xc1011ed4	-8.070026
22	0xc12e7ed3	-10.905963
23	0xc119771f	-9.591582
24	0xc0c5c76e	-6.1805944
25	0x3f0dc6d6	0.55381525
26	0xbfdae48e	-1.7100999
27	0xc101a463	-8.102633
28	0xc052ea13	-3.2955368
29	0xc0338562	-2.805016
30	0xc0dd7fa2	-6.92183
31	0xc10bdef0	-8.741928
32	0xc0d544d3	-6.6646514
33	0xc1462745	-12.384587
34	0x3f7b606e	0.98194015
35	0xc0ffeb0f	-7.9974437
36	0xbfe53adc	-1.7908587
37	0xc03772ac	-2.866374
38	0xc044b49a	-3.073523
39	0xc0b987ca	-5.797826
40	0xc0b16fd0	-5.544899
41	0xc0e99917	-7.2999377
42	0xc000f883	-2.015168
43	0x40108304	2.2579966
44	0xc0f2ddbc	-7.589567
45	0xc0a780f6	-5.2344923
46	0xc05727b6	-3.3617988
47	0x3f83fde1	1.0311853
48	0xbfd115b4	-1.6334748
49	0xc0c1ae1f	-6.052505
50	0xc0e925cf	-7.2858653
51	0xc0849e0c	-4.144293
52	0xc0da537f	-6.8226924
53	0x402621d3	2.5958145
54	0xc0fdd920	-7.9327545
55	0xc100abea	-8.041971
56	0xc126f70c	-10.435314
57	0xc0ea1b06	-7.3157988
58	0xc0e77f3e	-7.2342825
59	0xc069e697	-3.654699
60	0xc0f25fec	-7.574209
61	0xc0e39ab5	-7.112635
62	0xc09c5088	-4.8848305
63	0xc12f18c6	-10.943548
64	0xc1077a5e	-8.467375
65	0xc12695e0	-10.411591
66	0xc02b475b	-2.6762302
67	0xc0b5f765	-5.6864495
68	0xc0ab78e7	-5.3585086
69	0xc0e71957	-7.2218432
70	0x3fac8a70	1.3479748
71	0xc0b76ecd	-5.7322755
72	0xc029b34c	-2.6515684
73	0xc0cd196c	-6.4093533
74	0xc1156947	-9.338202
75	0xc1095c51	-8.585038
76	0xc0b06451	-5.5122457
77	0xc0de52ac	-6.947592
78	0xc01a8a6a	-2.4146981
79	0x410ac90f	8.674087
80	0x3f0c0e4f	0.54709333
81	0xc11af4c7	-9.68476
82	0xc0e43bfa	-7.1323214
83	0xc0ac5b3a	-5.386136
84	0xc0fda270	-7.926079
85	0xc0efc400	-7.492676
86	0xc0879b79	-4.2377286
87	0xc0edc4d5	-7.4302773
88	0xbf7b1170	-0.9807348
89	0xc0f33aa4	-7.6009083
90	0xc052dbf9	-3.294676
91	0xc04d19c7	-3.2046983
92	0x402c7500	2.694641
93	0xbf4f9574	-0.8108742
94	0xc029846b	-2.6487072
95	0xc07520bf	-3.8301237
96	0x3ddb6a88	0.107136786
97	0xc0ee5f28	-7.4491158
98	0xc0e58f30	-7.173729
99	0xc092c9ea	-4.5871477
100	0xbfeb3a52	-1.8377173
101	0xc0b50b20	-5.657608
102	0xc0802568	-4.004566
103	0xc0abbcfc	-5.3668194
104	0xc0ce6531	-6.4498525
105	0xc10fb093	-8.980609
106	0xc0b26869	-5.5752454
107	0xc0b11f32	-5.535058
108	0xc0fea4fd	-7.95764
109	0xc0bac42e	-5.8364477
110	0xc0c024cc	-6.004492
111	0x40282382	2.6271672
112	0xc1071b53	-8.444171
113	0xc0b11c0d	-5.534674
114	0xc03affd5	-2.9218647
115	0xc0fe0917	-7.9386096
116	0xbf50fd29	-0.8163629
117	0xc0823a25	-4.0695977
118	0xc0bbf002	-5.873048
119	0xc0e7d3cc	-7.244604
120	0xc0d28227	-6.5783877
121	0xbe221ba9	-0.15830864
122	0xc1210d86	-10.065802
123	0xc091e0bc	-4.5586834
124	0xc11cf103	-9.808841
125	0xc0e4d362	-7.1508036
126	0xc0e001a6	-7.000201
127	0xc0e7a53f	-7.2389216
128	0xc0b3a7d5	-5.6142373
129	0xc0ea72df	-7.3265224
130	0xbf9f5696	-1.2448299
131	0xc08fd076	-4.494197
132	0xc1370849	-11.439523
133	0xc1023985	-8.139043
134	0xbfbc8970	-1.4729443
135	0xc0573918	-3.3628597
136	0xc0ebb9ca	-7.3664293
137	0xc0ea8dd9	-7.3298154
138	0xbf93c0f1	-1.1543256
139	0xc1009db1	-8.038499
140	0x40b6e202	5.715089
141	0xbfa3dfa6	-1.2802627
142	0xc0e5f137	-7.185695
143	0xc12d9890	-10.849747
144	0xc0cc154e	-6.3776007
145	0xc0d76865	-6.7314935
146	0xc0f311cd	-7.595923
147	0xc0e471b1	-7.1388783
148	0xc0e202d5	-7.0628457
149	0xc102de0e	-8.179213
150	0xc11bce7d	-9.737912
151	0xc122622d	-10.148969
152	0xc11ced2f	-9.807906
153	0xc0c7bbcf	-6.241676
154	0xc10d1c0e	-8.819349
155	0xc066dd34	-3.6072512
156	0xbdc916b8	-0.098187864
157	0x3f002b76	0.50066316
158	0xc1159be4	-9.350559
159	0xc08cdddb	-4.402082
160	0xc0cbebe7	-6.3725467
161	0xc11a918d	-9.660535
162	0xc14565dc	-12.337368
163	0xc09f2d28	-4.974262
164	0xc09ef3a7	-4.9672427
165	0xc0fb1bc9	-7.8471417
166	0xc13de9a7	-11.869544
167	0xc0a8ee91	-5.279122
168	0xc0de7c06	-6.9526396
169	0xbe4b241c	-0.19837993
170	0xc101864a	-8.095285
171	0xc1084cc3	-8.518741
172	0x3da9474d	0.08265553
173	0xc0bb21c1	-5.8478703
174	0xc0a93933	-5.2882323
175	0xc0d06ba5	-6.51314
176	0xc0a09781	-5.018494
177	0x400ce1af	2.2012746
178	0xc0d31e4b	-6.597448
179	0xc127c6ed	-10.486066
180	0xc13af8b8	-11.685722
181	0xbfab5851	-1.3386327
182	0x3edcd6e9	0.43132713
183	0xc04b39ec	-3.1754103
184	0xc09c9e98	-4.8943596
185	0xc0cac22a	-6.3362017
186	0xc091cc75	-4.556208
187	0xc01df3ea	-2.4680123
188	0xc0e51a11	-7.159432
189	0xc089451d	-4.2896867
190	0xc1050b03	-8.315188
191	0xbfd7e203	-1.6865848
192	0xc0f52dc0	-7.6618347
193	0xbedb3104	-0.42810833
194	0xc08adf55	-4.339762
195	0xc10db789	-8.857308
196	0x3ed3cf6f	0.41369197
197	0xc09d9c40	-4.9253235
198	0xc0cd9ab1	-6.425133
199	0x3f5f0bdf	0.8712749
200	0x4021b401	2.5266116
201	0xc0f6b0e5	-7.7090936
202	0xc0d6e1ee	-6.7150793
203	0xc0a06328	-5.012104
204	0xc0d21254	-6.5647373
205	0xc1096dfb	-8.589351
206	0xc0e9aa56	-7.302043
207	0xc041a6fa	-3.0258164
208	0xc0f098eb	-7.5186667
209	0xc09c4800	-4.883789
210	0xc013f606	-2.311891
211	0xc088648e	-4.2622747
212	0xc0093bed	-2.1442826
213	0xc0a8d0b5	-5.275477
214	0xc0be281f	-5.9423976
215	0xc111e49b	-9.118312
216	0xc0d1e8f0	-6.5596848
217	0xc0a44e76	-5.1345778
218	0xc0a4ac24	-5.1460133
219	0xc0c60527	-6.188129
220	0xc083ab3e	-4.1146536
221	0xc0c4bc5e	-6.147994
222	0xc059c87b	-3.4028614
223	0xc0c04e21	-6.009537
224	0xc0e89c6d	-7.269095
225	0xc077353b	-3.862624
226	0xc075a8fa	-3.8384385
227	0xc0fd5ccf	-7.917579
228	0xc10ff3b0	-8.996994
229	0xc0907a09	-4.514897
230	0x3d6b75a1	0.057485227
231	0xbf21311d	-0.62965566
232	0xc0ce709b	-6.451246
233	0xc0686612	-3.6312299
234	0x4059de2f	3.404186
235	0xc097a2a3	-4.738603
236	0xc074a184	-3.8223581
237	0xc104d7b7	-8.302665
238	0xc1165766	-9.3963375
239	0xc0d5351e	-6.662734
240	0xc0f1c697	-7.555492
241	0xc0eb1953	-7.3468413
242	0xc11f3402	-9.950197
243	0xc061577b	-3.5209644
244	0x40614408	3.5197773
245	0xc0cbd004	-6.3691425
246	0xc11f0e99	-9.941064
247	0xc08368b8	-4.106533
248	0xc07d6983	-3.959565
249	0xc01983d5	-2.3986714
250	0xc09cd508	-4.901005
251	0xc11bd738	-9.740044
252	0xc0ad5eae	-5.4178076
253	0x3f3ae97c	0.7301252
254	0xc0fcc6b9	-7.899258
255	0xc10e615f	-8.898772

l2.weight f4 [300, 400]
0	0xc0a7d0d6	-5.2442427
1	0xc11f206d	-9.945416
2	0x3f2911b3	0.6604263
3	0x3ea35d39	0.3190706
4	0xc1382544	-11.509098
5	0x4114d3db	9.301723
6	0x3fbd5116	1.479037
7	0xbeba2b3a	-0.36361104
8	0xc04604f9	-3.0940535
9	0xc1487eeb	-12.530986
10	0xc0172c9e	-2.3620982
11	0x3ffb19b0	1.9617214
12	0x3f22c821	0.6358662
13	0xc0e6711f	-7.2013087
14	0x404dae1a	3.2137513
15	0xbfa23e3b	-1.2675241
16	0xc05ab712	-3.4174237
17	0x40cc828d	6.3909364
18	0xc1578a8b	-13.471324
19	0xbdbf9c23	-0.093559526
20	0x4043029e	3.0470347
21	0xc1865efa	-16.796375
22	0x40658bed	3.5866654
23	0xc107c9ff	-8.486815
24	0xc0b01cc6	-5.5035124
25	0xc133ed55	-11.245442
26	0x3fafaf03	1.3725284
27	0xbfb30118	-1.3984709
28	0xc1c8ebd8	-25.115158
29	0x409a695e	4.825362
30	0x40266266	2.5997558
31	0x3e47f55d	0.19527192
32	0xc11fcc8b	-9.987437
33	0xbff27060	-1.8940544
34	0x3f6ff8b0	0.9373884
35	0x40903569	4.50652
36	0xc09c90b3	-4.8926635
37	0xc07bef28	-3.936472
38	0xc1306d31	-11.026658
39	0xc0b3439e	-5.602004
40	0xc10a9b0b	-8.662852
41	0xc00af931	-2.1714594
42	0xc1913c07	-18.15431
43	0xc1226eda	-10.152063
44	0xbf633173	-0.8874733
45	0xc05b05ab	-3.422221
46	0xc1a47a45	-20.559702
47	0xc166a7e0	-14.415985
48	0x3f5b3a3e	0.85635746
49	0x3f9bf5a3	1.2184337
50	0xbf7ed29d	-0.9954012
51	0x40207448	2.5070972
52	0x401daf4c	2.4638243
53	0xc19b4c55	-19.412271
54	0xc0ae45ff	-5.4460444
55	0xc1147ae0	-9.279999
56	0xc1971d5c	-18.889336
57	0x3ebbec1e	0.3670358
58	0x3fc47358	1.53477
59	0x3f65ec8f	0.89814085
60	0xc11e2cb4	-9.885914
61	0xc1c59568	-24.697952
62	0xc090e755	-4.528239
63	0xbfcc70da	-1.597194
64	0x407fbf6b	3.9960582
65	0x3f74f7d5	0.9569066
66	0xc049dbea	-3.1540475
67	0xc06641a9	-3.5977576
68	0xbfc62ab2	-1.548178
69	0xc16b9d10	-14.725845
70	0x3e416cfc	0.1888923
71	0x40c8206d	6.253958
72	0xbef62738	-0.48076797
73	0xc15adf6f	-13.679549
74	0xc10725cd	-8.446729
75	0xc08bb380	-4.3656616
76	0xc1a45b03	-20.54444
77	0xc184733f	-16.556273
78	0xc05dae5c	-3.463767
79	0xc19543fa	-18.658192
80	0xc145e148	-12.3675
81	0xc197ac88	-18.959244
82	0xc1cad19d	-25.35235
83	0x407bcc85	3.934358
84	0xc0a47942	-5.139802
85	0xc15e96a9	-13.911782
86	0xc0cb2e16	-6.3493757
87	0x401a2667	2.408594
88	0xc202dc65	-32.71523
89	0xc1ec53ea	-29.540974
90	0xc1b37187	-22.430433
91	0xc13aacc2	-11.667177
92	0xc0a86d9f	-5.2633815
93	0xc151b1ac	-13.105877
94	0xc001fade	-2.0309367
95	0x3fec5eb7	1.8466405
96	0xc1388533	-11.532519
97	0xc1059b0f	-8.350356
98	0xc125cd2d	-10.362592
99	0xc2592e60	-54.295288
100	0x40caa808	6.3330116
101	0xc0d35e23	-6.6052413
102	0xc109d7e3	-8.615207
103	0xc0cb8758	-6.3602715
104	0xc1bc2f0d	-23.522974
105	0x403e00f7	2.968809
106	0xc145733e	-12.340635
107	0xc01e4c2b	-2.473399
108	0xc0be16e2	-5.9402933
109	0x3ffd0893	1.9768242
110	0xbfeb0268	-1.8360109
111	0xc15b09c4	-13.689884
112	0x3d44ab94	0.048015192
113	0xc10b5e71	-8.710557
114	0xc07d35f1	-3.9564173
115	0x406616e6	3.5951476
116	0xc0bcf4e5	-5.9048944
117	0x408e72f7	4.451534
118	0xbfad3ea8	-1.3534746
119	0x3eedc07e	0.46435922
120	0xc14b590c	-12.70924
121	0x3f81332e	1.0093744
122	0xc049a7b1	-3.15086
123	0xc0ed69d4	-7.4191685
124	0xc0446723	-3.068795
125	0xc112e0fa	-9.179926
126	0xbfddfde7	-1.734311
127	0x40ac87a6	5.3915586
128	0xc0167b04	-2.3512583
129	0xc19363cc	-18.423729
130	0xc15a3b74	-13.639515
131	0x3eb208de	0.3477239
132	0xc1608152	-14.031572
133	0xc01e3ff5	-2.4726536
134	0xc1054626	-8.329626
135	0xbecaebef	-0.39633128
136	0x4040bd0d	3.0115387
137	0x4058e0a8	3.388712
138	0xc17e349a	-15.887842
139	0xc00446c7	-2.06682
140	0xc08e1cc6	-4.4410124
141	0xc078e8bc	-3.889205
142	0xc1a0b03b	-20.08605
143	0xc1f75f68	-30.921585
144	0xc0bf68dc	-5.98155
145	0xc1103e79	-9.015252
146	0x3e63e9de	0.22257182
147	0xc105ae51	-8.355058
148	0xc1196ba1	-9.588777
149	0xc1007e8a	-8.030893
150	0xc0985a59	-4.761029
151	0x3faf59aa	1.3699238
152	0xbe870b5c	-0.26375854
153	0x3ff9e150	1.9521885
154	0x403c3956	2.9409995
155	0x4001dc05	2.029054
156	0xbf47b6a3	-0.78013057
157	0x3f11f2ee	0.57011306
158	0x40b7acbe	5.7398367
159	0xc0a1601e	-5.042983
160	0xc165d3b2	-14.364183
161	0xc18d36e0	-17.651794
162	0xc16f7c7b	-14.967891
163	0x3fc5f68a	1.5465863
164	0xc017f598	-2.3743649
165	0xc14c1db5	-12.757253
166	0x3fda36b0	1.7047939
167	0xc1833179	-16.399157
168	0xbda3187f	-0.07963657
169	0xc1296bb3	-10.588794
170	0xc15d2293	-13.820941
171	0xc03c52b0	-2.9425468
172	0x3fee6479	1.8624412
173	0xc0eb3abc	-7.3509197
174	0xbe8dd71d	-0.2770318
175	0xc0347249	-2.8194754
176	0xc17849a0	-15.517975
177	0xbf383316	-0.7195295
178	0xc1220124	-10.125278
179	0xc215bc00	-37.433594
180	0xc12a90a3	-10.660312
181	0xbe725a4c	-0.23667258
182	0xc0d22263	-6.5666976
183	0xbebcf6fe	-0.3690719
184	0xc1756a14	-15.338398
185	0x40a446cf	5.1336436
186	0x40058db8	2.0867748
187	0xc1bd1362	-23.634464
188	0xc00db66b	-2.214259
189	0xc0be56a0	-5.9480743
190	0xbfcc432c	-1.5957999
191	0xbfd0988f	-1.6296557
192	0xc1342b27	-11.260535
193	0xc01a5707	-2.4115617
194	0xc0643f87	-3.5663774
195	0xbf16de6c	-0.5893314
196	0xbf5bae39	-0.8581272
197	0xc124a0e5	-10.289281
198	0xc12c3842	-10.763735
199	0xc002eec1	-2.0458224
200	0xc126f827	-10.435584
201	0xc1669394	-14.41103
202	0x3e287274	0.1644991
203	0xc12a2861	-10.634858
204	0xbe36ad44	-0.17839533
205	0xc165d824	-14.365269
206	0xbf15e9d2	-0.58559906
207	0x3fdca765	1.7238585
208	0xc18d06b9	-17.628283
209	0x4010a595	2.2601063
210	0xbf92bc78	-1.1463766
211	0xc0ac1d83	-5.3786025
212	0xc013ce0f	-2.3094518
213	0xc0e78e75	-7.23614
214	0xc1a43ac3	-20.528692
215	0xbecf383c	-0.4047259
216	0xc1247029	-10.277383
217	0xbf6735e3	-0.903166
218	0xc15e44f2	-13.891832
219	0xc15a6326	-13.649206
220	0x401af9b4	2.4214907
221	0xc169e192	-14.617571
222	0xc0aef9f5	-5.4680123
223	0xbe5a9742	-0.21346763
224	0xbdc3258e	-0.09528647
225	0xc03fa925	-2.9946988
226	0xc1bdb9d4	-23.715736
227	0x4021aece	2.5262942
228	0xc1c31c40	-24.388794
229	0xc07a3cd3	-3.9099624
230	0x3ff44950	1.9084873
231	0xc10b6d54	-8.714191
232	0xc1998721	-19.19098
233	0xc01674ae	-2.3508716
234	0xc007c721	-2.1215289
235	0x40712ac0	3.7682343
236	0xc18fc185	-17.969492
237	0xc152a065	-13.164159
238	0xc0834267	-4.1018558
239	0xc034e1e0	-2.8262863
240	0xc195019a	-18.625782
241	0xbf0d852e	-0.5528134
242	0xbda93e4d	-0.08263836
243	0xc1dbbf7a	-27.468494
244	0xc19ca5d8	-19.580978
245	0x3f16bf5c	0.5888574
246	0x40378c91	2.8679545
247	0xbead4bb8	-0.3384683
248	0xc0070a5b	-2.110007
249	0xc07d9784	-3.9623728
250	0x3f7a097e	0.97670734
251	0xc0f81aee	-7.7532873
252	0xc18bb932	-17.465427
253	0xbfd2c8f8	-1.6467581
254	0x3fa0a22b	1.254949
255	0xc1352a17	-11.322776

l2.bias f4 [300]
0	0x4072c606	3.7933364
1	0xbd4d147c	-0.050068364
2	0x4054c15d	3.324302
3	0xbd951f0f	-0.072813146
4	0xbd9bb9d7	-0.076038055
5	0x3d984255	0.07434527
6	0xbce7e573	-0.028307652
7	0xba41a1ba	-0.0007386465
8	0xbd1bb757	-0.038016643
9	0x3c060da6	0.008181965
10	0xbfae7136	-1.3628299
11	0x3c1eb49e	0.009686617
12	0x4062fd5d	3.546714
13	0x3dd9481b	0.10609456
14	0xbea43366	-0.32070464
15	0xbd19c01e	-0.037536733
16	0xbd5eab1d	-0.054362405
17	0xc01b91a0	-2.4307632
18	0x3f2114d5	0.6292241
19	0xbd8dfe7b	-0.06933304
20	0xbd3bf07f	-0.04588365
21	0x3f7d0c20	0.98846626
22	0xbdfea73f	-0.124342434
23	0xbd536561	-0.051610354
24	0x403a998f	2.9156225
25	0x3f6e2574	0.930259
26	0x400c0e42	2.1883702
27	0x3d49c659	0.049261425
28	0xbd1e3a94	-0.038630083
29	0x40377103	2.8662727
30	0xbd1caafa	-0.038248993
31	0xbe88c74a	-0.26714545
32	0x3fa157da	1.2604935
33	0x40cfc40a	6.4926805
34	0x3f828bcb	1.0198911
35	0xbdd2e3cf	-0.10297357
36	0x3f5df2fa	0.8669888
37	0xbd0d86ec	-0.0345525
38	0xbe6dd916	-0.23227343
39	0xbcc0fc16	-0.023557704
40	0x39f222ad	0.00046183672
41	0x400db8e5	2.21441
42	0x3e9b8ca0	0.30380726
43	0xbbf83621	-0.007574812
44	0xbe633a6f	-0.2219026
45	0xc037f170	-2.8741112
46	0x405cb118	3.448309
47	0xbdb29a5d	-0.08720849
48	0xbdab5966	-0.08366661
49	0xbd499d8f	-0.049222525
50	0xc032eb01	-2.7955935
51	0xbdd0ba19	-0.10191745
52	0xc018ffa5	-2.3906033
53	0x404836ae	3.1283374
54	0x401b8321	2.4298785
55	0xbc828454	-0.01593224
56	0xbdc813f5	-0.097694315
57	0xbd99869f	-0.0749638
58	0xbc860e05	-0.016364107
59	0xbd254310	-0.04034716
60	0xbd372db8	-0.044721335
61	0xbe1e841c	-0.15480083
62	0xbdbb4f00	-0.091459274
63	0xc071312c	-3.7686262
64	0xbde49aa1	-0.111623056
65	0xbdfce470	-0.123482585
66	0x40b31a95	5.596995
67	0x40431646	3.0482345
68	0x407a1f23	3.9081504
69	0xbd482afe	-0.048869126
70	0xbd785969	-0.060632143
71	0xbd1110d6	-0.035416447
72	0xbd699608	-0.057027847
73	0xbceb866e	-0.028750625
74	0xbfe941bb	-1.8223184
75	0xbe3040e3	-0.17212252
76	0xbe4b4892	-0.19851902
77	0x3fb70e0c	1.4301162
78	0xbd9803d0	-0.07422602
79	0xbe6ba0a6	-0.23010501
80	0x3fab2c0f	1.3372821
81	0xbb7fd5e3	-0.0039037399
82	0xbfcc6829	-1.5969287
83	0xbd09fb13	-0.03368671
84	0xbf0cdaf5	-0.550216
85	0xbd8e20e4	-0.06939867
86	0xbd072803	-0.032997143
87	0xbd1510de	-0.03639304
88	0xbc263aff	-0.010145902
89	0xbfbda9d4	-1.4817452
90	0xc0427ad9	-3.038748
91	0xbcead55c	-0.02866619
92	0xbd6325e5	-0.05545606
93	0x3fdf51d7	1.744685
94	0x406e44df	3.7229536
95	0xbe728655	-0.23684056
96	0x3df05276	0.11734478
97	0xbd600bd5	-0.054698784
98	0x3fdc344a	1.7203457
99	0xbf422c32	-0.75848687
100	0xbd5fed22	-0.054669507
101	0x3dba9e7f	0.09112262
102	0xbca22723	-0.019794052
103	0xc0248486	-2.5705886
104	0xc01787e0	-2.3676682
105	0xbd8489a2	-0.06471564
106	0xbbc68939	-0.0060588387
107	0xbd5b0959	-0.05347571
108	0xbcd00f09	-0.025397794
109	0x4032da0e	2.794559
110	0x40953003	4.662111
111	0xbccbcb54	-0.024877228
112	0xbcb61242	-0.022225503
113	0xbd89c2a6	-0.06726579
114	0x40458838	3.0864391
115	0x3c6631a7	0.014049924
116	0x3f99a5d6	1.2003734
117	0xc06d6670	-3.7093773
118	0xbd6941a3	-0.05694736
119	0xbd1aaf4b	-0.03776483
120	0x3cf06d44	0.029348977
121	0x403600e7	2.843805
122	0xbd60b4e4	-0.05486001
123	0xbe8f3d48	-0.2797644
124	0x3fd8aa70	1.6927013
125	0xbc847b55	-0.01617209
126	0xbcb248d8	-0.02176325
127	0x4095ee78	4.68536
128	0xc001f548	-2.0305958
129	0xc086f170	-4.2169724
130	0xbc7e051c	-0.015504148
131	0x3bdc403e	0.0067215255
132	0xbd25063c	-0.04028915
133	0xbd92bfc3	-0.07165482
134	0xbdbabe57	-0.09118336
135	0x3b5a2a75	0.0033289467
136	0x3fd57b09	1.6678172
137	0xc0343521	-2.8157427
138	0xbacb29b3	-0.0015500098
139	0xbcc0f6b9	-0.023555147
140	0x3db1b17c	0.086764306
141	0xbd9a369e	-0.07529949
142	0x3d6197c5	0.05507638
143	0xbd8a0b97	-0.06740492
144	0xbc08e0af	-0.00835435
145	0xbcd81e40	-0.026381612
146	0x3d564d1e	0.05231964
147	0xbf447b04	-0.76750207
148	0xbff81d3b	-1.938392
149	0xbd138ec7	-0.036024835
150	0xbd9fc442	-0.07801105
151	0xbe50d7aa	-0.2039477
152	0xbb3034e5	-0.0026886996
153	0xbca22660	-0.01979369
154	0xbe8600e0	-0.26172543
155	0x3c3c477a	0.011491651
156	0xbcef0ff6	-0.029182415
157	0xbdcc3365	-0.0997074
158	0xbc565e35	-0.013083984
159	0xbd864253	-0.06555619
160	0x3fe6a650	1.8019505
161	0xbddcc6ed	-0.107801296
162	0x3feb5d60	1.8387871
163	0x3fcb2a3e	1.5872266
164	0xbd942156	-0.07232921
165	0xbda0708f	-0.07833969
166	0xbd2d89b7	-0.042367663
167	0xbc5582ea	-0.013031701
168	0x3c1bde82	0.009513499
169	0xbe2f2f74	-0.17107946
170	0xbdbef746	-0.093245074
171	0xbc80e9dd	-0.015736515
172	0x3c737c4b	0.014861177
173	0xbe25b262	-0.16181329
174	0xbccf51b9	-0.025307523
175	0xbdd610f2	-0.10452451
176	0xbd06542d	-0.03279512
177	0x401aea98	2.4205685
178	0x407b7dcc	3.929553
179	0xbbb0e853	-0.005398789
180	0x3ec940d4	0.39307272
181	0xbd8d724b	-0.06906565
182	0x3c9fa9e5	0.019490192
183	0xbd5d2690	-0.053991854
184	0xbe922d1f	-0.2855005
185	0xbd47d719	-0.048789117
186	0xbdcde575	-0.10053531
187	0x3c5e0416	0.013550779
188	0xc087760a	-4.233159
189	0x3a260a3b	0.0006333922
190	0x4036dcc0	2.8572235
191	0x40233936	2.5503669
192	0x403db00a	2.9638696
193	0xc0223ff7	-2.535154
194	0xc037c495	-2.8713734
195	0xc0ab1297	-5.3460193
196	0xbd48081c	-0.04883586
197	0xbd8f2b47	-0.069906764
198	0x3f06523f	0.5246925
199	0xc05d317f	-3.456146
200	0xbca6ca58	-0.020360157
201	0xbd05597d	-0.032556046
202	0xbc2d9fe6	-0.010597205
203	0xbd572c80	-0.052532673
204	0x3bf14e54	0.007364074
205	0xbda6b819	-0.081405826
206	0x3f4d77be	0.8026084
207	0x4036bfc1	2.8554537
208	0x40157f77	2.3359048
209	0xbd015d08	-0.031582862
210	0xc08b4ec4	-4.353365
211	0x3f5796c1	0.8421441
212	0xbdc3ea4f	-0.09566175
213	0x3fd10d88	1.6332254
214	0x40618268	3.5235844
215	0xbdacf8ea	-0.08445914
216	0xbd6ebd5f	-0.058286067
217	0x3ddad76a	0.10685618
218	0xbb32218f	-0.0027180647
219	0xbd8c20f7	-0.06842225
220	0xbc2d23d0	-0.01056762
221	0xbf21689c	-0.63050246
222	0xbda8da48	-0.08244759
223	0xbf791728	-0.9730096
224	0xbcc808a5	-0.024418185
225	0x40181260	2.3761215
226	0xc0184d56	-2.3797202
227	0xbd5c05c4	-0.053716436
228	0xbe0fa5c0	-0.14028072
229	0xbda36a87	-0.07979303
230	0x405d4297	3.4571893
231	0xbcd622bb	-0.026139608
232	0x40bb005b	5.8437934
233	0xbcaaa82c	-0.020832144
234	0xbd947c28	-0.072502434
235	0xbd83b9bb	-0.0643191
236	0xbe450557	-0.19240318
237	0xbdac3d16	-0.08410089
238	0xbff56e91	-1.9174367
239	0xbdaf2226	-0.08551435
240	0xbfde8d42	-1.7386858
241	0xbd88cfe0	-0.06680274
242	0xbda8ee95	-0.08248631
243	0xbe81c5fe	-0.2534637
244	0xbd9b22e1	-0.07575012
245	0xbc3596e2	-0.011083337
246	0x3e40a793	0.18813924
247	0xbc68b154	-0.014202435
248	0xbd8a867c	-0.06763932
249	0x40445ebd	3.0682824
250	0xbb104c05	-0.0022017967
251	0xbce56568	-0.028002456
252	0xc05f0500	-3.4846802
253	0xbd6cffe3	-0.05786122
254	0x40628ccf	3.5398443
255	0xbccbeb05	-0.02489234

l3.weight f4 [1, 300]
0	0xc2012f12	-32.295967
1	0x3cd4d5ac	0.025980793
2	0xc28bdf47	-69.93609
3	0x3c90d245	0.01767839
4	0x39b080bb	0.00033665248
5	0xbf8c6ab6	-1.0970066
6	0xbc82c3de	-0.015962537
7	0xba2527a0	-0.0006300155
8	0x3cc0eb7f	0.023549793
9	0x3ca7e7a8	0.020496204
10	0xbd07d844	-0.03316523
11	0x3ccaf7cf	0.024776367
12	0xc28f1e02	-71.55861
13	0xbea08deb	-0.31358275
14	0x3d1e091d	0.03858291
15	0x3bdad0fa	0.006677744
16	0xbbd3ac39	-0.0064597395
17	0x3fbd46d5	1.4787241
18	0xbd524d7f	-0.051343437
19	0x3bc855c7	0.006113741
20	0xbb926bdd	-0.0044684247
21	0xbbde39b5	-0.0067817816
22	0xbc10b2a0	-0.00883165
23	0x3caf592e	0.021404829
24	0xc214b378	-37.175262
25	0x3a480675	0.00076303567
26	0xc1cb8363	-25.439154
27	0x3e4e4a35	0.20145495
28	0x3d045616	0.03230866
29	0xc224c669	-41.19376
30	0x3c268970	0.010164604
31	0x3e002437	0.12513815
32	0xc2721920	-60.524536
33	0x3dc85fce	0.09783898
34	0xc248ba7c	-50.182114
35	0xbc2cc459	-0.01054486
36	0xc28c7b17	-70.24041
37	0x3caee7b7	0.021350725
38	0xbc9334ea	-0.017969567
39	0xbf254add	-0.6456736
40	0x3cdb563f	0.026774524
41	0xc2882175	-68.065346
42	0xc20874b0	-34.113953
43	0xbcda105f	-0.026619134
44	0xbc558cd0	-0.013034061
45	0x4145ddbc	12.366634
46	0xc288a439	-68.32075
47	0xbe8d2940	-0.27570534
48	0x3cc09478	0.023508295
49	0xbee20c53	-0.44150028
50	0xbd93b482	-0.072121635
51	0x3cee1504	0.029062755
52	0x4101830a	8.094492
53	0x3c09b487	0.0084048575
54	0xc2ba5ae2	-93.177505
55	0xbcd9b342	-0.026574735
56	0x3ab09346	0.0013471625
57	0xbee4c326	-0.44680136
58	0xbaa8729f	-0.0012851543
59	0xbd373b6c	-0.044734403
60	0xbc13ba29	-0.009016552
61	0xbe9cbad7	-0.30611297
62	0xbabbd9bd	-0.0014331859
63	0x41a012ea	20.009235
64	0xbcaf1231	-0.021370979
65	0x3d7c3e28	0.061582714
66	0xbd08c006	-0.033386253
67	0xc2518eab	-52.389324
68	0xbd1e4106	-0.03863623
69	0xbac90f6c	-0.0015339679
70	0xbb8c9c5d	-0.004291101
71	0x3d32b039	0.04362509
72	0x3c0dc66a	0.008653263
73	0x3d49a47f	0.04922914
74	0x413a0672	11.626574
75	0x3b92081d	0.0044565336
76	0x3c97e2e5	0.018540809
77	0xc2242b16	-41.042076
78	0x3a4a9017	0.00077271595
79	0x3cc17cd0	0.023619086
80	0x3da62cfc	0.08114049
81	0xc178bcfd	-15.54614
82	0x3d7b5f28	0.061370045
83	0xbbf88ed3	-0.0075853853
84	0xc0d45013	-6.6347747
85	0x3c772853	0.015085298
86	0xbcc42c0d	-0.023946786
87	0x3b13dda3	0.0022562526
88	0xbcaa7d6d	-0.02081176
89	0x4078e7cf	3.8891485
90	0xbc3b2024	-0.011421237
91	0x3c4ce36d	0.012505394
92	0xbcc5c753	-0.024142897
93	0xc2974e01	-75.65235
94	0xbf96a5a5	-1.1769301
95	0xbe943085	-0.28943267
96	0xbeada508	-0.3391497
97	0x3af80365	0.001892191
98	0x3dd02207	0.1016274
99	0xc1042de5	-8.261205
100	0xbbfe5ca6	-0.0077625094
101	0xbabaaa9a	-0.0014241517
102	0x3cec29d8	0.028828546
103	0x41983733	19.026953
104	0x40018405	2.0236828
105	0xbc40df5b	-0.011772002
106	0xba28c096	-0.0006437389
107	0xbc3dd5d1	-0.011586622
108	0xbcc71f24	-0.024306841
109	0xc2207cca	-40.121864
110	0xc29c57fe	-78.17186
111	0x3cb7bc7c	0.022428744
112	0x3cd336e3	0.025783008
113	0xbb479b85	-0.0030457687
114	0x3db300d2	0.08740391
115	0x3c6898e4	0.014196608
116	0x3d48f407	0.049060848
117	0x4188ccae	17.099941
118	0x3ca9328f	0.020653991
119	0xbccc621a	-0.024949122
120	0x3e490ea9	0.19634499
121	0xc2210d2b	-40.26286
122	0x3cdaeff4	0.026725747
123	0x3bb4776f	0.0055074017
124	0xc1ddde83	-27.733648
125	0xbc412682	-0.011788966
126	0x3ba4ace4	0.005025493
127	0xbc3a8d43	-0.0113862185
128	0x40f990d4	7.798929
129	0x417e193e	15.881163
130	0xbd19ae66	-0.037519835
131	0xbc958e04	-0.018256195
132	0xbce6de85	-0.028182277
133	0xbb10de44	-0.0022105137
134	0xbb9bace6	-0.0047508357
135	0x3d0c4717	0.034247484
136	0xc1f8f6c2	-31.120487
137	0x419a0bed	19.255823
138	0xbadd846a	-0.0016900424
139	0x3c033799	0.008008861
140	0xbe9afd4a	-0.3027137
141	0xbca48b1e	-0.020085867
142	0xbe9d80a7	-0.30762216
143	0xbcd42e48	-0.025900975
144	0xbce302c7	-0.027711285
145	0x3d2ed51e	0.042683713
146	0xbe55c81e	-0.2087712
147	0x3e151fc6	0.14562902
148	0x402af586	2.6712356
149	0xbb963af3	-0.004584664
150	0xbb98f686	-0.0046680598
151	0xbd7c8a37	-0.06165525
152	0xbcee79fa	-0.029110897
153	0xbb49eab8	-0.003081007
154	0x3f1040f3	0.56349105
155	0xbcc08b87	-0.023504032
156	0xbc30bc73	-0.010787117
157	0xbba5badc	-0.0050576758
158	0xbad12412	-0.0015956184
159	0x3c19e6b0	0.009393379
160	0xbb522d0b	-0.0032070305
161	0x3d0b4809	0.034004245
162	0xc28f95d9	-71.79267
163	0xc222ce25	-40.701313
164	0xbc8166a7	-0.015796019
165	0xbabf7d21	-0.0014609435
166	0xbbffedfd	-0.007810353
167	0x3cab4699	0.020907687
168	0xbca662f9	-0.020310866
169	0xbd17b9b4	-0.037042335
170	0x3bf8f1ee	0.0075971996
171	0x3bc7586b	0.0060835383
172	0x3c77c128	0.015121736
173	0x3e22248c	0.15834254
174	0xbca2a91b	-0.019856026
175	0xb870a356	-5.7372577e-05
176	0x3ca8f9e9	0.020626979
177	0xc230f82a	-44.242348
178	0xc2562828	-53.539215
179	0xbe0dc263	-0.13843684
180	0xbf4cc452	-0.7998706
181	0xbd04a486	-0.032383464
182	0xbd0b4d0d	-0.03400903
183	0xbca9b514	-0.020716228
184	0x3e0cda4e	0.13755152
185	0x3ce82eb7	0.028342588
186	0xbca43e95	-0.020049373
187	0xbae3749a	-0.0017353476
188	0x4127b14d	10.480786
189	0x3c2d2c8e	0.010569705
190	0xbd86dd54	-0.06585184
191	0xc28baae9	-69.83381
192	0xc2a9a7f8	-84.828064
193	0x3fe31e68	1.7743654
194	0x41b23f0e	22.280788
195	0xbe87fe06	-0.26560992
196	0x3cc984fa	0.024599541
197	0xbcbca6a8	-0.023028687
198	0xbf802b73	-1.001326
199	0xbd48006c	-0.048828527
200	0x3a230bd2	0.0006219718
201	0x3c7d57a7	0.0154627925
202	0x3c287746	0.010282343
203	0xbce0b6cf	-0.02743092
204	0xbc5813f7	-0.013188354
205	0xbc6fb420	-0.0146303475
206	0x3db206ed	0.08692727
207	0xc26ca00e	-59.156303
208	0x3d108b9e	0.0352894
209	0xbc000355	-0.007813294
210	0x41952710	18.644073
211	0xc204c700	-33.194336
212	0x3cb6c9d4	0.022313036
213	0xc25f5c45	-55.840107
214	0xc24958d1	-50.336735
215	0x3cbf4682	0.02334905
216	0x3b66c542	0.003521279
217	0x3cf0f37b	0.029412976
218	0x3cc75a05	0.024334917
219	0xbc6acb65	-0.01433072
220	0xbb8e14f2	-0.004335993
221	0xbf3b83be	-0.732479
222	0xbc95d608	-0.018290535
223	0x3a42af54	0.00074266386
224	0xbb7cd963	-0.003858172
225	0xc2b222bc	-89.06784
226	0x4120b3f6	10.043936
227	0xbcdb8992	-0.026798997
228	0x3cc3c534	0.023897745
229	0x39a04c13	0.00030574258
230	0xc2b8c6c7	-92.38824
231	0x3d03fa88	0.032221347
232	0xc285956e	-66.791855
233	0x3d08ff94	0.033446863
234	0xbb38252b	-0.0028098326
235	0xbb1a80a0	-0.0023575202
236	0x40af80d6	5.484477
237	0x3c8be909	0.017078893
238	0x419f9385	19.947031
239	0x3ccacd3e	0.02475607
240	0x408e68e0	4.450302
241	0x3c994c8e	0.018713262
242	0xbb3054e2	-0.0026906063
243	0xbf034927	-0.51283497
244	0x3b8753ff	0.004129886
245	0xbc36f91b	-0.01116779
246	0xbe204b23	-0.15653662
247	0xbba62b56	-0.005071084
248	0x3b6ebb08	0.0036427397
249	0xbc480b0f	-0.012209668
250	0x3cac5a37	0.021039112
251	0xbba062db	-0.004894597
252	0x41d5eaeb	26.739706
253	0xbadff652	-0.0017086959
254	0xbbd80a53	-0.0065930276
255	0x3c84d057	0.016212625
