uncertain/Reacher-v2/uncertain.pth (torch, 22815 bytes, 5 tensors)

layer1.weight f4 [64, 13]
000000 9e 8d 15 be 79 66 8b ba 6d 3f 46 be 75 91 2c be
       -0.14604804 -0.0010635398 -0.19360133 -0.16852362
000010 b1 3f dd 3d 2a ee 34 be e5 d1 4b be 88 10 27 3e
       0.10803164 -0.17668977 -0.19904287 0.163149
000020 50 7e 96 3c 83 5a f8 3d c5 2d 08 3a 1f a9 42 3d
       0.018370777 0.12126639 0.00051948085 0.047524568
000030 22 31 09 bd 4e 41 c9 3c d1 aa e0 3d f3 64 b0 bd
       -0.033494122 0.024567273 0.10970081 -0.086130045
000040 11 73 31 3e ff 2b db 3a 78 eb ea 3d 6e c3 22 be
       0.1732905 0.0016721486 0.11470693 -0.15894863
000050 8c 67 b9 bd b8 21 8d 3c 1d 0d ae bb 26 b4 81 bd
       -0.09052953 0.017227992 -0.005311622 -0.06333189
000060 ae 71 bd 3d ff f7 78 3a 68 22 2d 3e 1c a6 12 be
       0.09250198 0.00094974035 0.16907656 -0.14321178
000070 33 c2 4e bd f5 0d 2a bd 13 9b 93 bc ab 42 69 bd
       -0.05047817 -0.041517217 -0.018018281 -0.056948345
000080 5c c0 46 be eb 65 5c 3e 4a 53 03 3e cc 61 5d 3c
       -0.19409317 0.21523254 0.12824741 0.013512086
000090 20 1d 11 be 86 f3 27 be 07 28 2f 3e c2 0c a8 bd
       -0.14171267 -0.1640149 0.17105113 -0.08205558
0000a0 f9 33 40 bd af 28 1e 3e 62 43 85 3e 31 cf 32 3e
       -0.046924565 0.15445207 0.26027972 0.1746185
0000b0 11 bf 32 be a1 73 2f 3d 23 97 e6 3d cb 28 ca bc
       -0.17455699 0.04283488 0.11259296 -0.024677655
0000c0 49 fc 28 3c ee 0f a1 3d 56 15 06 3e 20 44 dd bc
       0.010314056 0.078643665 0.13094077 -0.027010024
0000d0 cd 1f 92 bd af 31 87 bc 70 74 b9 3d 9d a7 45 3d
       -0.07134972 -0.016503183 0.09055412 0.04825555
0000e0 7d 4f 79 3c ee c6 70 3d 2a fd 54 3d c3 97 49 3d
       0.015216705 0.058783464 0.05199925 0.049216997
0000f0 d6 27 36 be eb 89 75 38 ba c3 19 3e 32 60 4c ba
       -0.17788634 5.8540998e-05 0.1501607 -0.00077963166
000100 f7 1b 03 be 16 03 e4 bd ec 5d 6d 3e dd 65 5c 3c
       -0.12803636 -0.11133401 0.2318036 0.0134520205
000110 e6 41 45 3d f1 55 a7 bd bc b9 b7 3c 24 eb 4d be
       0.04815855 -0.08170689 0.022427432 -0.2010923
000120 e5 9b ea bd a2 0f 14 3e 2e 6d e3 bc e9 36 ed bc
       -0.11455516 0.14459088 -0.027762022 -0.028956847
000130 a7 df 7a bd 32 a0 13 3e 82 c3 4d 3e d5 b5 eb 3d
       -0.061248448 0.14416578 0.20094112 0.11509291
000140 c3 04 4d 3e d7 40 28 3a 76 ed ca bb 40 23 62 3d
       0.20021348 0.00064183533 -0.0061928583 0.0552094
000150 ee 1d 32 3e 61 cb 22 be 64 8c 06 3e 1b ad 22 3d
       0.1739423 -0.15897895 0.13139492 0.039715867
000160 e5 72 f7 ba a2 f5 2a 3b 92 bf 1a be ad c2 2f bd
       -0.0018878846 0.002608635 -0.15112141 -0.042910267
000170 cb 3d de 3d e6 2e 0c bd 92 b6 0d be 5d d2 97 3d
       0.1085163 -0.034224413 -0.13839176 0.074131705
000180 48 5b 25 3e b7 f1 8d 3d 87 2c 80 be 8e 85 3f 3d
       0.16148102 0.06930869 -0.25033972 0.046758227
000190 10 08 5d bd 48 67 c1 bd b3 09 15 3e 34 de 31 b9
       -0.053962767 -0.094435275 0.14554481 -0.00016962813
0001a0 ad 8a 97 3d 5d 29 a1 bd 5d 60 cd 3d 39 46 72 3d
       0.07399497 -0.078692175 0.100281455 0.059149
0001b0 39 cd 19 3d dc 95 10 be 05 55 52 3e be 5a 83 be
       0.03754923 -0.14119667 0.20540245 -0.25655168
0001c0 a5 c7 30 3e 12 f2 57 bd ce df 6d bd 9e 23 04 bd
       0.17263658 -0.05272109 -0.058074765 -0.03226053
0001d0 cd be fe 3d d2 47 70 3e a5 79 0f be 2b 71 11 be
       0.12438736 0.23464897 -0.14011247 -0.14203326
0001e0 aa 1d 8b be 59 48 66 bd 87 d8 b5 bd b0 e8 df 3d
       -0.2717107 -0.05622134 -0.0887919 0.109330535
0001f0 80 ff fd bd 0a 30 8f 3d f1 e1 ea bb 3e fa 9e 3a
       -0.124022484 0.069915846 -0.0071680476 0.0012129021
000200 b2 97 37 3e c7 be 28 be ce d7 29 3d e7 3b 11 be
       0.17928961 -0.16479026 0.041465573 -0.14183007
000210 10 33 de bd b3 98 53 be 26 60 d9 bc b1 c7 55 39
       -0.10849583 -0.20663719 -0.026535105 0.00020387654
000220 76 cf 0e be 77 25 e1 3c 9e 90 21 3e a4 1e 06 be
       -0.13946328 0.027483685 0.15777823 -0.13097626
000230 25 53 17 bd 6c 0f 5d 3b 35 a7 a7 b9 2d 26 ab bd
       -0.036944527 0.0033731116 -0.000319773 -0.08356891
000240 95 30 be bd c0 05 03 3c f2 70 6d be 71 e3 f1 bc
       -0.0928661 0.007996976 -0.23187616 -0.029527398
000250 f9 1d 34 bd 02 f4 c7 3d fd 4e 53 3e 99 a2 ac 3d
       -0.043973897 0.09763338 0.206356 0.084294505
000260 48 a4 34 be bc 99 c8 3d e8 a8 ea bd 9c fa 34 b9
       -0.17640793 0.097949475 -0.114579976 -0.00017259497
000270 c3 0a 10 3e 0b f8 37 3e 93 a7 0b be 24 c8 b8 bd
       0.14066605 0.17965715 -0.13638143 -0.09022549
000280 f4 d8 d3 3b 7d 9e c7 3c 5e 8e d2 bd c4 a8 07 3d
       0.006465072 0.024367565 -0.10281061 0.03311993
000290 f1 2f b9 3b e8 f3 1f 3c dd a9 93 bb 8f a9 d3 3d
       0.005651467 0.009762742 -0.0045063333 0.10335075
0002a0 5b 5a 34 be c4 68 63 3e e2 5f 7b bd 33 9c 31 3e
       -0.17612593 0.22207934 -0.061370738 0.17344742
0002b0 ae 2b 5f 3d 2f d8 93 bd bd 06 00 be c3 ca 5f be
       0.054485016 -0.07218968 -0.1250257 -0.21854691
0002c0 eb 41 7d 3e da cf 03 be d1 b4 8a bd db 45 61 bc
       0.24732177 -0.12872258 -0.06772769 -0.013749565
0002d0 fd 5c 17 be 15 82 e5 bd cd d3 4c be 5d 0d 57 3e
       -0.14781566 -0.11206452 -0.2000267 0.21001191
0002e0 df e7 90 3d 8f e2 f1 bc ac 01 a3 bb d7 9f c3 bd
       0.07075476 -0.029526977 -0.0049745645 -0.095519714
0002f0 2c 37 fb 3d 10 2c 22 be 37 e0 23 bc 09 9a 61 3a
       0.122663826 -0.15837121 -0.010002187 0.0008606022
000300 41 5a 95 3d dd 66 65 3d a8 e4 6d 3d 84 fc 54 3e
       0.07292605 0.0560063 0.05807939 0.20799452
000310 2b 96 1d be a0 63 f0 3d 3a 5a 43 bd 62 7b da bd
       -0.15389316 0.11737752 -0.04769347 -0.10668065
000320 c8 f4 e6 bd d7 53 a2 3d 09 29 06 be f0 e1 96 bd
       -0.11277157 0.079261474 -0.13101591 -0.07367313
000330 58 d8 0d 3e b3 b0 d2 3d fb 25 c2 bb f8 e7 2a bd
       0.1385206 0.10287609 -0.005924938 -0.04172513
000340 71 ec 60 bd 08 42 0e be 46 ca 81 3d 86 9a 24 3e
       -0.054912988 -0.13892376 0.06337409 0.16074571
000350 37 b0 b1 3d 31 1a 00 be 82 6a 4c 3e f7 f4 6d be
       0.086761884 -0.12509991 0.19962505 -0.23237978
000360 49 f8 a1 3b 3e 95 85 bb 9b 35 eb bd 22 c4 9c bd
       0.004942928 -0.004076629 -0.11484834 -0.07654597
000370 4e fb 3e 3d db c5 42 be 20 b5 7a bb fa 24 4c 3e
       0.04662638 -0.19020788 -0.0038254932 0.1993598
000380 a5 f6 02 3e e2 ee 11 3e a0 c3 b0 3c 63 0b 79 3e
       0.127894 0.14251283 0.021577656 0.2432075
000390 18 0a 40 be 5d 96 b3 bd f4 e4 e3 3d 3b f4 ce bd
       -0.1875385 -0.08768914 0.11127654 -0.10105177
0003a0 c4 46 55 bb 37 78 28 3e e4 17 a3 3d 4e 25 58 3d
       -0.00325434 0.16452108 0.07963541 0.05276995
0003b0 ae d2 49 be 75 21 ae 3b 9c d1 29 39 ae 8a ba ba
       -0.19709274 0.005314047 0.00016195182 -0.0014232004
0003c0 a8 fd 9d bb bd 5d a5 bd 4a 84 04 3d 41 4e 0a bc
       -0.004821498 -0.0807452 0.032352723 -0.008441509
0003d0 0b 07 e7 bd 22 39 0a be ec eb bc 3d 9d 7b 02 3e
       -0.1128064 -0.13498357 0.09224686 0.12742467
0003e0 06 90 ae 3c fa 90 50 3e fc 5f 4f 3e 05 c4 61 3d
       0.02130891 0.20367804 0.20251459 0.05511858
0003f0 40 76 88 3d dc ca 02 bd f3 da a9 bc 3f 01 25 3d
       0.066631794 -0.031931743 -0.020734286 0.04028439

layer1.bias f4 [64]
000000 4c 97 1c 3d 2b 00 b5 3d 24 18 60 3e 2a 2a a5 3e
       0.038230225 0.08837923 0.21884209 0.3225873
000010 8f 7d 4b bc 8b 72 21 3e da 95 09 bc 9e 5c 27 3e
       -0.012420072 0.15766351 -0.008397544 0.16343924
000020 fb 3b 19 bd f1 bb 25 3e eb 44 15 be e5 5b 8f 3e
       -0.037410717 0.16184975 -0.14577071 0.27999797
000030 72 67 2c be 6e 96 a6 3d 3f 6c 89 3e 88 c8 5a bd
       -0.16836336 0.08134161 0.26840398 -0.053413898
000040 49 ec 34 3e 62 1e 33 3e 4e 33 dd 3d 81 0a aa bd
       0.1766826 0.17492059 0.10800801 -0.08302785
000050 e0 85 e1 bd ad ad f9 3d 4a 1f f2 3d ca 8e 13 3d
       -0.11011863 0.12191329 0.11822374 0.036024846
000060 bf 16 bc 3c 46 db 98 bd e6 52 44 3e c9 c6 0d 3e
       0.022960065 -0.07463698 0.19172248 0.13845362
000070 8e c9 34 3e 6e 32 37 3d 5b 0d 89 3e 42 16 f7 39
       0.17655012 0.044725828 0.26768002 0.00047128095
000080 4a 7c b2 3d 19 7c a5 3e f0 96 02 be 9e 19 95 3d
       0.087151125 0.32321241 -0.1275289 0.07280277
000090 17 76 ab bd 9b ce ba 3d 61 e8 90 3d 39 ab 13 3e
       -0.08372133 0.09121438 0.07075573 0.14420785
0000a0 ec a1 3c 3e c2 21 8c 3e 19 26 a9 bd 64 88 59 be
       0.18421143 0.27369505 -0.0825922 -0.21243435
0000b0 1b b2 98 bd 55 09 9d bd 85 57 17 3e e9 c0 a9 3d
       -0.07455846 -0.076677956 0.1477948 0.08288748
0000c0 23 5c b3 3d 09 95 a1 3e 52 e2 db bd bf 37 ca bd
       0.08757808 0.31559017 -0.107365265 -0.09873914
0000d0 e6 14 92 3e 21 7d 2c 3e 75 a5 6f 3e d8 7e 6f 3e
       0.2853157 0.16844608 0.2340296 0.23388231
0000e0 de 28 13 3e 47 d3 74 3e 4c f3 19 3e 6f 4c cc 3d
       0.14371058 0.23908721 0.15034217 0.09975516
0000f0 77 20 44 3e 87 d1 b9 bd c5 95 40 3d d5 60 97 3e
       0.1915301 -0.09073167 0.04701783 0.29566064

layer2.weight f4 [64, 64]
000000 d0 34 56 bd a4 e7 3d 3d 9e a5 c1 bc bb f4 93 3d
       -0.05229646 0.046363488 -0.023638543 0.07224413
000010 67 4f e6 3c e2 6e 3b 3d a7 14 c3 3d 08 d5 ba 3c
       0.028114034 0.045760043 0.095254235 0.02280666
000020 59 b6 2f bd 95 c7 da 3b 9a 60 ef ba 17 c5 09 3d
       -0.04289851 0.006676624 -0.0018263042 0.033635225
000030 08 19 1a bb 0b a6 1c bd 93 43 ae 3b 48 f5 61 bd
       -0.0023513455 -0.03824429 0.005318114 -0.05516556
000040 2a 42 b2 bd 65 93 7e 3b 7c 99 93 3c e9 e9 84 3d
       -0.08704026 0.0038845178 0.018017523 0.06489927
000050 c7 41 f1 bb b6 a3 91 bc 90 2b b0 bd 45 6a b1 bb
       -0.0073625776 -0.017778259 -0.08602059 -0.0054142796
000060 d0 0a 27 3c 7e 00 6b bd 55 e1 73 3b 24 1a 87 bc
       0.010195449 -0.057373516 0.0037213166 -0.016491957
000070 83 37 1f bd 48 17 b7 3c 01 20 5f bd 7c 7e 53 bd
       -0.0388713 0.022349969 -0.05447388 -0.051634297
000080 52 9f 22 3d ac a3 c2 3d 65 6d 34 bc 37 e3 d5 3c
       0.03970272 0.09503874 -0.01101241 0.026109321
000090 13 28 e8 3c 72 15 4c bc cc 8c 10 3d 4d 4f aa bc
       0.028339421 -0.012456285 0.035290524 -0.020789767
0000a0 b3 06 73 3d 1b 57 35 3c 51 ad 14 bd e1 ef 0d bd
       0.05933256 0.011068131 -0.0362981 -0.034652594
0000b0 71 bd 25 3d 11 86 a5 3d 3b 65 87 bc 90 79 d0 3b
       0.04046387 0.08082212 -0.016527763 0.0063621476
0000c0 c1 6e e6 3d 88 a0 33 bd 0d e8 1e bc 34 43 6c bd
       0.112515934 -0.043854266 -0.00969888 -0.057681277
0000d0 07 8c 56 3d 70 62 ad 3d e4 63 02 bd cd 4c 8d 3c
       0.052379634 0.08466041 -0.031833544 0.017248536
0000e0 f5 d0 66 bd bf d6 f2 3d 29 84 56 bd 51 71 4a 3c
       -0.05635162 0.11857366 -0.05237213 0.012356118
0000f0 ed 3f 6a 3c 87 74 84 bd 08 75 dc 3d 77 cf 35 bc
       0.014297468 -0.06467538 0.107645094 -0.011096827
000100 e3 52 ae bc 8a b5 5e 3d b6 2e d1 3d e7 27 ef 3d
       -0.021279758 0.054372348 0.102139875 0.11677533
000110 1c fc 90 3d 42 96 4f 3c a1 46 9c bd e4 57 c8 b9
       0.07079336 0.012670102 -0.07630659 -0.00038212456
000120 07 1c 61 bd b5 65 c1 3d b5 7c 5c bd eb df 80 bc
       -0.05495837 0.09443227 -0.053829867 -0.015731772
000130 c0 fe ce 3d 71 b4 ed 3d 3f 9a c9 bc 1e 64 1f bd
       0.101071835 0.11606682 -0.024609683 -0.03891384
000140 63 a3 84 3d 80 0b 5e 3d 01 6c 73 3d e7 ba b6 3d
       0.06476476 0.054210186 0.059429172 0.089223675
000150 6f 16 b8 3c 2d df e2 3d 48 60 3b bc da 92 9c bd
       0.022471635 0.11077724 -0.011436529 -0.07645197
000160 b3 db c9 3c 5f 8c 5f 3d f1 7e d5 3d 33 62 e5 3d
       0.024640894 0.054577228 0.10424603 0.11200371
000170 af bb 13 3e f8 87 7e 3d 36 f0 b3 3d 05 91 c8 bd
       0.14427064 0.06214139 0.08786051 -0.09793285
000180 09 94 99 3d 0b 8f a8 bd aa f4 71 3c 74 0a 46 3d
       0.074989386 -0.08230408 0.014767805 0.048349813
000190 64 ef 52 3d cf d4 bb 3d 18 6f 29 bc cd 4d 6e bb
       0.051497832 0.091714494 -0.010341428 -0.003636229
0001a0 6d d9 ec 3c 5a 15 02 3d 33 c9 15 3c 6d f9 12 3c
       0.02891227 0.031758644 0.009142208 0.008970601
0001b0 ac 1c d8 bc dc 2a ce 3d a5 e6 4e 3c b7 4a 33 3d
       -0.02638086 0.100667685 0.012628232 0.043772426
0001c0 67 d9 9e 3d cb 18 12 3e 7e 92 bb bd a9 cb b9 3d
       0.0775631 0.1426727 -0.091588005 0.09072048
0001d0 a3 5e ef 3d 30 c3 86 3b 60 f4 4d bd ac 21 ad 3d
       0.116879724 0.0041126236 -0.050281882 0.08453688
0001e0 6d 14 bb 3d 3d 2e c7 3d 32 32 03 3e 5b 44 de 3d
       0.09134755 0.09725616 0.12812117 0.108528815
0001f0 48 f4 ca 3c 6c 61 a6 3d 12 03 aa bd 29 87 fe 3d
       0.024774686 0.081240505 -0.08301367 0.124281235
000200 04 eb 15 3c e9 52 5d bd a9 ef cd 3d f7 c6 b2 3d
       0.00915027 -0.054034147 0.10055477 0.08729356
000210 b1 fc 90 bd 7b 6b c2 3c 8c ef 96 3d e5 e5 eb 3d
       -0.07079447 0.023732891 0.07369909 0.11518458
000220 ca 59 84 bd 8e a5 78 38 b3 1a b6 3d 53 46 47 bd
       -0.064624384 5.9281992e-05 0.08891811 -0.04865105
000230 d1 96 68 bd 9e 45 ca bd fd d2 3d 3d 84 ba c7 3d
       -0.056784455 -0.0987656 0.046343792 0.09752372
000240 63 02 98 bc f9 16 db 3d 1e 68 02 3e 46 3b d2 3d
       -0.018555826 0.10697741 0.1273503 0.10265212
000250 ff bb c1 3d 77 de 32 3d 38 08 9a bd 5e 97 22 bd
       0.094596855 0.04366919 -0.07521099 -0.039695136
000260 ae e4 c1 bc 2e f9 70 3b c9 45 bd 3c 58 e8 27 bc
       -0.023668613 0.0036769616 0.023104565 -0.010248266
000270 37 b8 54 3d bf dd 55 bd 39 0e ae bc 51 d4 54 bd
       0.051933493 -0.052213427 -0.021247016 -0.051960293
000280 f8 6b 1e 3d 7b 21 cd 3d 83 8b 85 3d 0c ab da 3d
       0.038677186 0.100161515 0.065207504 0.10677156
000290 67 5f 20 3d fa 26 5d bc 34 a0 a0 bc ac fd 90 bd
       0.039153483 -0.013498062 -0.01960764 -0.07079634
0002a0 35 58 74 bd d8 77 20 3e bc cc b3 3c 99 e7 fc bc
       -0.059654433 0.15670717 0.02194821 -0.030872153
0002b0 35 66 84 bd cb e5 9c 3d 0e d3 02 3e d0 80 fe 3c
       -0.06464807 0.07661017 0.12775823 0.031067282
0002c0 e9 6e 4c bd e3 33 ae bc 90 7e 96 bd 5b 34 5b bd
       -0.04991046 -0.021264976 -0.07348359 -0.053516727
0002d0 51 28 03 3e cb 7a 00 3e aa 00 a0 3d c7 c0 73 bd
       0.12808348 0.12546842 0.07812627 -0.05951002
0002e0 a7 0d c7 3d a9 c9 b1 3d 0b b3 ce 3d 89 8e eb 3d
       0.09719401 0.08681042 0.100927435 0.11501796
0002f0 d6 6e 9e 3d 61 88 d0 bb 0e 5f c0 bd ae 73 94 bd
       0.07735984 -0.006363914 -0.0939313 -0.07248627
000300 94 e5 9c 3c 05 03 f1 3c 09 0b dc 3d 1c 95 31 bd
       0.01915244 0.029420385 0.10744292 -0.043355092
000310 4e 78 85 3d 0b 62 fd 3d ae e5 7a bd f4 ef ec 3d
       0.06517087 0.12372216 -0.061254196 0.11569205
000320 18 fe f5 3d 2c 87 92 3d 3a f6 99 bd 8b ae fc 3d
       0.12011355 0.07154688 -0.07517667 0.12337979
000330 ff 20 a6 3d 0f 13 3d 3d c5 6a 78 bd 92 b3 42 bd
       0.08111762 0.046160754 -0.0606487 -0.047534533
000340 87 2c 68 bc 4b 06 2f 3d 6a fd c2 3d 76 af 9a 3d
       -0.014170772 0.04273061 0.09520991 0.07552998
000350 0f 30 72 bd 20 f6 14 bb e0 0b 9d 3d 46 13 b4 bd
       -0.059127863 -0.002272971 0.076682806 -0.087927386
000360 a7 2e 88 bd 04 92 88 bc 55 49 d6 3a 3d 0e 99 bd
       -0.06649523 -0.016671188 0.0016348759 -0.07473419
000370 84 f0 a6 3d 66 e8 71 bd fa cc b5 bd bb 4f 86 3c
       0.081513435 -0.059059523 -0.08876987 0.01639544
000380 9b 7e 5f bd ea b2 f5 3d 8c b6 e1 3d f8 8b ca bc
       -0.0545641 0.11997016 0.11021146 -0.024724945
000390 38 a7 d4 3c 70 3e 83 3c ba 99 36 3b f6 6d f5 3d
       0.025958642 0.016020983 0.0027862624 0.11983864
0003a0 e6 84 b0 3a de ac d1 3d 7e 90 bf bc d7 50 c6 bd
       0.0013467341 0.1023805 -0.023384329 -0.09683388
0003b0 68 b4 c0 bd 20 14 2e 3b 69 a7 9e 3d 08 37 d2 bd
       -0.0940941 0.0026562288 0.07746775 -0.10264403
0003c0 07 4f 8e 3d 9f f1 ae 3d 00 a2 18 bd ad d3 b6 3d
       0.06948667 0.08542179 -0.03726387 0.08927093
0003d0 4a 46 10 3d 46 2d 2a 3d d7 7f bd bb 54 58 8d bd
       0.035223283 0.041547082 -0.005783062 -0.06901613
0003e0 b2 26 6a 3d 72 72 8e 3d 24 67 07 3e 6c 3f db 3d
       0.05716581 0.069554225 0.13222939 0.10705456
0003f0 7e 98 d9 3d d0 59 f5 3d 9f 99 ba bd 21 0f 9b 3d
       0.10624789 0.11980021 -0.09111332 0.07571245

layer2.bias f4 [64]
000000 e3 1d 0b bd 0a 16 3a 38 88 c4 cd 3d a7 83 0a 3e
       -0.03396405 4.436638e-05 0.10047251 0.13526784
000010 0b ed ec 3c b2 e2 9c 3d 2f 39 c5 3c a3 0a 43 bd
       0.028921625 0.07660426 0.024075119 -0.047617566
000020 17 49 0a 3e 15 32 81 3d e6 6f e4 bb 29 6c 1a 3c
       0.13504444 0.063083805 -0.006971347 0.009425201
000030 bc 57 35 3d 8d b6 e7 3d 72 3e e1 3b 44 41 c0 3c
       0.044273123 0.11314116 0.006873899 0.023468621
000040 b5 84 1f 3e 74 bf 13 bd d1 bc 5b bb ec 63 e2 3c
       0.15577967 -0.036071256 -0.0033529291 0.027635537
000050 be bf 45 3d a3 93 3f 3d 7f bc 47 bb 6d 52 01 bd
       0.048278563 0.046771657 -0.0030477343 -0.031572748
000060 5f 15 aa bc 7b 3d f7 bb f4 62 a9 bd e9 01 8e 3d
       -0.020762144 -0.007545171 -0.08270827 0.06933958
000070 15 2d 1f bc 9f 35 e9 bd 16 b2 8b 3d 48 72 87 3d
       -0.009715338 -0.113871805 0.068210766 0.06613594
000080 fa 50 22 3c b1 58 d7 bd f3 f0 8e bd 23 72 dc bd
       0.009907002 -0.105149634 -0.06979551 -0.10763957
000090 fc 6e 51 bd a8 a0 ab 3d e9 f4 c0 3b 14 0c d1 bc
       -0.051131234 0.08380252 0.0058885706 -0.025518455
0000a0 3a a8 b9 3d 2d c4 38 bd a9 40 af 3c 8b 4a fd bd
       0.0906529 -0.045108963 0.021393137 -0.123677336
0000b0 ff bb 96 3d ec 9d b2 bd d6 57 21 3d e0 8a ff bc
       0.07360076 -0.087215275 0.039390408 -0.03119415
0000c0 7b 31 ce 3c 12 da 29 bd 2f 77 65 bd 69 2a 8a 3d
       0.025170079 -0.041467734 -0.056021865 0.0674637
0000d0 23 7f 59 bc 3e 74 08 bd ab 38 34 bd a4 ad 43 bc
       -0.013274941 -0.033313982 -0.043999355 -0.011943255
0000e0 00 12 bf bc 30 40 29 bd 50 7b e2 bd a3 82 96 bd
       -0.023324013 -0.04132098 -0.11058676 -0.07349136
0000f0 1c 9e 2b bd 06 71 d5 3d 21 11 d0 bd d4 51 a7 bd
       -0.04189883 0.10421948 -0.10159517 -0.08169904

layer3.weight f4 [1, 64]
000000 b6 6f ae 3d e7 69 a2 3d 1b d3 04 3e ed ca 04 3e
       0.08517401 0.079303555 0.12971155 0.12968035
000010 85 83 aa bc 7d 6e b5 bd 6b d6 c6 bd 2c 91 9f 3d
       -0.020814667 -0.088589646 -0.09708866 0.07791361
000020 1a 25 bd 3c 55 6d b5 3d 11 c0 a1 3d 50 d1 cb bd
       0.02308898 0.08858744 0.07897962 -0.099520326
000030 72 51 18 3e d6 33 bc 3d 64 0e 14 3e 33 1d 7c 3d
       0.14874819 0.091895744 0.14458615 0.061551284
000040 91 79 8f 3d cd 10 b7 3d 62 c6 48 bc ad e4 5f bd
       0.07005609 0.08938751 -0.012254329 -0.05466144
000050 ba 0e 87 bd 5c 76 c2 bd 4d 55 fa 3c 04 be f9 3c
       -0.06594606 -0.094952315 0.030558253 0.030486114
000060 67 7a f0 bd ba 2a fe 3d 98 70 e4 bd 71 b2 11 3e
       -0.117420964 0.12410493 -0.11154288 0.14228226
000070 3a 21 0d bd 14 69 a6 bd ed 95 cc bd 15 06 26 bd
       -0.034455515 -0.08125511 -0.099895336 -0.040533144
000080 1e 81 49 3e 11 a3 c7 bd bc 66 95 bd 00 9f ba bd
       0.1967816 -0.09747899 -0.07294986 -0.09112358
000090 02 f4 f9 bd 44 70 0a bd a5 2d df 3d d7 21 99 bb
       -0.12204744 -0.03379847 0.10897378 -0.0046732235
0000a0 b0 94 87 3d 36 e9 e4 bd 3d b0 9a 3d d4 a7 a5 bd
       0.06620157 -0.11177294 0.07553146 -0.08088651
0000b0 2a b4 a7 3d de 5f b1 bc 98 c2 13 3e 00 62 ab bd
       0.081886604 -0.021652158 0.144297 -0.083683014
0000c0 db f0 8a bd 63 19 3f 3d 70 42 44 3d 72 b8 88 3d
       -0.06784221 0.04665507 0.047914922 0.06675805
0000d0 4d 1f e3 bd 2a af e6 3c 3c 4a 11 3d 01 f1 f6 3d
       -0.110899545 0.028159697 0.035471186 0.120576866
0000e0 78 7d cd bc 60 c0 87 3b fa a9 dd bd ff c3 f2 3d
       -0.025084242 0.004142806 -0.10823436 0.118537895
0000f0 9d 6b 18 3d a6 ca 80 3d 2d 49 61 bd bc 31 a0 bd
       0.037212003 0.06288652 -0.055001426 -0.07821986
