uncertain/Hopper-v2/actor.pth (torch_old, 21497 bytes, 6 tensors)

l1.weight f4 [64, 11]
000000 21 13 21 bf f1 d4 96 3e 36 a7 c1 be e7 3b 60 bf
       -0.62919813 0.29459336 -0.37822884 -0.87591404
000010 c2 f0 d4 be 5c 2a 56 3f 3b 73 5e 3d 63 8e ac bd
       -0.41589934 0.83658385 0.05430911 -0.084255956
000020 44 b4 87 3c 42 80 18 be b2 a4 29 be 8f c4 01 bf
       0.01656545 -0.14892676 -0.16566733 -0.5069055
000030 fd ac 92 bf ee 56 76 3e 98 b0 9f 3e bb 8d da bf
       -1.1459042 0.24056599 0.31189418 -1.7074503
000040 92 bf b2 3e 20 fa 89 bd 5f ac 21 3f 0b 9e 16 bf
       0.34911782 -0.06737161 0.6315364 -0.58834904
000050 89 ea b1 be 48 0d 5d be d1 48 fe 3e 4c 60 d2 bf
       -0.3474925 -0.21587098 0.4966493 -1.6435637
000060 e0 e3 ab 3f c9 cf e9 3e 2f c2 90 3e a7 23 25 bf
       1.3428917 0.4566634 0.2827315 -0.64507526
000070 2c c2 b0 3f fb fb 8a be dd 46 21 3e dc 12 44 3e
       1.3809257 -0.2714537 0.15749688 0.1914782
000080 c4 55 02 3e d8 ae c0 3e 8f 9c 99 bf c4 b6 46 be
       0.1272803 0.37633395 -1.2000903 -0.19405657
000090 e8 b9 d8 3f d9 4d 49 3e 8e b5 1e bf bf 8d df be
       1.6931734 0.19658603 -0.6199578 -0.4366283
0000a0 be 47 1c be 95 cf b5 3c 6e a2 a6 3e 10 ed 0a 3e
       -0.15261742 0.02219371 0.325458 0.13566995
0000b0 70 69 cd bc 8c 83 8a 3e 62 81 55 bc 91 2a f4 3e
       -0.02507469 0.27053487 -0.013031336 0.47688726
0000c0 d6 89 1a bf d3 82 38 3e 11 ac 9d be 3a 14 69 3f
       -0.6036657 0.18018655 -0.3079534 0.9104649
0000d0 30 70 44 bf 98 2b c5 be f6 f1 a1 bd 8e 2c 30 be
       -0.76733685 -0.38509822 -0.079074785 -0.17204496
0000e0 14 89 ef bf 30 33 7a bf ca 4b 1f 3e 9d 78 5f 3f
       -1.8713708 -0.97734356 0.15556255 0.87293416
0000f0 83 1c 1a 3f bb 1b df 3e 31 4c 2d bf cc f5 e7 3e
       0.60199755 0.43575844 -0.67694384 0.45304716
000100 31 a8 4f 3e b8 44 8b 3c 10 27 15 3f 56 14 09 c0
       0.20279004 0.017000541 0.5826273 -2.1418662
000110 fe 13 ca 3f 0b 05 63 3f 6c 56 4a 3e 78 4b e5 be
       1.5787351 0.8867957 0.1975953 -0.4478414
000120 75 7d 25 3e 52 1b 02 bf 1d 27 df 3e 29 b6 72 3e
       0.1616114 -0.5082294 0.4358453 0.23702301
000130 05 08 43 ba d2 39 d2 3e 04 8e 56 bf 27 fa d7 3f
       -0.00074398547 0.41059738 -0.8381045 1.6873215
000140 f2 5a 9b 3f 24 c9 90 3d 18 ae 22 bd 28 24 5e 3e
       1.2137129 0.070696145 -0.03971681 0.2169348
000150 09 b7 9a be 90 a0 93 3e 9c af 57 3e 2c 30 fd bd
       -0.3021777 0.28833437 0.21063083 -0.12362704
000160 3d 68 e5 bc f3 e4 b0 3c 36 69 84 be 89 60 4e bf
       -0.028003806 0.021593546 -0.2586152 -0.8061605
000170 a7 73 f9 bf 0b 59 9d 3e 65 18 5a be 3a 81 98 be
       -1.9488419 0.30731997 -0.21298368 -0.29786092
000180 f8 c1 81 3e ff 7d dc 3d d3 9d 1e 3e 64 3f 3e 3c
       0.253433 0.10766219 0.15489893 0.011611793
000190 05 c0 8e c0 0f b5 33 bf b1 dc f6 be 4c c0 2a bb
       -4.46094 -0.7019815 -0.4821525 -0.002605456
0001a0 14 f1 8c 3e d2 bf f4 be 8a 5d 9a 3d eb 19 72 be
       0.27527678 -0.47802597 0.075373724 -0.236427
0001b0 4b 08 5f be 8b ce 9b 3d 46 77 20 3f f2 fb 8d 40
       -0.21780507 0.07607754 0.62681997 4.437005
0001c0 1f ef c6 be 0d c3 da be f6 de 3e 3d 1d 79 22 3e
       -0.3885431 -0.42726937 0.04659935 0.15866514
0001d0 d3 64 80 bd 61 07 a6 3e 23 14 eb bd 68 cb b8 bd
       -0.06269231 0.32427505 -0.1147845 -0.09023172
0001e0 68 91 9b bc bd 85 57 3e 09 d7 46 c0 ba 34 17 40
       -0.018990234 0.21047111 -3.1068747 2.3625932
0001f0 2e ec a3 3f 18 69 1f 3f 47 44 df bc dc f1 c8 be
       1.2806451 0.62269735 -0.027254237 -0.39247024
000200 ac f7 dc bd e8 04 6e 3e e3 26 87 3d 68 cd 40 be
       -0.10789427 0.23244059 0.06599214 -0.18828356
000210 b5 e8 2a 3f 39 36 62 bf 61 d3 45 3f ef 7e 64 3f
       0.6676133 -0.8836399 0.77275664 0.89256185
000220 5d 8d d3 3e 83 6f d8 be 0f a1 32 3f ff a9 25 3e
       0.4131879 -0.42272577 0.69777006 0.1617813
000230 32 2e 39 be 71 0f 87 bd 81 61 c2 bd b3 40 bc be
       -0.18084028 -0.06594742 -0.09491254 -0.36768112
000240 43 11 ab bf 7c a7 04 40 a1 bc 9f 3e b9 22 b3 3e
       -1.3364643 2.0727224 0.311986 0.3498743
000250 d8 95 13 3f 13 d8 dd 3c 14 4d bc 3d 04 07 ad bd
       0.5765052 0.027080571 0.09194389 -0.08448604
000260 72 b3 15 be c7 82 e8 bd 5a 94 c5 be a7 0c ec 3f
       -0.14619234 -0.11353069 -0.38589746 1.8441361
000270 69 e0 9f bf e5 11 2a bf 9a 6b 28 bf 97 9d 1e 3f
       -1.249036 -0.66433555 -0.65789187 0.61959213
000280 05 93 48 bf d5 1a 82 be 81 53 56 3e 19 79 0c 3e
       -0.78349334 -0.25411096 0.20930292 0.1371807
000290 d5 c2 2e 3e a0 1b 4c 3f 48 7e 23 bf 86 c1 31 3f
       0.1706651 0.7972965 -0.63864565 0.6943592
0002a0 01 55 9a 3f 65 d1 d8 3e ec 76 a7 bd 79 f8 b9 be
       1.2057191 0.42347255 -0.081769794 -0.36322382
0002b0 7b 36 7b be a0 13 7f 3e 5a 80 29 3e 5a 70 98 3b
       -0.24532501 0.2490983 0.16552868 0.004652065
0002c0 cc 28 ae 3d 16 1c 89 bf 70 34 9d 3f 66 71 95 3e
       0.08503875 -1.0711696 1.2281628 0.2918808
0002d0 6f 03 85 bf a1 a0 64 bf d9 2c de 3e b2 87 07 bf
       -1.0391673 -0.893076 0.4339359 -0.5294143
0002e0 5d cf 0f 3f 36 76 ab 3e 74 93 ea 3d e0 7c a6 3e
       0.56175786 0.33488625 0.11453906 0.32517147
0002f0 e1 84 15 3f b7 9e 3d be 05 8a 15 bf 1b 74 b6 be
       0.5840588 -0.18517576 -0.58413726 -0.35635456
000300 2b c6 81 be 69 93 71 be 9a cc 9b be 7a 76 b7 3e
       -0.25346503 -0.23591389 -0.30429536 0.35832578
000310 1a 1f e4 3e 95 1e 78 3d 33 c0 d3 3c bd bd b2 be
       0.4455498 0.06057604 0.025848484 -0.34910384
000320 cc 79 11 bf 42 c8 6d 3f 45 fe 1a bd 7c cf ce bf
       -0.5682647 0.92883694 -0.037840147 -1.6157069
000330 04 dc 9a 3e b0 dd 61 3e 3c f4 26 3e df 42 f8 3d
       0.30245984 0.22057223 0.16304106 0.1212213
000340 16 40 a4 3d 5d 79 54 3f e2 8b 06 40 74 66 69 3f
       0.08020036 0.82997686 2.1022878 0.91171956
000350 f8 a9 fd 3e 55 ad ca be d3 40 28 bc a7 b2 29 bf
       0.49543738 -0.39585367 -0.010269362 -0.66288227
000360 ef 80 86 3e cc f5 00 be 54 16 c3 bd 28 9d 83 bd
       0.26270244 -0.12593764 -0.09525743 -0.064264596
000370 30 dc b7 3e 57 ec 01 3f 57 67 25 3e b9 06 ee 3e
       0.35910177 0.5075125 0.16152702 0.46489504
000380 a3 df 66 bf b7 c5 68 3e f3 c0 81 3e 3f 37 9d 3d
       -0.9018499 0.22731672 0.2534252 0.07676553
000390 c2 65 38 bc 2b 7c 73 bd 42 d2 42 3d 15 82 95 3e
       -0.01125473 -0.059444588 0.0475638 0.29200807
0003a0 5a 2f 5d 40 f0 84 aa bf 6f 25 92 bf 80 5d b4 3e
       3.456015 -1.3321819 -1.1417674 0.35227585
0003b0 48 f2 0c 3f 2e 2c 8b 3e 8d 9f 70 3e 5d 5a 5f be
       0.5505719 0.27182144 0.23498364 -0.21811815
0003c0 c1 f0 89 be 76 2c ab 3d 1b 4d 58 3e d8 69 a9 be
       -0.26941493 0.083580896 0.21123163 -0.33088565
0003d0 d8 25 13 3f 94 23 2c 3f 39 75 6b 3f d1 d8 d6 be
       0.5747962 0.6724179 0.9197574 -0.41962293
0003e0 96 d6 98 3e bd 9f 67 3f 08 a4 4d bf 2d 96 8d be
       0.29851216 0.90478116 -0.80328417 -0.27653638
0003f0 84 2a 93 be ba 3f 6c bd be a6 17 40 6c 43 c2 be
       -0.28743374 -0.057677962 2.3695521 -0.37942064

l1.bias f4 [64]
000000 e8 fc 31 bf 4a 59 36 bf da bb 44 3f 92 ae 95 bd
       -0.6952653 -0.71229994 0.7684914 -0.07308687
000010 38 f9 2c 3e 9b b5 c1 3d a0 36 39 3f f9 ba b1 3e
       0.16891944 0.094584666 0.72348976 0.3471296
000020 34 3d db be 04 3e 4c 3e 54 ff 06 3e 7f da 80 3f
       -0.42820132 0.19945532 0.13183337 1.006668
000030 e6 61 3c 3f 41 ed e8 bd 87 88 3e bf 63 bf c5 3c
       0.7358688 -0.113733776 -0.74427074 0.024139112
000040 67 04 91 3e 75 d9 05 3e 8c 8a 97 be 67 a8 44 3f
       0.2832367 0.13071235 -0.2959789 0.7681946
000050 eb 76 fa 3e d7 9f 0a bf 7d 48 9a 3e 78 ec 33 3f
       0.48918852 -0.54150146 0.3013343 0.702827
000060 ff 65 24 bd ff 56 c5 3e 41 62 24 be 70 c6 b6 be
       -0.040136334 0.38542935 -0.16053106 -0.3569827
000070 f8 73 3a be a5 c6 05 bc 82 7a f5 bd 35 f4 5e be
       -0.18208301 -0.008165036 -0.11986257 -0.21772845
000080 de a2 df bd 12 94 e6 3e a7 8f ef 3d 53 7c 26 bf
       -0.10919736 0.45034844 0.116973214 -0.65033454
000090 07 08 8c 3f e4 d4 33 3d 56 6b f6 3c 18 6d 3e bf
       1.093995 0.0439042 0.030080479 -0.74385214
0000a0 3f 9f 0a 3e 62 5d 33 3e c1 22 6b 3c 55 a7 39 3f
       0.1353731 0.17516091 0.014351548 0.72520953
0000b0 cb 87 11 3f 7a 22 d7 bc a4 cc 44 3f b4 db 8b 3f
       0.5684783 -0.026261557 0.76874757 1.0926423
0000c0 ee d2 ab 3d 48 e8 e4 3d b0 49 85 bc 64 3c 3b 3f
       0.08389841 0.11177117 -0.016270489 0.73139024
0000d0 31 51 0d 3f 1d 79 ac be 91 f8 9f be b1 ec ac 3e
       0.55202013 -0.33686152 -0.3124433 0.3377433
0000e0 a0 a1 e7 3e ae 4b ff bd cb 1a 0b 3f 16 8a 0a 3f
       0.45240498 -0.12465607 0.5433776 0.5411695
0000f0 5a 9d 8d 3e 50 57 8c bc 86 6e fe be a1 71 60 3f
       0.27659112 -0.017131478 -0.49693698 0.87673384

l2.weight f4 [64, 64]
000000 ca c1 23 bf d4 3f 1f bf dd 9f 4f 3f 7d 38 4b 3e
       -0.63967574 -0.6220677 0.81103307 0.19845767
000010 7b 6a 02 bf d4 7e ab 3d 1e 2d 14 3e c5 40 18 3f
       -0.50943726 0.083738 0.14470336 0.5947383
000020 3c 1c 83 3e 2b 33 d7 3d a4 e0 15 3e 4b 0b 92 be
       0.2560748 0.105078064 0.14636475 -0.2852424
000030 0f 45 76 bf 0e f5 b5 be 54 2c 0c bf db 97 09 bd
       -0.96199125 -0.35538524 -0.5475514 -0.033592086
000040 36 be 87 3e 04 b3 29 bf 69 b2 a3 3d 35 df f1 3e
       0.26512307 -0.6628878 0.079930134 0.47240606
000050 d9 59 02 3e d3 70 82 be db ad 02 3f bf a1 d2 be
       0.12729587 -0.25476703 0.5104653 -0.41139027
000060 32 4a 8a be 43 d6 88 be 5b 85 a4 be 8b 2a 24 3d
       -0.27009732 -0.2672597 -0.32132992 0.040079635
000070 17 65 34 3e 45 6d 87 3e d4 c6 f9 bd 4b 94 cd bd
       0.17616688 0.26450554 -0.121961266 -0.1003805
000080 a5 12 09 bf 58 5a ce 3e 3d 04 49 bc 65 59 b7 3e
       -0.53544074 0.40303302 -0.012269077 0.3581039
000090 2c c1 8e bf 21 b9 a6 bd 14 17 b3 3d 94 ca 80 bb
       -1.1152701 -0.08140779 0.08744636 -0.003930399
0000a0 e2 6f 5e be 48 69 87 3d 5d e8 61 bf 0d b7 aa be
       -0.21722367 0.06611878 -0.88245183 -0.33342782
0000b0 ef cb 7f be 4f d6 17 be b0 5d c7 3e 48 68 fd be
       -0.24980138 -0.14827846 0.38938665 -0.49493623
0000c0 e7 a2 61 3e 5e bf d3 3d 55 86 ac be 25 a6 fe 3c
       0.22034799 0.10339235 -0.33696237 0.031085083
0000d0 78 f4 87 3e 09 da 0e 3d 41 e3 f1 3e 19 41 48 bf
       0.26553702 0.034875903 0.47243693 -0.7822433
0000e0 27 87 c3 be 39 ce d3 be 4c ba aa 3e 34 3e bb 3d
       -0.3818905 -0.41368273 0.33345258 0.09142724
0000f0 de 61 64 be 8c d0 59 be d6 2f b5 bf 3e 7a eb be
       -0.22302958 -0.2127096 -1.4155223 -0.459917
000100 19 c3 da 3e 3d ec 1d 3e 92 e2 16 3e 40 84 83 be
       0.42726973 0.15422149 0.14734867 -0.25686836
000110 c2 dd 92 bc 6b b3 69 3e 35 ff f4 bd 1b da 84 3e
       -0.017928008 0.22822349 -0.119627394 0.2594765
000120 6c 6f d4 be 48 4e 85 3d 0a 74 d1 3d d1 4d 82 3c
       -0.41491258 0.065090716 0.10227211 0.015906246
000130 5e d2 03 3f 6b a3 31 be ce 0e 56 3e 30 0e 7d bf
       0.5149287 -0.17347495 0.20904085 -0.98849773
000140 14 f3 53 be 65 8f cc 3e b2 dc 6e bf 16 13 a6 3c
       -0.20698196 0.3995315 -0.93305504 0.020272773
000150 d2 cb cc 3e 11 34 35 bd 72 53 0b 3d 85 e7 42 3f
       0.39999253 -0.044239108 0.034015127 0.7613452
000160 ec 57 55 3e 2d 9b ad 3d 13 15 13 3f e0 a3 8b 3d
       0.20834321 0.08476863 0.5745403 0.06818366
000170 92 96 17 3e c5 88 0e 3e f6 3a c4 3d d1 1e a3 3f
       0.14803532 0.13919361 0.095815584 1.274378
000180 56 fe e5 bc 2a 5c 30 3f b6 ae 86 3d 29 9b ba be
       -0.028075378 0.6889063 0.06576292 -0.36446503
000190 6a 18 68 bf 66 9f d2 3e 6b 06 c6 3e 81 eb 82 be
       -0.9066225 0.41137236 0.38676772 -0.255703
0001a0 5a 3b 10 be a2 89 0c 3f 92 fb e2 bd c2 9c 0c 3f
       -0.14085141 0.5489751 -0.110831395 0.54926693
0001b0 9a 1a ad 3e 53 87 2e be 75 e7 99 be 10 a2 c5 3e
       0.33809358 -0.1704381 -0.300594 0.38600206
0001c0 13 af f1 be e3 4e fa bd d8 9f 2f be a1 37 41 bf
       -0.47203884 -0.12222078 -0.1715082 -0.7547551
0001d0 f4 46 fd be fd 5f 63 bf 7e 74 c2 3e cb 0c 3b bd
       -0.49468195 -0.8881834 0.379795 -0.045666497
0001e0 1b 30 9c 3d 34 9f 6c 3d 48 e3 7f 3e 8d e4 e0 bc
       0.07626363 0.057769015 0.24989045 -0.027452732
0001f0 e5 2b 29 be 6d 6c c1 3e 42 92 0d c0 3b e1 04 3f
       -0.1652065 0.37778035 -2.2120519 0.51906174
000200 47 bf a2 bf 2a c5 82 be 62 0c c4 3d 20 ef 03 3f
       -1.2714623 -0.2554105 0.09572674 0.5153675
000210 ef d2 03 3f 2b b2 94 bd 81 28 6d 3f 30 e1 2e 3e
       0.51493734 -0.07260545 0.9263993 0.1707809
000220 b7 a0 65 3e ca c2 0e be 7a ae 89 bd bd bb e3 3e
       0.22424589 -0.13941494 -0.06722732 0.4447917
000230 6e a3 1d 3f 90 fe 68 bc 25 08 c0 3d 5e d7 f3 be
       0.615775 -0.014220849 0.093765534 -0.4762525
000240 ea 61 18 3f 29 0e d9 3b 1d 17 8a 3f 91 0d 40 3d
       0.59524405 0.0066240025 1.0788304 0.046887938
000250 80 d2 02 3f 8e c3 29 3b b7 e2 1e 3f 65 a1 ad 3e
       0.5110245 0.0025903913 0.6206469 0.33912197
000260 c0 1d c2 bd 1c f0 46 3e 36 e8 07 be 46 92 af be
       -0.094783306 0.19427532 -0.13272175 -0.34291285
000270 40 57 b9 3e fe 4f df be af b4 a7 3d 60 1e 50 bf
       0.3619938 -0.43615717 0.081887595 -0.8129635
000280 12 30 8d 3e 06 ff 6c 3e b2 a3 85 3d 3b bc d6 be
       0.27575737 0.23144159 0.06525363 -0.41940483
000290 98 a7 f1 3d e0 1a 8b 3e a8 b9 de bd 51 fc 57 bf
       0.11799544 0.27168941 -0.10875255 -0.8436938
0002a0 99 5f 9b be bf a3 fb bd 52 76 39 be d1 21 02 3f
       -0.30346373 -0.122870915 -0.18111542 0.5083285
0002b0 c9 45 1c 3f e4 1a 94 3e ba e0 4a 3f ff 2e 28 3f
       0.61043984 0.28926766 0.79249156 0.6569671
0002c0 9a 28 8c 3e dc a7 ba 3e 7b 69 42 bd a7 00 e6 bd
       0.27374727 0.36456192 -0.047463875 -0.11230593
0002d0 45 c3 15 3e d8 2a 1c bf d3 57 bd 3d 2c 45 cf 3d
       0.1462527 -0.61002874 0.09245267 0.10120615
0002e0 20 90 ef 3d 0f dd 4f bf 12 dd 7d 3d d8 3e f9 bc
       0.116974115 -0.81196684 0.061978407 -0.030425474
0002f0 a5 a1 a9 be 0f 73 c8 3e cf 48 d5 3e 15 c5 3e be
       -0.33131137 0.39150283 0.4165711 -0.18629868
000300 33 d4 a9 bc 4b 2c 38 3f ca f2 56 bf 4c fc 26 3c
       -0.020731067 0.71942586 -0.83964217 0.010191988
000310 75 0c 6e be 3d 15 ca 3e 27 ed c8 bf b8 ba 8d 3e
       -0.2324694 0.3946933 -1.5697373 0.27681518
000320 61 2f 49 3e 04 9d 7b be cb ee c1 bc 5f 9a 1d bd
       0.1964698 -0.24571615 -0.023673436 -0.038477298
000330 67 15 d1 3d 7b cc 82 3e c5 38 a1 3d 24 c0 8a be
       0.1020916 0.2554663 0.07872156 -0.27099717
000340 90 69 d1 bd 8f d9 cb 3e 49 b0 26 bf 43 30 fc bd
       -0.102252126 0.39814422 -0.6511274 -0.12313893
000350 37 21 92 be 8c 1a be be 18 4d c2 be a7 5e fd 3e
       -0.28540966 -0.3712963 -0.37949443 0.49486277
000360 fe 3e 01 3e 9a 17 16 bf 5c 29 df 3e 75 1f de 3e
       0.12621686 -0.58629763 0.43586242 0.43383375
000370 96 c1 51 bf 97 ec 9e be 11 e9 b0 3e eb 7e 1c 3e
       -0.81936014 -0.3103988 0.34552816 0.1528279
000380 a0 da 22 3e 93 dd b1 bd ff de 8a be b3 92 b7 3d
       0.15903711 -0.0868484 -0.27123258 0.089635275
000390 66 be ce bf 68 93 f7 3d 00 23 e0 3d 79 db 05 3e
       -1.6151855 0.120886624 0.10944176 0.13072003
0003a0 f5 44 89 bd cc 2f f0 3e 03 16 36 be 12 9b c7 be
       -0.06702606 0.46911466 -0.17781834 -0.38985497
0003b0 e2 8d 7c be 10 e2 de bd 14 88 d3 bf 31 95 98 3e
       -0.24663499 -0.10882962 -1.6525903 0.29801324
0003c0 9a 0d 3f 3e 98 0c 26 be d9 3d ca be 6c be 4c be
       0.18657532 -0.16215742 -0.3950031 -0.19994515
0003d0 88 ac 3b be 0e b8 26 bf bf 51 1a be 58 57 e9 bd
       -0.18327534 -0.65124595 -0.15070246 -0.113936126
0003e0 7b 37 bf 3d 8c 23 9a bd 9b 79 2e 3d b6 a8 a3 3d
       0.09336754 -0.07526311 0.04259644 0.079911634
0003f0 80 4a 23 3f 5e 1f d7 3e 31 87 17 c0 0a 7a 1b be
       0.6378555 0.4201612 -2.3676264 -0.15183273

l2.bias f4 [64]
000000 76 49 79 be c4 33 21 3e c7 ed f0 3d bc 72 47 3e
       -0.2434443 0.15742403 0.117641024 0.19477361
000010 b8 17 50 be 06 11 16 3f 95 eb 42 bd 26 3e 2a 3b
       -0.20321548 0.58619726 -0.04758795 0.0025976985
000020 46 79 cd bd 61 fd 8a bd 35 36 19 bd db 0c 31 bc
       -0.10032897 -0.067866094 -0.03740521 -0.010806288
000030 85 b9 48 3d 21 c4 fd 3d 70 a3 d1 be b8 74 f1 3e
       0.04900505 0.12390924 -0.40945005 0.47159362
000040 13 4a 0a 3f 93 96 8e be 3a 6a 49 be cb fd 29 3e
       0.5401928 -0.27849254 -0.19669428 0.1660072
000050 2e 3a b0 3e d9 5d 92 3e 60 75 98 3e 51 df 7c 3e
       0.34419388 0.28587225 0.2977705 0.24694563
000060 10 2d cf 3e 04 c2 8b 3e 37 92 50 3f 42 b6 1e bf
       0.40464067 0.2729646 0.81473106 -0.61996853
000070 72 56 26 3e bb ec 13 3e 7b 52 e2 3e 46 c9 37 3e
       0.16243914 0.14445774 0.44203553 0.17947873
000080 6d 25 47 3d 8a 62 9c be fa d9 17 bf 76 fc a0 bd
       0.048619676 -0.3054393 -0.5931698 -0.07860653
000090 80 85 d3 be b1 e9 c5 3e cd 16 10 bf 76 d3 f1 bd
       -0.4131279 0.38654855 -0.5628479 -0.11807911
0000a0 21 a6 6d be 66 c9 e1 bc 26 b6 9e be a9 ae 19 be
       -0.23207904 -0.027561855 -0.30998343 -0.15008034
0000b0 a2 7d f2 bd 30 0c 68 3e 04 db 92 be 27 10 8c 3e
       -0.11840369 0.22660899 -0.2868272 0.27356073
0000c0 53 55 26 3c 0d 77 f3 3d 5d 87 d1 bd f4 76 e2 be
       0.010152179 0.118879415 -0.102308966 -0.4423138
0000d0 74 fc 06 3f 60 0e 00 be b9 e5 a4 3e ed 01 af bd
       0.5272896 -0.12505484 0.32206514 -0.08545289
0000e0 ae 91 02 bd 50 74 2f be be 51 6e bd b8 bb 61 be
       -0.031877212 -0.17134213 -0.058183424 -0.22044265
0000f0 00 e3 2f be 1b 80 69 3d 0f ef 4a 3e f2 4f e6 3e
       -0.17176437 0.057006937 0.19817756 0.44982868

l3.weight f4 [3, 64]
000000 49 0e 17 bf 8e 0e 5e 3f 9f 90 95 bf 74 97 26 3f
       -0.5900617 0.8674096 -1.168476 0.6507485
000010 2c 7b 0a bf ec 2c 26 3d 00 18 0b bf 69 89 b1 3f
       -0.54094195 0.040570185 -0.54333496 1.3870059
000020 0c 7e 94 be ee 97 45 3f ac d2 47 be d6 a3 3a bf
       -0.29002416 0.7718495 -0.19513959 -0.72906244
000030 a4 86 6b bf 11 f0 2a 3f 73 94 a6 bf 5b 0e eb 3d
       -0.9200232 0.6677256 -1.3014053 0.114773475
000040 47 e8 89 3e 6a a9 91 bf 8b 5e fb bd fe 35 15 be
       0.26935026 -1.1379826 -0.12273892 -0.14571378
000050 d1 d4 42 bc 9c 2c b2 3e 6b 18 1a 40 d4 37 f7 3e
       -0.01189156 0.3479966 2.4077404 0.4828478
000060 87 12 4b 3f 5f bf eb 3e 57 b5 06 3f 1d b7 18 bf
       0.79325145 0.46044442 0.5262045 -0.5965441
000070 d4 33 a0 3e 0b 89 cb 3d 45 b8 61 3f 4d 92 23 3f
       0.31289542 0.09938248 0.881718 0.6389511
000080 2a c0 fd be fe 78 38 40 b7 ba 2f bf 95 5d 53 3e
       -0.49560672 2.8823848 -0.6864428 0.20641167
000090 aa 84 03 bf 9a 1e 11 40 a4 d8 0a 3e 2a 95 15 bf
       -0.51374304 2.2674928 0.13559204 -0.5843073
0000a0 1f d0 47 be 63 de 5e be c1 18 fe be d0 af 36 bf
       -0.19512986 -0.21764521 -0.4962826 -0.7136202
0000b0 ee aa 8e 40 e1 f2 c6 be b3 7b 8a bf 05 ee 89 3f
       4.4583654 -0.38857177 -1.0819 1.0775763
0000c0 03 10 a7 be 96 76 69 bf 94 5c c4 bf dd 89 47 bf
       -0.32629403 -0.9119657 -1.5340753 -0.7794474
0000d0 90 97 69 be fb 1d fd 3f bb 2c c9 3f be 80 18 bf
       -0.22811723 1.9774774 1.5716776 -0.59571445
0000e0 63 ac 95 3e c3 26 e5 3f 4a 40 e1 be ad 31 e0 3e
       0.29233083 1.7902454 -0.4399436 0.437879
0000f0 4a 17 bf 3f aa 58 be bf f9 b2 89 bf fb 46 eb bd
       1.4928982 -1.4870808 -1.0757743 -0.11488148
000100 bf ac bd 3f af 47 bf 3c 58 5d 7b 3f 26 b7 8b bf
       1.4818343 0.023349611 0.98189306 -1.0915267
000110 03 05 b3 bb 64 e5 7e bf 34 c6 2e bf 24 29 1f 3f
       -0.005463244 -0.9956877 -0.68271184 0.6217215
000120 3e 99 94 bf 4b 2d c7 bf 98 03 70 bd 8d 89 69 bf
       -1.1609266 -1.5560697 -0.058597177 -0.9122551
000130 44 b1 1c 3e 5b 0f 4b be 94 d7 22 3f 08 2a 91 3e
       0.15301996 -0.19830076 0.63610196 0.2835238
000140 c9 98 3a 3c e5 09 cf be d2 3d 7d 3f 9f de d4 be
       0.011388966 -0.40437236 0.98922455 -0.41576096
000150 53 2f 67 bf 5e 9b 38 bf dc b5 84 3f 1e 75 3b 3e
       -0.90306586 -0.7211207 1.0367999 0.18306395
000160 bc 42 55 3e 64 e9 63 bf 26 2d b6 3e d3 f2 b4 3d
       0.20826238 -0.89028 0.3558132 0.088353775
000170 bb db dd 3b 89 f9 d7 3e 57 0a 81 3e 93 71 18 3e
       0.0067705787 0.42182568 0.252032 0.14887075
000180 21 c5 0c bf d9 52 fc be 59 5e ee 3f 7b 85 81 3d
       -0.54988295 -0.49281958 1.8622543 0.063242875
000190 8d 7e c7 be 51 1a 7d be 40 7b 0a 3f 13 8a fc be
       -0.38963738 -0.2471707 0.54094315 -0.49324092
0001a0 7c ba c6 3e 89 17 2c bf 09 80 39 3e 69 11 e5 3e
       0.3881415 -0.6722341 0.18115248 0.44739845
0001b0 a4 86 40 40 72 15 35 be 49 de 98 3f fb 82 af 3e
       3.0082178 -0.17683962 1.1942836 0.34279618
0001c0 73 2b ab 3e 08 c0 af bf 80 c1 5a bf 61 e5 a3 be
       0.33431587 -1.3730478 -0.8545151 -0.3201094
0001d0 1a 78 81 bf c8 c0 03 be 41 99 26 3e 1b ec 93 3f
       -1.0114777 -0.12866509 0.16269399 1.1556429
0001e0 37 ee 9f bd 70 b1 97 be 2b ae 1f 3e 1e 18 42 40
       -0.07809108 -0.29627562 0.15593784 3.032722
0001f0 48 98 45 3f 5c 7c 75 3f 69 25 cd 3f 0b 47 5a 3d
       0.7718549 0.9589288 1.6027042 0.053290408
000200 44 1d 86 3e a4 d9 c4 bf ab fb 82 be 93 63 dd be
       0.26194203 -1.5378919 -0.25582632 -0.43240032
000210 8b 98 13 bf dc 8a 67 3f f2 6f 3e be da ac ce 3e
       -0.5765464 0.9044626 -0.18597391 0.4036625
000220 c0 d1 02 c0 93 cb b5 3f b8 63 58 3d a2 ce ff 3f
       -2.0440521 1.4202751 0.052829474 1.9984934
000230 a6 b5 f3 be 92 e2 ef bf 0f 34 22 bf 3f ac 80 3f
       -0.47599524 -1.8741019 -0.63360685 1.0052565
000240 89 de 46 3f 21 8c 21 bf 22 93 c8 bf b7 57 dd bd
       0.7768331 -0.63104445 -1.5669901 -0.10807746
000250 92 69 62 bf f4 b6 66 bf cf 63 33 bf 12 48 c8 3e
       -0.8844234 -0.90122914 -0.7007417 0.39117485
000260 39 44 1a 40 43 fa 08 c0 e1 07 66 3f 54 81 f9 bf
       2.410414 -2.1402748 0.8985577 -1.9492593
000270 b0 87 bb bf 83 ad cb bf 01 24 59 3f 11 8b a0 3e
       -1.4650784 -1.5912327 0.8482056 0.313561
000280 69 96 d2 3f 60 d6 08 bf 45 b1 9c 3f 9c 00 48 3f
       1.6452152 -0.5345211 1.2241598 0.7812593
000290 87 3e 4b 3f 4e 8e 88 be ae 02 0a 40 10 e1 cc 3e
       0.79392284 -0.2667107 2.1564136 0.4001546
0002a0 8a 3e 7a 3f 49 92 7b 3f d2 a1 05 3f bc cd 23 3e
       0.9775168 0.9827009 0.52200043 0.1599645
0002b0 5e 97 23 3f b3 3a 72 3f 90 b1 11 3f 57 2d 9f 3e
       0.63902843 0.9462082 0.56911564 0.3108928
0002c0 d2 1c 07 c0 59 f2 0c bf 6b f3 8a bd 33 f0 f9 3c
       -2.111134 -0.55057293 -0.067847095 0.030510044
0002d0 7e c9 17 3e e1 3a 54 bf 99 91 3d 3f 24 b1 1f 3f
       0.14822957 -0.8290234 0.7405029 0.6237967
0002e0 91 05 03 c0 83 34 84 3f d7 27 e4 3e 44 c1 23 bf
       -2.0472147 1.0328525 0.44561645 -0.63966775
0002f0 94 84 6a bf 73 58 7f bf cc e4 8b bf b5 98 33 3f
       -0.9160855 -0.9974434 -1.0929198 0.7015489

l3.bias f4 [3]
000000 00 df fa 3d f2 d5 f8 bc 6d 44 a7 3e
       0.12249565 -0.030375455 0.32669392
