uncertain/Hopper-v2/uncertain.pth (torch, 23071 bytes, 5 tensors)

layer1.weight f4 [64, 14]
-0.09031973 -0.017804086 0.0011590825 0.00425609 0.0021748669 -0.09347314 0.0013693118 0.019018086
-0.07032012 -0.012289953 -0.16616012 0.07190627 -0.057310615 0.0018202635 0.06831945 0.04353409
-0.016997008 -0.07169193 0.079733 0.17248265 -0.09997692 0.086730815 0.050781514 -0.15450361
-0.052082833 -0.03303138 -0.016605789 0.033972666 0.10475392 0.0010749358 0.056023523 0.03534768
-0.008129997 -0.119877376 0.041064173 -0.05031146 -0.10408248 -0.15549056 -0.13531797 0.00039198415
0.0039284537 -0.029295027 -0.034836017 -0.08220322 -0.08240683 0.06935908 -0.057275783 -0.039189346
0.0007489898 -0.0016042521 -0.026754845 -0.009394889 0.009896246 -0.017272696 0.0010954791 0.0031730877
0.12486634 -0.0020853304 -0.06314599 -0.10675944 -0.0073462836 -0.10574785 -0.06776996 0.021653742
-0.17207903 0.116853714 0.20278583 0.07581848 0.011279168 -0.0013893805 0.033813227 -0.0015524739
-0.06770848 -0.07548125 -0.072350316 0.17267619 0.07195705 0.0023509318 -0.17478122 0.05022818
0.19829573 0.09147609 -0.007443888 -0.016541312 0.011582943 -0.00016058418 0.0101033505 0.0015152276
0.036178466 0.085172206 -0.04793151 0.004295838 0.101871334 0.1179347 0.08370463 0.030417556
-0.05518731 -0.0031014597 -0.046828426 0.092264965 -0.09353764 -0.006494546 0.058399767 0.09506852
-0.11494906 0.057989538 0.06240457 0.024187628 -0.15009178 0.020720884 -0.007279269 0.004177205
0.018142844 0.018188884 0.028586583 -0.032960236 0.055291608 -0.06849619 0.014710992 -0.0049014846
-0.001594468 -0.12761566 -0.18902326 -0.019842098 -0.08229788 0.058619894 -0.0017531787 4.364207e-05
0.008969574 -0.05465408 -0.0007951016 -0.037453912 -0.05610665 0.010421627 -0.04497301 0.009923993
-0.092394546 0.0011396122 0.00878301 0.07658924 0.021251235 0.0074562696 -0.007860579 0.06948042
-0.005358952 -0.10546891 -0.06476973 -0.079635724 -0.013200488 0.18165459 0.01608581 0.04455979
-0.001274851 0.07566731 0.0422882 -0.06445042 0.05541492 0.03383655 -0.08852975 -0.07490876
0.062187713 0.022382842 -0.043406785 -0.064318955 -0.15397687 -0.023025665 0.02624116 0.052799795
0.003913677 0.05486152 -0.011983489 -0.0015214816 -0.0020746503 -0.0037333467 0.041947596 -0.005184262
0.13142009 0.020676253 -0.10777763 -0.03636499 0.07908979 -0.027704367 -0.13952929 -0.04010693
-0.002251994 -0.0585434 -0.0770202 -0.16819827 -0.068023294 0.058119357 -0.061736327 -0.19617973
0.06562319 -0.05916347 0.016834063 0.05523939 0.13781236 0.0010992623 0.039229047 0.032127976
-0.010084905 0.019241894 -0.0060242913 0.013255556 -0.1111399 -0.15538234 -0.17589507 -0.002124912
0.024807649 -0.0040863757 -0.04894078 -0.00038027135 -0.018896649 -0.0051106466 0.009373121 0.048366744
-0.12814774 -0.044473954 0.027627293 0.039231732 -0.09810068 -0.08176407 -0.08497885 -0.05107007
0.10357203 -0.0025854458 -0.006517894 0.0351544 0.017890576 0.13496654 -0.03950023 -0.06795362
-0.08020096 0.022146078 0.040743392 0.0019944403 -0.10560208 -0.10973982 0.19266208 0.017331427
-0.011924996 -0.05098328 0.079267144 0.21605003 0.022479512 0.095561676 -0.022081228 -0.058251724
0.14213003 0.0415654 0.032113705 0.03345463 0.042927362 -0.00049653876 0.0010624739 -0.037227467
00000000: 8df9 b8bd e0d9 91bc 5bec 973a ac76 8b3b
00000010: 3688 0e3b d86e bfbd 7b7a b33a d1cb 9b3c
00000020: ff03 90bd cd5b 49bc e125 2abe 9843 933d
00000030: 89be 6abd e895 ee3a 11eb 8b3d cd50 323d
00000040: 4f3d 8bbc 38d3 92bd 0e4b a33d 4b9f 303e
00000050: b3c0 ccbd ed9f b13d 4700 503d 3236 1ebe
00000060: cf54 55bd ea4b 07bd dd08 88bc ec26 0b3d
00000070: 3989 d63d dce4 8c3a ec78 653d bbc8 103d
00000080: ae33 05bc 4582 f5bd e832 283d 6413 4ebd
00000090: 3229 d5bd eb38 1fbe cb90 0abe 3983 cd39
000000a0: 42ba 803b 20fc efbc 36b0 0ebd 295a a8bd
000000b0: e9c4 a8bd 220c 8e3d 039a 6abd 0285 20bd
000000c0: db57 443a c545 d2ba fa2c dbbc 05ed 19bc
000000d0: dd23 223c 787f 8dbc 2e96 8f3a 94f3 4f3b
000000e0: ecb9 ff3d 0aaa 08bb af52 81bd b1a4 dabd
000000f0: 18b9 f0bb 5492 d8bd faca 8abd 3063 b13c
00000100: 7c35 30be 0051 ef3d 17a7 4f3e b846 9b3d
00000110: 42cc 383c e01b b6ba bd7f 0a3d 617c cbba
00000120: beaa 8abd ea95 9abd 672c 94bd 07d2 303e
00000130: 385e 933d 1712 1a3b d9f9 32be 10bc 4d3d
00000140: 090e 4b3e d157 bb3d dceb f3bb a581 87bc
00000150: 62c6 3d3c 7d62 28b9 8688 253c 9a9a c63a
00000160: df2f 143d c46e ae3d d553 44bd 1ac4 8c3b
00000170: eba1 d03d bf87 f13d 556d ab3d 3d2e f93c
00000180: 170c 62bd dc41 4bbb 2acf 3fbd 6af5 bc3d
00000190: aa90 bfbd 33d0 d4bb 9834 6f3d 49b3 c23d
000001a0: 6a6a ebbd 7086 6d3d ef9b 7f3d 2225 c63c
000001b0: a9b1 19be d8be a93c ef86 eebb efe0 883b
000001c0: 4da0 943c db00 953c 692e ea3c 5001 07bd
000001d0: 7479 623d bb47 8cbd 5f06 713c a29c a0bb
000001e0: 78fd d0ba aead 02be 508f 41be e58b a2bc
000001f0: ca8b a8bd 6a1b 703d eaca e5ba 510c 3738
00000200: 1ff5 123c f5dc 5fbd 5d6e 50ba 4669 19bd
00000210: 16d0 65bd 79bf 2a3c 9e35 38bd 3e98 223c
00000220: 5a39 bdbd 0a5f 953a 9de6 0f3c d2da 9c3d
00000230: 1217 ae3c b953 f43b a8c9 00bc c04b 8e3d
00000240: 269a afbb 1500 d8bd fea5 84bd 0e18 a3bd
00000250: dc46 58bc a903 3a3e 63c6 833c 5484 363d
00000260: e718 a7ba 76f7 9a3d 6436 2d3d 95fe 83bd
00000270: c1fa 623d 3298 0a3d 164f b5bd c469 99bd
00000280: 8bb8 7e3d 395c b73c 50cb 31bd a8b9 83bd
00000290: 1dac 1dbe 52a0 bcbc b4f7 d63c 9944 583d
000002a0: 4d3e 803b 79b6 603d 6556 44bc 736c c7ba
000002b0: dbf6 07bb 2aab 74bb 3ed1 2b3d bee0 a9bb
000002c0: fd92 063e 3f61 a93c 85ba dcbd 75f3 14bd
000002d0: d4f9 a13d 45f4 e2bc c4e0 0ebe 2a47 24bd
000002e0: 3196 13bb 34cb 6fbd c4bc 9dbd 2b3c 2cbe
000002f0: cc4f 8bbd 900e 6e3d 3bdf 7cbd 57e3 48be
00000300: 7365 863d 6555 72bd 97e7 893c b342 623d
00000310: af1e 0d3e 1f15 903a a3ae 203d a098 033d
00000320: 283b 25bc 2da1 9d3c 6b67 c5bb d52d 593c
00000330: 519d e3bd 8c1c 1fbe d61d 34be 1c42 0bbb
00000340: 6939 cb3c 01e7 85bb 2176 48bd 285f c7b9
00000350: 25cd 9abc 3677 a7bb b891 193c 351c 463d
00000360: 2939 03be 522a 36bd a252 e23c 74b1 203d
00000370: 02e9 c8bd ec73 a7bd 6409 aebd da2e 51bd
00000380: 931d d43d 9570 29bb 0f94 d5bb 0ffe 0f3d
00000390: 428f 923c ab34 0a3e feca 21bd 442b 8bbd
000003a0: 6740 a4bd b16b b53c 8be2 263d 28b5 023b
000003b0: e745 d8bd 45bf e0bd 3549 453e a3fa 8d3c
000003c0: 0f61 43bc d8d3 50bd d056 a23d 383c 5d3e
000003d0: f426 b83c d7b5 c33d b1e3 b4bc 5c99 6ebd
000003e0: 898a 113e 7b40 2a3d a989 033d b907 093d
000003f0: 9ad4 2f3d 272a 02ba b542 8b3a d47b 18bd

layer1.bias f4 [64]
-0.044325054 0.003943638 -0.102354005 0.045668226 0.037674665 -0.07852795 -0.034617435 -0.014036507
0.06357866 -0.022555897 -0.03399619 0.04172995 0.052836344 -0.051155426 -0.1372158 -0.09697627
-0.05765656 -0.12668456 0.060224134 -0.07449915 -0.11467547 0.1622752 -0.10752253 -0.15032265
0.08553162 0.022045953 0.114935584 -0.052951433 0.043446727 0.18945442 -0.022165084 -0.010150298
-0.024735076 -0.06698694 0.16532515 -0.1313242 0.11530412 0.081834 0.009208375 0.047499184
0.09793774 0.13574454 -0.08511424 -0.09469574 0.04231525 -0.09245969 -0.13421506 0.19729106
-0.096298255 0.047379006 0.08761479 -0.06538531 0.15664065 -0.057598107 -0.099482656 -0.07694219
-0.09186392 0.12560439 0.066586584 0.005190496 0.25704825 -0.034790803 0.09546504 0.14726225
00000000: 308e 35bd a239 813b fa9e d1bd 9b0e 3b3d
00000010: c050 1a3d 43d3 a0bd 03cb 0dbd 61f9 65bc
00000020: 8735 823d 25c7 b8bc 973f 0bbd 06ed 2a3d
00000030: ec6a 583d 5a88 51bd 4c82 0cbe 7f9b c6bd
00000040: 4929 6cbd 99b9 01be 95ad 763d 0393 98bd
00000050: f9da eabd 782b 263e c634 dcbd 2eee 19be
00000060: 342b af3d b799 b43c 5963 eb3d 9ae3 58bd
00000070: 32f5 313d 5700 423e 8d93 b5bc 6f4d 26bc
00000080: 37a1 cabc 7330 89bd ff4a 293e da79 06be
00000090: 9124 ec3d 9698 a73d b9de 163c 818e 423d
000000a0: 9593 c83d 9e00 0b3e 6050 aebd d7ef c1bd
000000b0: c152 2d3d 825b bdbd ac6f 09be ab06 4a3e
000000c0: 0538 c5bd 7d10 423d 626f b33d bce8 85bd
000000d0: 6866 203e feeb 6bbd 90bd cbbd de93 9dbd
000000e0: 2723 bcbd 709e 003e 8c5e 883d 0915 aa3b
000000f0: d49b 833e cd80 0ebd 2d83 c33d eacb 163e

layer2.weight f4 [64, 64]
0.020080471 -0.037327465 0.046022344 -0.0012162864 0.04120841 -0.08242439 -0.005164936 -0.044412434
-0.02096108 0.008913358 -0.039845496 0.034823135 -0.035955563 0.0010544645 -0.002321709 -0.005329556
0.045830265 -0.058573835 0.00029347837 -0.036270075 0.072277516 0.0023753853 0.026584368 -0.0005754039
0.037456807 8.490602e-06 -0.025906142 0.043345176 -0.0018889357 -0.04848629 -0.004534035 0.028452126
0.003037438 0.024629246 0.01644082 -0.008667842 0.058362044 -0.056632467 0.037825458 0.074490726
-0.047196154 0.017103737 -0.009352615 0.006509754 -0.005901776 -0.04080386 -0.023515852 -0.0058563845
-0.018282054 -0.044112 -0.025745466 -0.024735572 -0.04726521 -0.02599738 -0.00062568823 0.012685607
-0.0138839865 -0.035323124 0.024854984 -0.012317415 0.048375074 0.051508382 0.043990623 -0.023261009
0.00035653563 0.007435234 0.000816424 -0.0013863755 0.031790126 0.04028036 0.01588744 -0.0067333956
-0.010392988 -6.727673e-05 0.015910417 -0.00034777095 -0.008871099 0.016737556 0.010907058 -0.005019727
0.0040785028 0.0277387 -0.00871082 -0.017989777 -0.0032805775 -0.0062018526 0.0046977 -0.004467793
-0.0142129185 0.0002033754 -0.0025589461 0.013525242 -0.0037531478 -0.003650608 0.011711898 0.039366957
0.02580376 0.013437381 -0.013640881 0.03082633 -0.014283455 -0.014750818 -0.022040423 -0.000518714
-0.0067337137 -0.012246657 0.0029727435 0.010087207 0.01679695 0.0049993866 0.017230913 -0.016671669
-0.005838715 0.00049639615 -0.0028273573 0.018450877 -0.005239535 -0.003919976 0.0008907407 0.012348063
0.0077081956 -0.009817415 -0.005744419 0.014619998 0.014576196 0.0025754585 -0.0057927356 -0.008099316
-0.0001812916 -0.003881267 -0.0005457284 -6.274524e-05 -0.0039580874 -0.013547238 0.0071791387 -0.00076113053
0.0009738858 -0.00018292785 -0.00024578726 -0.0003946952 -0.00025971918 -0.003741365 -0.0034845339 -0.00011139415
-0.0006366296 -0.013601142 -0.00024465492 -0.0005741469 -0.0007513575 -0.0008660925 -0.0005302816 -0.00033525168
-0.00013669906 -0.00022857959 -0.0033152811 0.007698483 -0.0003704876 -0.0074953213 -0.00021193465 0.0013576341
-0.0003951068 -0.00022188244 -0.0007834591 -0.0029559552 -0.0012529799 -0.0005025815 -0.0009183026 -0.0012824808
-0.00049364346 -0.0007890744 -0.0010570893 -0.00027259035 0.01017603 -0.0006933826 0.008761472 -0.0015244982
-0.0005947147 0.003464715 -0.00050672144 -0.00023728705 -0.002991248 -0.00033915066 -2.5406496e-05 0.014941921
-0.00047037037 -0.0006828654 -0.0017330758 -0.0017386137 -0.020483203 -0.00023178342 -0.0010483096 0.021766495
0.029335259 0.009197898 0.04790581 0.001561311 0.071012266 0.10568789 0.100015014 0.0103326645
-0.03465429 -0.054235857 -0.026871966 0.014520829 0.035318773 -0.018552134 -0.07086417 0.019343989
0.10876595 0.08769032 0.05348691 0.10723804 -0.021137057 0.1022975 -0.036645852 0.0036231568
-0.054132372 -0.024849858 0.07623128 0.039910503 -0.015627103 -0.04567413 0.043218452 0.012983304
0.02359014 0.005528295 0.0041217874 0.010313901 0.077401005 -0.021675725 0.050531145 -0.037998743
0.006506732 0.09038989 -0.044013664 -0.01587142 -0.075496815 -0.06358861 -0.047577683 0.10015368
-0.011348552 0.03198575 -0.052187182 -0.056870334 0.098734446 -0.019827433 0.021637147 -0.0094973
-0.022416053 0.038265526 -0.020689875 0.07693481 0.0077488455 -0.0043375813 0.103449106 0.0849049
00000000: cd7f a43c afe4 18bd ed81 3c3d cd6b 9fba
00000010: 26ca 283d 1ece a8bd a03e a9bb d0e9 35bd
00000020: 92b6 abbc 5509 123c 0835 23bd b4a2 0e3d
00000030: 2446 13bd f535 8a3a d027 18bb 8ea3 aebb
00000040: 84b8 3b3d 1eeb 6fbd 00de 9939 ee8f 14bd
00000050: 3c06 943d 5aac 1b3b 76c7 d93c b4d6 16ba
00000060: 4f6c 193d dc72 0e37 1e39 d4bc b68a 313d
00000070: 2a96 f7ba 8f99 46bd 3e92 94bb 6f14 e93c
00000080: c10f 473b 46c3 c93c e6ae 863c 9003 0ebc
00000090: 0a0d 6f3d 72f7 67bd deee 1a3d 988e 983d
000000a0: c150 41bd 231d 8c3c b63b 19bc c64f d53b
000000b0: af63 c1bb f321 27bd 51a4 c0bc eae6 bfbb
000000c0: 3fc4 95bc c9ae 34bd 28e8 d2bc 41a2 cabc
000000d0: 2a99 41bd 75f8 d4bc 3a05 24ba 4bd7 4f3c
000000e0: a979 63bc fbae 10bd ae9c cb3c fcce 49bc
000000f0: f124 463d 74fa 523d 832f 343d df8d bebc
00000100: 67ed ba39 43a3 f33b 4a05 563a 0bb7 b5ba
00000110: 5d36 023d 05fd 243d 6026 823c d1a3 dcbb
00000120: 5a47 2abc eb16 8db8 9056 823c 0755 b6b9
00000130: 1658 11bc 331d 893c 84b3 323c 867c a4bb
00000140: f6a4 853b 453c e33c d4b7 0ebc 4c5f 93bc
00000150: f5fe 56bb e938 cbbb 2aef 993b 9066 92bb
00000160: 4ddd 68bc 2b41 5539 feb3 27bb fa98 5d3c
00000170: 5ff7 75bb 0a3f 6fbb 43e3 3f3c 3f3f 213d
00000180: 6862 d33c 7628 5c3c 007e 5fbc 8087 fc3c
00000190: 2705 6abc 6aad 71bc 1e8e b4bc 4ffa 07ba
000001a0: 7ca6 dcbb 34a6 48bc 5cd2 423b d044 253c
000001b0: c299 893c e5d1 a33b d827 8d3c 0693 88bc
000001c0: b152 bfbb 9520 023a 2f4b 39bb 4b26 973c
000001d0: 68b0 abbb 2473 80bb 9980 693a 884f 4a3c
000001e0: 0895 fc3b 39d9 20bc ae3b bcbb b788 6f3c
000001f0: ffd0 6e3c 06c9 283b fdd0 bdbb feb2 04bc
00000200: 1819 3eb9 db5c 7ebb 370f 0fba 1896 83b8
00000210: d8b2 81bb 3cf5 5dbc fb3e eb3b 9b86 47ba
00000220: 5f4c 7f3a 52d0 3fb9 02dd 80b9 18ef ceb9
00000230: eb2a 88b9 b031 75bb c75c 64bb 479c e9b8
00000240: 7de3 26ba 53d7 5ebc 0745 80b9 5982 16ba
00000250: c0f6 44ba 7c0a 63ba 9902 0bba b8c4 afb9
00000260: e056 0fb9 deae 6fb9 3045 59bb 8e43 fc3b
00000270: 013e c2b9 509b f5bb c63a 5eb9 a4f2 b13a
00000280: 5626 cfb9 1da9 68b9 0d61 4dba b3b8 41bb
00000290: 073b a4ba acbf 03ba 3fba 70ba ea18 a8ba
000002a0: da67 01ba e3d9 4eba 088e 8aba 75ea 8eb9
000002b0: 5db9 263c 1ec4 35ba 478c 0f3c acd1 c7ba
000002c0: a1e6 1bba 4610 633b 80d5 04ba 42d0 78b9
000002d0: d008 44bb 08d0 b1b9 0920 d5b7 f6ce 743c
000002e0: 0b9c f6b9 5202 33ba 6028 e3ba 32e2 e3ba
000002f0: 64cc a7bc e30a 73b9 6f67 89ba a64f b23c
00000300: 7f50 f03c c8b2 163c e238 443d e7a4 cc3a
00000310: e16e 913d e472 d83d acd4 cc3d 564a 293c
00000320: a8f1 0dbd 6b26 5ebd 9922 dcbc c5e8 6d3c
00000330: 6baa 103d a5fa 97bc 3c21 91bd 4977 9e3c
00000340: afc0 de3d fc96 b33d 1715 5b3d 9e9f db3d
00000350: 9f27 adbc 5a81 d13d f619 16bd 7c72 6d3b
00000360: e8b9 5dbd ee91 cbbc 251f 9c3d 3279 233d
00000370: 6904 80bc cc14 3bbd d505 313d edb7 543c
00000380: 1c40 c13c b326 b53b 0f10 873b a3fb 283c
00000390: 6b84 9e3d 4a91 b1bc bff9 4e3d 92a4 1bbd
000003a0: 6d36 d53b 561e b93d ac47 34bd c804 82bc
000003b0: 139e 9abd bf3a 82bd d1e0 42bd 5f1d cd3d
000003c0: 47ef 39bc 7d03 033d 3ac2 55bd def0 68bd
000003d0: 4935 ca3d 246d a2bc 6340 b13c 909a 1bbc
000003e0: dfa1 b7bc 50bc 1c3d d07d a9bc ff8f 9d3d
000003f0: 07ea fd3b 4522 8ebb 20dd d33d 9fe2 ad3d

layer2.bias f4 [64]
-0.028952258 -0.053368747 0.015637046 -0.07282723 0.034465164 -0.005295186 0.0512322 -0.03228142
-0.014448983 0.16516729 -0.007887473 0.04401396 0.035449933 0.0014965547 0.015267862 0.054736976
0.029837336 -0.08708247 -0.07713173 -0.0025889527 0.024901904 0.057237618 0.12794003 0.17190634
-0.007965595 -0.044425555 0.012951422 0.066108 0.016035696 -0.004284826 0.090373166 -0.044652507
-0.017340817 -0.009323131 0.005924857 0.0515338 -0.06423078 0.00017823814 0.05053451 0.16114572
-0.044860948 0.1362701 0.07953439 0.14918353 0.06628865 0.05525463 -0.056605916 0.07036485
0.051869873 0.1029444 0.0043240334 -0.114645235 -0.00449151 -0.10760181 -0.037950736 0.052001126
0.085298076 0.13553807 0.16918781 0.14839476 0.11242399 0.027897602 0.09150417 -0.06590969
00000000: 492d edbc 3099 5abd 4319 803c 7126 95bd
00000010: 582b 0d3d 3d83 adbb dbd8 513d 8639 04bd
00000020: 6dbb 6cbc 9d21 293e 763a 01bc fb47 343d
00000030: f333 113d 0b28 c43a 0e26 7a3c e133 603d
00000040: 6e6d f43c 4b58 b2bd 3ef7 9dbd 6bab 29bb
00000050: 14ff cb3c fe71 6a3d b602 033e 3708 303e
00000060: 2182 02bc 92f7 35bd 3332 543c a263 873d
00000070: 4b5d 833c ba67 8cbb 9115 b93d 8ce5 36bd
00000080: 540e 8ebc 0cc0 18bc 4e25 c23b 1b15 533d
00000090: 6d8b 83bd 70e5 3a39 46fd 4e3d 6203 253e
000000a0: 1dc0 37bd 648a 0b3e ede2 a23d 91c3 183e
000000b0: 58c2 873d ae52 623d 9bdb 67bd 721b 903d
000000c0: 8175 543d 83d4 d23d 9fb0 8d3b 1fcb eabd
000000d0: 842d 93bb 565e dcbd 3b72 1bbd 22ff 543d
000000e0: c2b0 ae3d 7eca 0a3e 923f 2d3e ccf4 173e
000000f0: 8d3e e63d 8389 e43c 8a66 bb3d a9fb 86bd

layer3.weight f4 [1, 64]
-0.06337996 -0.13067093 -0.013307804 0.096682295 -0.043254036 0.099568896 -0.04665993 -0.05496481
0.07889089 0.14469586 0.03954299 0.12967314 0.036457848 -0.10314592 0.0012382533 0.08046655
0.10679984 -0.11696063 -0.04273132 -0.017481154 -0.039190747 -0.09702233 0.074590705 0.2040212
-0.07280659 -0.028529093 0.04077942 0.050053775 0.011521432 -0.009719724 0.03531554 -0.07678133
-0.03180453 -0.0075941123 -0.040846646 -0.04579956 -0.07057411 0.031065134 0.06741204 0.12796858
-0.042328846 0.074240975 0.13569489 0.16842 -0.063086785 -0.087920904 -0.07486502 0.13224842
-0.040574037 0.115238994 0.069732934 -0.14444266 0.043547675 -0.060995154 -0.045174465 0.035171747
-0.10579049 0.16437425 0.2225287 0.11526084 0.10347546 -0.05605852 0.12659273 -0.06257013
00000000: 5acd 81bd 9ace 05be fa08 5abc 5e01 c63d
00000010: 252b 31bd c7ea cb3d 7c1e 3fbd c822 61bd
00000020: 8c91 a13d 272b 143e d5f7 213d 09c9 043e
00000030: d354 153d 2b3e d3bd e34c a23a a6cb a43d
00000040: e0b9 da3d 0e89 efbd 0907 2fbd a334 8fbc
00000050: 7a86 20bd a5b3 c6bd 03c3 983d efea 503e
00000060: 9f1b 95bd d8b5 e9bc 5208 273d 3005 4d3d
00000070: 63c4 3c3c 7a3f 1fbc 07a7 103d 883f 9dbd
00000080: 7845 02bd 08d8 f8bb d04e 27bd 5298 3bbd
00000090: 2989 90bd 4f7c fe3c 530f 8a3d 320a 033e
000000a0: 0361 2dbd a70b 983d 9af3 0a3e 4b76 2c3e
000000b0: a533 81bd e00f b4bd d552 99bd 216c 073e
000000c0: f630 26bd 6c02 ec3d 24d0 8e3d c7e8 13be
000000d0: 0c5f 323d 0ed6 79bd dc08 39bd 4010 103d
000000e0: afa8 d8bd b951 283e 90de 633e e00d ec3d
000000f0: f1ea d33d 9e9d 65bd 86a1 013e c524 80bd
