uncertain/InvertedPendulum-v2/actor.pth (torch_old, 19185 bytes, 5 tensors)

l1.weight f4 [64, 4]
0.933965 0.7923284 0.35279366 0.044392906 0.2692972 0.0922232 0.092546195 0.08513758
-0.37632817 -0.6761757 -0.26256475 -0.07801345 0.098581284 0.054456096 -0.20568867 0.036615245
-0.11182347 -0.19676939 0.0707825 0.08540952 0.50429386 0.19393525 -0.42671323 -0.28250596
-0.4156663 0.48688835 -0.016391655 -0.12826748 -0.009555431 0.671344 0.041558605 0.42436934
0.18008123 1.2322798 0.019025065 0.64227 -0.41621682 1.2015933 0.2205512 0.64353365
-0.35327664 -0.9816961 -0.20358162 -0.291991 0.17063549 1.4539496 0.24098533 0.32086858
-0.33037198 -0.25509477 -0.22597468 -0.41934633 -0.20774712 0.53088784 -0.12840295 0.1310852
0.18203935 0.87195665 0.27666643 0.1638833 -0.07887002 1.0477928 -0.008418543 0.32659698
-0.6236481 -0.90883785 0.50444096 -0.79811865 0.42545286 0.4587634 0.12631902 0.24072357
-0.2789683 0.02221926 -0.070428945 -0.20430095 -0.1080732 -2.0159824 -0.4042293 -0.052733343
0.25966123 -0.48217797 -0.034806382 0.23225635 0.2548759 0.432719 -0.0907585 0.37104785
-0.2701417 -0.25050324 0.17957439 0.12955827 0.3834249 -0.17587534 0.04998578 -0.013490669
-0.36770442 -1.1351044 0.033725016 -0.3526913 -0.1891935 0.6811875 0.29642895 -0.17195465
-0.00084300083 0.13651909 0.31435922 -0.3312278 0.8746077 0.73383135 0.43208584 -0.06867022
0.20713407 0.8026067 0.030330332 0.39926627 0.1745339 1.1132131 0.060324468 0.25806955
-0.30259743 0.12437509 -0.42378 0.2673666 0.037831713 -0.24852078 0.026248107 0.014839123
0.57630366 2.3018675 0.65740585 0.42648548 -0.31782714 -0.6081155 -0.16931556 0.018660802
-0.31081045 -0.51526475 0.06243961 -0.22686741 -0.21915454 1.1159831 -0.071401134 0.27577356
-0.19692244 0.6604796 -0.06933695 0.15546982 -0.4530629 0.027114637 0.26579708 0.13560277
0.24905233 1.5225446 0.16533759 0.32182288 -0.31995514 0.13671073 -0.04439836 0.10083416
-0.015672177 -0.7417367 -0.6192494 0.5610427 0.27233392 0.62784284 -0.0010072552 0.09251633
0.42252666 -0.06930858 -0.104836404 0.19363935 0.19437054 0.9082987 0.24856153 0.21947676
0.3731979 -0.18085527 -0.0937702 -0.031161236 -0.50556356 -0.5053923 -0.09675809 0.024050046
0.3303435 1.821023 0.28577352 0.34830993 -0.036138643 0.50913495 0.24347009 0.03017716
0.15830268 -0.063386574 -0.05367702 -0.09139926 0.3687745 -0.03258435 0.22834302 0.4285402
0.4636747 1.0831792 0.26739827 0.25482148 -0.11859818 -0.32593882 0.032038648 -0.0064854748
-0.42946613 -0.033085242 -0.6695362 0.85336864 0.3968261 1.634949 0.1744426 0.38071316
-0.4782391 -0.054231904 -0.0025434236 -0.056975223 0.6064011 -0.6645245 0.09303684 -0.2679941
0.021207022 -0.38136524 0.21272995 -0.40199965 0.274051 -0.2764757 -0.04096026 -0.06558451
0.06786394 -0.06568246 0.41224042 -0.1232892 0.24319024 1.3811483 0.339917 0.27042323
0.54375273 0.8968394 -0.19154668 0.44094056 -0.18438126 0.4184368 -0.14446196 -0.0010034196
0.007461301 0.41798854 -0.023873609 -0.046898123 -0.39389527 0.3287405 0.28329608 0.15341206
00000000: 5518 6f3f 09d6 4a3f 5fa1 b43e 56d5 353d
00000010: 53e1 893e 84df bc3d dc88 bd3d 9d5c ae3d
00000020: 16ae c0be da19 2dbf e36e 86be 84c5 9fbd
00000030: fce4 c93d 5b0d 5f3d 0da0 52be def9 153d
00000040: b403 e5bd ea7d 49be 6af6 903d 30eb ae3d
00000050: 6719 013f f696 463e 287a dabe 9fa4 90be
00000060: 37d2 d4be 6e49 f93e cb47 86bc 8d58 03be
00000070: 628e 1cbc 33dd 2b3f 5b39 2a3d f046 d93e
00000080: 3767 383e 58bb 9d3f 74da 9b3c cf6b 243f
00000090: 5f1a d5be cfcd 993f 2cd8 613e 9fbe 243f
000000a0: ade0 b4be 7050 7bbf b377 50be d87f 95be
000000b0: 12bb 2e3e 051b ba3f dcc4 763e e348 a43e
000000c0: 8426 a9be c89b 82be e865 67be 90b4 d6be
000000d0: a9bb 54be 44e8 073f 107c 03be 333b 063e
000000e0: 8668 3a3e 8d38 5f3f 39a7 8d3e 06d1 273e
000000f0: 9b86 a1bd 131e 863f eeed 09bc b837 a73e
00000100: 67a7 1fbf 99a9 68bf 0b23 013f 8151 4cbf
00000110: f5d4 d93e 09e3 ea3e c659 013e 3d80 763e
00000120: efd4 8ebe 2a05 b63c 0d3d 90bd 4534 51be
00000130: 7b55 ddbd db05 01c0 25f7 cebe ebfe 57bd
00000140: 51f2 843e 08e0 f6be 2391 0ebd 9cd4 6d3e
00000150: 187f 823e 588d dd3e 98df b9bd fcf9 bd3e
00000160: 0350 8abe f641 80be 59e2 373e ecaa 043e
00000170: 4550 c43e aa18 34be e4bd 4c3d f807 5dbc
00000180: c143 bcbe 1a4b 91bf 3e23 0a3d f493 b4be
00000190: f1bb 41be 4e62 2e3f 89c5 973e e114 30be
000001a0: d4fc 5cba a9cb 0b3e b1f3 a03e b196 a9be
000001b0: 4ae6 5f3f 5fdc 3b3f 5b3a dd3e f9a2 8cbd
000001c0: f41a 543e a277 4d3f 5177 f83c a16c cc3e
000001d0: 04b9 323e c47d 8e3f ca16 773d b121 843e
000001e0: 0dee 9abe 5eb8 fe3d b1f9 d8be 46e4 883e
000001f0: 6df5 1a3d 3b7c 7ebe 4506 d73c cb1f 733c
00000200: a388 133f cc51 1340 c04b 283f 4e5c da3e
00000210: 3dba a2be 75ad 1bbf 0f61 2dbe 8ade 983c
00000220: 8c22 9fbe 64e8 03bf adc0 7f3d ee4f 68be
00000230: 0c6a 60be 89d8 8e3f c23a 92bd 3132 8d3e
00000240: 09a6 49be 3115 293f 8800 8ebd 7b33 1f3e
00000250: dcf7 e7be 841f de3c 8e16 883e 74db 0a3e
00000260: 9307 7f3e bee2 c23f 424e 293e f8c5 a43e
00000270: 29d1 a3be e6fd 0b3e 0edb 35bd 2482 ce3d
00000280: f062 80bc 75e2 3dbf 2187 1ebf 7fa0 0f3f
00000290: 5a6f 8b3e 4fba 203f e005 84ba 3479 bd3d
000002a0: 6a55 d83e a8f1 8dbd 78b4 d6bd 6549 463e
000002b0: 1209 473e 4386 683f ea86 7e3e 84be 603e
000002c0: cc13 bf3e 2032 39be 970a c0bd d945 ffbc
000002d0: 9d6c 01bf 6461 01bf 1b29 c6bd 9a04 c53c
000002e0: c922 a93e 4817 e93f e850 923e ae55 b23e
000002f0: 1d06 14bd ab56 023f 3950 793e 1736 f73c
00000300: 191a 223e d2d0 81bd 6fdc 5bbd 892f bbbd
00000310: 03d0 bc3e 2b77 05bd c1d2 693e 9f69 db3e
00000320: c566 ed3e 9ea5 8a3f 6de8 883e f677 823e
00000330: 9ae3 f2bd 74e1 a6be f53a 033d 1b84 d4bb
00000340: fce2 dbbe 6484 07bd b966 2bbf 5e76 5a3f
00000350: ca2c cb3e 0246 d13f 15a1 323e d6ec c23e
00000360: c1db f4be 4622 5ebd 91af 26bb da5e 69bd
00000370: 1a3d 1b3f 471e 2abf 198a be3d 8636 89be
00000380: 59ba ad3c 4e42 c3be e1d5 593e e6d2 cdbe
00000390: 6a50 8c3e 398e 8dbe f2c5 27bd 2c51 86bd
000003a0: 40fc 8a3d 8784 86bd 2d11 d33e 0c7f fcbd
000003b0: dd06 793e 78c9 b03f 9a09 ae3e ea74 8a3e
000003c0: 6133 0b3f 4497 653f d024 44be f6c2 e13e
000003d0: 71ce 3cbe 593d d63e d6ed 13be 2d85 83ba
000003e0: ee7d f43b 9802 d63e 9692 c3bc 3f18 40bd
000003f0: a4ac c9be ad50 a83e 2f0c 913e 0d18 1d3e

l1.bias f4 [64]
-0.10736239 -0.28591815 0.18121673 -0.5963584 -0.43189391 -0.785729 0.51792836 0.26061097
0.32167134 -0.3786049 -0.33401728 -0.14403047 0.08110649 0.22532482 0.6276511 0.14987478
0.079268046 0.43987754 -0.35829246 0.32908097 0.57965606 0.50548726 -0.38143322 0.15067531
-0.06505107 -0.0839302 0.39766294 -0.30850413 -0.23169509 0.6174774 -0.23238763 -0.12916976
-0.0011557019 0.25175595 0.526835 -0.35005817 -0.15235376 -0.57325596 -0.025172677 -0.4169309
-0.20966959 0.22627878 0.32949615 0.6111051 0.71282566 0.014641495 -0.08116026 0.56150997
-0.5415894 0.4428578 -0.47435033 -0.37406328 -0.029074064 0.22646143 0.24455425 0.42018148
-0.4995688 -0.15263744 0.06985461 -0.12831591 0.26771235 -0.32110974 0.22663648 -0.597544
00000000: d0e0 dbbd dd63 92be e190 393e f2aa 18bf
00000010: 3321 ddbe 8925 49bf f496 043f cd6e 853e
00000020: 1bb2 a43e 80d8 c1be 5004 abbe b97c 13be
00000030: 291b a63d 8dbb 663e bead 203f c678 193e
00000040: 4957 a23d a137 e13e 1c72 b7be 4d7d a83e
00000050: 5764 143f 9d67 013f 374b c3be a14a 1a3e
00000060: 7f39 85bd 99e3 abbd 7a9a cb3e 41f4 9dbe
00000070: 7a41 6dbe 0013 1e3f 06f7 6dbe 1445 04be
00000080: ec7a 97ba 28e6 803e a9de 063f d33a b3be
00000090: a002 1cbe e7c0 12bf ee36 cebc f877 d5be
000000a0: a0b3 56be a0b5 673e b8b3 a83e 6271 1c3f
000000b0: be7b 363f e2e2 6f3c 5a37 a6bd 1ebf 0f3f
000000c0: 9aa5 0abf 42be e23e 0cde f2be 3985 bfbe
000000d0: bb2c eebc 81e5 673e 6e6c 7a3e 0722 d73e
000000e0: 7bc7 ffbe fd4c 1cbe ef0f 8f3d 3f65 03be
000000f0: 9811 893e 7f68 a4be 6513 683e a5f8 18bf

l2.weight f4 [64, 64]
0.17263636 0.010748408 0.23012221 0.034142908 -0.05199828 0.21844336 0.1496584 0.21115473
0.10402249 0.14746948 -0.4810133 0.08333305 0.03722428 0.024366222 0.19936901 0.26104757
0.0019797878 0.06574814 -0.015281176 0.0021163684 0.09476915 0.07798739 0.11731438 -0.07457217
0.09199771 0.13181905 0.03650349 -0.21436988 -0.11932875 -0.03584333 0.017658401 0.38787636
0.09791682 0.09551532 0.10595317 0.3904363 0.17200214 0.15703815 -0.17524722 -0.09510656
0.46091378 0.14791314 0.04653758 0.14282094 0.1446462 0.2932125 -0.39295462 0.040627528
0.40337655 0.116612375 0.143686 -0.030101327 0.066858456 -0.00503901 0.11234853 -0.030768115
0.07283589 0.23748843 0.14186081 0.24435358 0.1466499 0.0786323 0.19339201 0.23694411
-0.042701963 -0.11097672 0.007527433 0.012116318 -0.07718434 0.019644693 -0.090209566 0.08897993
0.0044308775 0.07204128 0.007563575 -0.020650867 -0.16036437 0.019656094 0.001334074 0.062130254
0.06762622 0.044473417 -0.08590199 -0.09665234 -0.101446755 0.07475256 -0.0033827424 0.102719225
-0.11547947 0.105677985 -0.056494094 -0.02904933 -0.12001672 0.067803584 0.038254343 -0.025855765
0.05434806 -0.04162498 -0.035324838 -0.0056629 0.016832747 0.12196554 -0.14671662 0.040992986
-0.057140734 0.093845904 -0.014687419 -0.005851515 -0.091749236 0.058697578 -0.17239735 -0.077065
-0.08963022 0.0010110508 -0.003211081 0.0007971641 -0.073592424 -0.12151672 0.057262912 0.0073258188
0.035558477 0.049072027 0.02982503 -0.051150385 -0.1248221 0.05901759 0.119662404 -0.10301131
0.08380264 0.025047798 -0.069980904 -0.15264611 -0.078408025 0.041063473 -0.04362709 -0.050325304
-0.10839203 0.36511433 -0.08614216 -0.1520071 -0.00026670744 0.15390764 0.07303156 -0.06553367
-0.186169 -0.18345694 -0.04037398 -0.23074023 -0.080663815 -0.021805717 -0.12282765 -0.032613445
-0.062370177 0.1663482 -0.14375855 0.0940563 -0.0036815042 0.062422447 0.006772683 0.069278926
-0.2625729 -0.19213918 -0.0066049644 0.10596529 0.15708423 0.50891817 -0.104869165 0.10760417
0.02009488 -0.037936803 -0.20709245 -0.044140622 -0.16932718 0.12432278 -0.27079728 -0.16093256
-0.0073584467 -0.03792354 0.027370088 0.09964852 0.04566301 -0.24676517 -0.12775956 -0.109687015
0.07127559 0.06921244 -0.26882958 -0.057078782 -0.15979917 0.1639942 -0.00089868373 0.3038691
-0.012242892 0.5045879 0.22766319 -0.117639795 -0.047632135 0.045766838 0.079342276 0.14362718
0.124754295 0.05660623 -0.55369383 0.11338297 0.30297175 0.06964005 0.02799963 0.11040793
0.1341082 0.29500243 0.12094943 0.12676394 -0.010137326 0.0014619135 -0.099572495 0.04110836
0.26577914 0.17016 0.17872044 -0.13523798 0.16189332 0.10967366 0.26928705 0.16865838
0.11703349 0.15201 0.17190586 0.21637641 0.23443261 0.04531772 -0.27520353 0.012627136
0.18377149 0.17056417 0.24549322 0.10813178 0.1716865 0.07651282 0.19557443 0.008896884
0.24659629 0.0062506297 0.6323573 0.06336951 0.21113215 0.36988494 0.16921674 0.14812231
0.051141012 0.14574033 0.16236833 0.12849808 0.09729694 -0.067266524 0.08753378 0.11395635
00000000: 96c7 303e 171a 303c 28a5 6b3e 6fd9 0b3d
00000010: 26fc 54bd 9eaf 5f3e 0d40 193e f238 583e
00000020: be09 d53d 3d02 173e 6047 f6be 85aa aa3d
00000030: 7d78 183d ac9b c73c 6427 4c3e 07a8 853e
00000040: 54bf 013b f6a6 863d e65d 7abc c5b2 0a3b
00000050: 5416 c23d dab7 9f3d 8642 f03d 4bb9 98bd
00000060: 4c69 bc3d 93fb 063e af84 153d c783 5bbe
00000070: a262 f4bd 75d0 12bd 5aa8 903c bb97 c63e
00000080: 9d88 c83d 899d c33d fafd d83d 44e7 c73e
00000090: 5421 303e 9cce 203e 0274 33be 3ac7 c2bd
000000a0: e4fc eb3e 8b76 173e 319e 3e3d a73f 123e
000000b0: 221e 143e f31f 963e 5931 c9be 0d69 263d
000000c0: 5f87 ce3e 78d2 ee3d 6c22 133e 0f97 f6bc
000000d0: 16ed 883d 481e a5bb fc16 e63d 6a0d fcbc
000000e0: fc2a 953d 2b30 733e f643 113e d337 7a3e
000000f0: 642b 163e f909 a13d 8e08 463e 7aa1 723e
00000100: 41e8 2ebd c347 e3bd afa8 f63b 8583 463c
00000110: d312 9ebd e8ed a03c cbbf b8bd 1c3b b63d
00000120: e530 913b 618a 933d ded7 f73b 022c a9bc
00000130: 8f36 24be d105 a13c 18dc ae3a 4b7c 7e3d
00000140: 9e7f 8a3d c229 363d 62ed afbd a9f1 c5bd
00000150: 51c3 cfbd df17 993d 00b1 5dbb 755e d23d
00000160: 8080 ecbd b36d d83d 5a66 67bd dcf8 edbc
00000170: 53cb f5bd 9bdc 8a3d 96b0 1c3d 78cf d3bc
00000180: 129c 5e3d f47e 2abd c7b0 10bd d98f b9bb
00000190: d4e4 893c 12c9 f93d e23c 16be 43e8 273d
000001a0: 670c 6abd 4832 c03d 80a3 70bc 11be bfbb
000001b0: 06e7 bbbd df6c 703d ee88 30be 41d4 9dbd
000001c0: 0c90 b7bd 3c85 843a 0071 52bb c7f8 503a
000001d0: a0b7 96bd c2dd f8bd 848c 6a3d 6c0d f03b
000001e0: c4a5 113d c0ff 483d 9f53 f43c 1183 51bd
000001f0: bba2 ffbd 6ebc 713d 9011 f53d 98f7 d2bd
00000200: b8a0 ab3d 0a31 cd3c 2652 8fbd 434f 1cbe
00000210: 6394 a0bd 2c32 283d 52b2 32bd e821 4ebd
00000220: a4fc ddbd 44f0 ba3e 4d6b b0bd c0a7 1bbe
00000230: ded4 8bb9 f799 1d3e 9291 953d 8436 86bd
00000240: 16a3 3ebe 23dc 3bbe 305f 25bd 2b47 6cbe
00000250: 1233 a5bd e7a1 b2bc 108d fbbd ad95 05bd
00000260: df77 7fbd 2f57 2a3e 7135 13be 97a0 c03d
00000270: 6445 71bb aeae 7f3d 62ed dd3b 1ce2 8d3d
00000280: f56f 86be 22c0 44be 756e d8bb 5404 d93d
00000290: b0da 203e 7648 023f a5c5 d6bd 935f dc3d
000002a0: 059e a43c 9f63 1bbd 0b10 54be cccc 34bd
000002b0: 1b64 2dbe f19c fe3d f1a5 8abe 81cb 24be
000002c0: 201f f1bb b755 1bbd 3c37 e03c 8614 cc3d
000002d0: 2309 3b3d 02b0 7cbe 67d3 02be 96a3 e0bd
000002e0: f0f8 913d 40bf 8d3d 08a4 89be 71cb 69bd
000002f0: 65a2 23be 18ee 273e a595 6bba bb94 9b3e
00000300: 6996 48bc ac2c 013f 8a20 693e 22ed f0bd
00000310: ea19 43bd 0276 3b3d 347e a23d 0113 133e
00000320: 2e7f ff3d efdb 673d e1be 0dbf 5535 e83d
00000330: 1d1f 9b3e 719f 8e3d 7b5f e53c 8e1d e23d
00000340: a953 093e 8f0a 973e 56b4 f73d 68ce 013e
00000350: 0717 26bc ad9d bf3a aaec cbbd 3d61 283d
00000360: 3414 883e 6c3e 2e3e 7e02 373e d37b 0abe
00000370: 5dc7 253e 959c e03d fedf 893e c8b4 2c3e
00000380: 41af ef3d 82a8 1b3e 1708 303e c791 5d3e
00000390: 1a0f 703e 139f 393d 7ae7 8cbe 0ce2 4e3c
000003a0: 982e 3c3e 60a8 2e3e 9362 7b3e 3274 dd3d
000003b0: 96ce 2f3e c1b2 9c3d aa44 483e 3cc4 113c
000003c0: bd83 7c3e 15d2 cc3b 2be2 213f e0c7 813d
000003d0: 0733 583e 8f61 bd3e 2747 2d3e 60ad 173e
000003e0: 3d79 513d f43c 153e e243 263e 0095 033e
000003f0: 9e43 c73d 08c3 89bd e944 b33d f261 e93d

l2.bias f4 [64]
0.1762013 -0.13683662 -0.15896831 -0.025091862 -0.04085012 -0.010388534 0.38251886 0.012180861
-0.053697765 0.018436398 0.14697036 -0.39604136 0.17395866 -0.101547435 -0.08399524 -0.12030189
0.05475836 -0.06366494 0.09772704 0.0487616 0.06982868 0.05407968 -0.07982886 -0.039830957
0.12764731 0.00013631994 0.08908401 0.19624417 -0.036656626 0.13680194 -0.112788536 0.09345837
0.14170656 0.10318281 -0.11856794 0.045033783 0.13422647 0.08508707 -0.124018855 -0.034254815
-0.04486381 0.14230813 -0.108831175 -0.006080638 0.02051141 -0.033893757 -0.2006732 -0.03108028
-0.11890807 -0.06613124 -0.022283906 0.16347699 0.15022203 -0.034036163 -0.20435794 -0.06423814
0.12476487 0.06761132 -0.059292015 -0.09531771 0.0905783 0.02410561 -0.18902709 -0.14908582
00000000: 1d6e 343e e61e 0cbe 97c8 22be 738d cdbc
00000010: 7552 27bd ab34 2abc 83d9 c33e 3c92 473c
00000020: 30f2 5bbd ee07 973c 667f 163e efc5 cabe
00000030: 3822 323e 1af8 cfbd b205 acbd d660 f6bd
00000040: 4d4a 603d c462 82bd 1d25 c83d 3eba 473d
00000050: 5702 8f3d a882 5d3d 507d a3bd c925 23bd
00000060: fab5 023e 1bf1 0e39 ad71 b63d 3bf4 483e
00000070: 4225 16bd cf15 0c3e adfd e6bd 1a67 bf3d
00000080: 861b 113e 8251 d33d c0d3 f2bd 5875 383d
00000090: aa72 093e 2142 ae3d 99fd fdbd c74e 0cbd
000000a0: 1dc3 37bd 39b9 113e e1e2 debd 1740 c7bb
000000b0: 8b07 a83c 2ed4 0abd 467d 4dbe 129c febc
000000c0: 1386 f3bd d16f 87bd bd8c b6bc 8366 273e
000000d0: ced3 193e 8169 0bbd 3543 51be 498f 83bd
000000e0: b984 ff3d ce77 8a3d 2fdc 72bd ee35 c3bd
000000f0: 1e81 b93d 2179 c53c 5190 41be f4a9 18be

l3.weight f4 [1, 64]
0.16513659 -0.13829952 0.5862786 0.29607707 0.17752409 -0.45266125 1.0156866 -0.21779396
-0.21292187 -0.31495583 0.16459332 0.87451893 0.1276743 0.50318694 0.14082214 -0.22683302
0.4251444 0.17219315 0.400445 -0.09265828 0.12600689 0.3915531 -0.096964866 -0.31323108
0.11555811 0.25043997 0.12556061 0.4026244 0.47209743 -0.988605 -0.08192215 -0.37217608
0.37840182 -0.32625082 0.16858035 0.13769113 -0.25849557 -0.1342012 -0.5821807 0.09507939
0.08231619 0.21795453 -0.23216908 -0.18463956 -0.6380373 0.31664702 0.4815616 -0.2182915
-0.07771195 0.07756806 -0.42606473 -0.5501971 0.16992456 -0.22122522 0.32054552 0.39486974
0.3032604 0.20916063 0.12345344 -0.23654996 -0.10739554 -0.41375473 -0.2769234 0.25599274
00000000: 9119 293e 649e 0dbe 5b16 163f 6a97 973e
00000010: e0c8 353e 37c3 e7be 0502 823f 6105 5fbe
00000020: 3108 5abe e441 a1be 278b 283e 79e0 5f3f
00000030: 0dbd 023e dcd0 003f ae33 103e ea46 68be
00000040: 87ac d93e 6753 303e 2107 cd3e a0c3 bdbd
00000050: f307 013e a679 c83e 8495 c6bd d35f a0be
00000060: bba9 ec3d ab39 803e f692 003e c924 ce3e
00000070: c1b6 f13e 3815 7dbf cdc6 a7bd dd8d bebe
00000080: e2bd c13e 590a a7be 54a0 2c3e e7fe 0c3e
00000090: 8859 84be 0a6c 09be cb09 15bf fcb8 c23d
000000a0: 6495 a83d 792f 5f3e bbbd 6dbe 2712 3dbe
000000b0: 6a56 23bf 8f1f a23e 3e8f f63e cf87 5fbe
000000c0: 7127 9fbd 01dc 9e3d 2825 dabe b8d9 0cbf
000000d0: b400 2e3e dd88 62be 8b1e a43e 5e2c ca3e
000000e0: f244 9b3e 342e 563e 28d5 fc3d 273a 72be
000000f0: 31f2 dbbd a9d7 d3be e7c8 8dbe 7b11 833e
