uncertain/InvertedPendulum-v2/uncertain.pth (torch, 20767 bytes, 5 tensors)

layer1.weight f4 [64, 5]
0	0xbb591b04	-0.0033127675
1	0x3b4dcb9c	0.0031401878
2	0xbdb8c6b2	-0.09022273
3	0xbe9473d4	-0.2899462
4	0x3e551e6c	0.20812386
5	0xbcb64b0b	-0.02225258
6	0xbe098b55	-0.13432057
7	0xbc87228e	-0.01649597
8	0x3df6e0e2	0.12054612
9	0x00003d58	2.2006e-41
10	0x3d386cbc	0.045025572
11	0x3e0500ac	0.12988538
12	0xbb0145fe	-0.0019725556
13	0x3dfdc9a5	0.12391976
14	0xba80be6f	-0.0009822379
15	0x3ca49a65	0.020093152
16	0xbc6f8a6f	-0.0146204075
17	0xb7919037	-1.7352502e-05
18	0x3dddfa77	0.10838788
19	0xb6674cc9	-3.4466377e-06
20	0x3cf43837	0.029811962
21	0xb92c1180	-0.00016409718
22	0x3c87b3ad	0.016565168
23	0xbd8544e2	-0.06507279
24	0xbb454298	-0.0030099507
25	0x3dd56f5e	0.10421632
26	0x3b346235	0.0027524356
27	0x3cc50944	0.02405227
28	0xbbbc977e	-0.005755364
29	0x3dcb0fed	0.09915147
30	0xab759693	-8.725045e-13
31	0x3dcdc953	0.10048165
32	0xbd3b94d0	-0.045796216
33	0xbbde057e	-0.006775557
34	0xbd951531	-0.072794326
35	0xbc8aa1fc	-0.016922943
36	0xb9f2e9f7	-0.00046332154
37	0xbe1e416f	-0.15454648
38	0x3a54499d	0.00080981274
39	0xbdffcabb	-0.1248984
40	0xbc220a52	-0.009890156
41	0xb89cf489	-7.484208e-05
42	0x3ac3fbb2	0.001495233
43	0x2d3a30d6	1.058372e-11
44	0xb19ad9bf	-4.5067448e-09
45	0x800215f7	-1.9155e-40
46	0x34a04c05	2.9857634e-07
47	0xb1da867e	-6.359925e-09
48	0x3ae04467	0.0017110229
49	0xbd848d5e	-0.06472276
50	0xb6e80c7f	-6.9155935e-06
51	0x3b93fcaa	0.004516204
52	0xbdd82c55	-0.10555331
53	0x37866654	1.6021695e-05
54	0xbdd62c21	-0.10457636
55	0x3a9d5434	0.0012003244
56	0x3dd92fb2	0.106048
57	0xbda79326	-0.08182363
58	0xbe7415c7	-0.23836432
59	0xbdedaebb	-0.11605593
60	0xbbe0d45b	-0.0068612522
61	0xbd1f2973	-0.03885789
62	0xb5dc2f32	-1.6405013e-06
63	0xacfe7a72	-7.2327084e-12
64	0x80069ab3	-6.06509e-40
65	0x39dd3bb4	0.00042196887
66	0xba713006	-0.00092005765
67	0xbde4012f	-0.11133038
68	0xbdd2dcd8	-0.10296029
69	0xbcefab8c	-0.029256605
70	0x39958ca9	0.00028524295
71	0xbdda65b2	-0.10663928
72	0x3c1a93de	0.009434668
73	0xbe16febc	-0.14745611
74	0x3d7242ef	0.059145864
75	0xbe1efcc1	-0.15526105
76	0x3add8544	0.0016900678
77	0x3de8099e	0.11329959
78	0xbd94ae1f	-0.072597735
79	0xbd737dc7	-0.059446122
80	0x8003d4d4	-3.51855e-40
81	0xb22ac30d	-9.939652e-09
82	0x382b131e	4.078738e-05
83	0x39bb5706	0.00035732257
84	0xbc18a4ec	-0.009316664
85	0xbd704686	-0.058661006
86	0xb9f1e379	-0.00046136582
87	0x3c5a6e7e	0.013332007
88	0x3e2e9e46	0.17052564
89	0x3e52ee02	0.20598605
90	0xbc1d198f	-0.009588613
91	0x3ad0fb80	0.0015944093
92	0x3dfe84ab	0.12427648
93	0x3d91a352	0.07111229
94	0x3d2cec30	0.042217433
95	0xbd630d20	-0.05543244
96	0x3ca551a9	0.02018054
97	0xbe00c4c8	-0.12575066
98	0x3d76e667	0.060278323
99	0x3e78f187	0.24310885
100	0x3d408b14	0.047007635
101	0xbd16b851	-0.03679687
102	0xbdbd64ad	-0.09247718
103	0xbe1f09f0	-0.15531135
104	0x3d331f08	0.043730766
105	0xbdf59586	-0.1199141
106	0x3dabea8d	0.083943464
107	0xbc3896fb	-0.011266465
108	0xbe73c361	-0.23805
109	0xbbcea9e8	-0.0063068755
110	0xbaf9ebb4	-0.0019067437
111	0x3ae74538	0.001764453
112	0xbda37f19	-0.07983226
113	0x3dc68e7e	0.09695147
114	0xbdc22c73	-0.09481134
115	0x3d60ea41	0.054910902
116	0xbcc8df32	-0.02452049
117	0xba69bdee	-0.00089165464
118	0x3c647338	0.013943486
119	0xbbcbfe30	-0.00622537
120	0xba2e976b	-0.0006660136
121	0x3d30ac35	0.04313298
122	0xba50ecbd	-0.0007969847
123	0x3c3c8920	0.0115073025
124	0x3d600d70	0.054700315
125	0xbbd88ef3	-0.0066088377
126	0x3bd249ab	0.0064174733
127	0x3dfb1f73	0.12261858
128	0xbd95c30a	-0.073125914
129	0x3e8e884a	0.27838355
130	0xbc389b2d	-0.011267466
131	0x3b5073cf	0.0031807309
132	0xbce9e25a	-0.028550316
133	0xbe223e05	-0.15843971
134	0xbdc0ea63	-0.09419706
135	0xbd4ba144	-0.04971434
136	0xbb33590b	-0.0027366306
137	0xbbe8f966	-0.0071098087
138	0xbd4ac2d7	-0.04950222
139	0x3d97ad2b	0.07406076
140	0x3916cdfb	0.00014381848
141	0x1c1e1303	5.2302387e-22
142	0xba059014	-0.00050950167
143	0x3d13c933	0.03608055
144	0xbb260b17	-0.00253362
145	0xbdc5125d	-0.09622643
146	0xbaa4c913	-0.0012572132
147	0x3e07f12d	0.13275595
148	0xbcaf26a3	-0.021380728
149	0xbb1e7f14	-0.0024184631
150	0xbdd132a0	-0.10214734
151	0x3aaeec0c	0.0013345494
152	0x3caa07ec	0.02075573
153	0xbdf39b5a	-0.11894865
154	0x3d0f35d8	0.03496346
155	0x3b3dbbdb	0.0028951082
156	0xbc95f4b6	-0.018305164
157	0x3e291ab8	0.16514099
158	0xbe7e2852	-0.24820068
159	0xbe7829fa	-0.24234763
160	0x3e1679f9	0.14694966
161	0xbb638ae9	-0.0034720248
162	0xbd569ffd	-0.05239867
163	0xbea21615	-0.31657472
164	0xbdd79d96	-0.10528104
165	0x3c2d1ba7	0.010565675
166	0x3e07a3a5	0.13246019
167	0x3d15dac3	0.03658558
168	0xbb00406a	-0.0019569644
169	0x3dac4726	0.08412008
170	0x3dfeddbd	0.12444637
171	0xbd1da742	-0.038489588
172	0xbb361c28	-0.0027787779
173	0x3bac0ab0	0.0052502975
174	0x3e38c7db	0.18044989
175	0x3d031570	0.032002866
176	0xbe1c2f53	-0.15252428
177	0x2fd11bf1	3.8036732e-10
178	0x3d54362a	0.051809467
179	0xb78a0d83	-1.6457174e-05
180	0xbcfb4398	-0.03067188
181	0xbd28d702	-0.041220672
182	0x3ca97ddd	0.0206899
183	0x29bf1d2e	8.487166e-14
184	0xbdf9f39a	-0.122046664
185	0xbce36cb9	-0.027761804
186	0x3be9a9ac	0.007130822
187	0xbd5de364	-0.054171935
188	0xbd18bdd3	-0.037290405
189	0x3e7c69cc	0.24649733
190	0xbaab3334	-0.0013061524
191	0xbdb4365b	-0.0879943
192	0x3993822a	0.00028135005
193	0x3c8c3a13	0.017117536
194	0xbd7a3a17	-0.061090555
195	0x3a3eb2c2	0.0007274562
196	0x3d48018a	0.048829593
197	0x3c7f83e3	0.015595409
198	0x3d6c3f91	0.05767781
199	0x3dd95053	0.10611024
200	0x3db099c3	0.08623078
201	0xbde61a23	-0.11235454
202	0x3d0f21da	0.034944393
203	0x3cd12114	0.025528468
204	0x0002e3b9	2.65362e-40
205	0x3c5a685e	0.013330547
206	0x3c6c0984	0.014406566
207	0x3deb8a6b	0.115010105
208	0x3e5f61fd	0.21814723
209	0x3ebcd8db	0.36884198
210	0xba900ea9	-0.0010990697
211	0x3b1c9458	0.002389213
212	0xbd905b79	-0.07048697
213	0xbe12fe1d	-0.14354749
214	0x3da6c732	0.08143462
215	0xb923db1a	-0.00015626513
216	0xbd667480	-0.056263447
217	0x3d46227f	0.04837274
218	0xbde8ab7c	-0.11360833
219	0x3c62d7f0	0.013845429
220	0xbd24d7aa	-0.040244736
221	0xbd8c8902	-0.0686207
222	0x3e869e8d	0.2629284
223	0xbe9b15d6	-0.30290097
224	0x3e8031a9	0.25037888
225	0x3d0009a5	0.031259198
226	0xba0cf138	-0.00053765206
227	0xbd9a2fa1	-0.07528616
228	0x3e86fefb	0.2636641
229	0x3e82f417	0.2557685
230	0xbc890309	-0.01672508
231	0x3b38bfa2	0.0028190394
232	0x3e2c6418	0.16835058
233	0xbe03a554	-0.12856036
234	0x3e971dce	0.29514927
235	0xbc90f112	-0.017693076
236	0x3e0b2294	0.1358741
237	0x3e500109	0.20312895
238	0x3e5cfce1	0.2158084
239	0x3e820951	0.25397733
240	0xbdbca70c	-0.09211549
241	0xbd27e6b3	-0.040991496
242	0x3d751ab3	0.059839915
243	0x3dae6f5a	0.085173324
244	0xbb4c1628	-0.0031141136
245	0x29be481c	8.450204e-14
246	0x076e2559	1.7916105e-34
247	0x28d4358c	2.355995e-14
248	0x3c8ccd94	0.017187871
249	0xb7d97340	-2.5922083e-05
250	0x3d0f82db	0.035036903
251	0xbce7c06c	-0.028289996
252	0x3e0c4005	0.13696297
253	0x3bbea24b	0.0058176867
254	0xbb3f8e3f	-0.0029229072
255	0xbe1bf2d5	-0.15229352

layer1.bias f4 [64]
0	0x3dff9e3f	0.12481355
1	0x3dab654e	0.08368932
2	0xbdd686a2	-0.10474898
3	0x30ee75cd	1.735026e-09
4	0x3d3d891c	0.046273336
5	0x3e3aab55	0.1822942
6	0x3dff683f	0.12471055
7	0xb0308b30	-6.4226224e-10
8	0xbdd83c81	-0.10558415
9	0xb230e87f	-1.0297412e-08
10	0x2a2c4dda	1.5303679e-13
11	0xbc60be41	-0.013717235
12	0xbe00d473	-0.12581043
13	0xbb867bbd	-0.004104106
14	0xbda6b0c1	-0.08139182
15	0x3bbf4647	0.005837235
16	0x2fae73bf	3.1732658e-10
17	0x3abb4db9	0.0014290131
18	0x3bf58d4f	0.007493652
19	0x3e0f7a0d	0.14011402
20	0xbbf31fab	-0.0074195466
21	0x39bcf2d9	0.0003603909
22	0xbe09b647	-0.1344844
23	0x3bab822f	0.005234025
24	0xbc7caef0	-0.015422568
25	0x3de2fbd8	0.11083192
26	0x3ce35ac0	0.027753234
27	0x3c0131ef	0.00788544
28	0xbde0bf5b	-0.10973998
29	0xbe1e6253	-0.15467195
30	0x3964d0f7	0.0002182162
31	0x3cb37dfd	0.021910662
32	0xbe4c35f8	-0.19942462
33	0x3c84417e	0.01614451
34	0x3c8c3cc4	0.017118819
35	0x3b4dfd61	0.0031431543
36	0xbe1c9c04	-0.1529389
37	0x3d074361	0.033023242
38	0xbd286051	-0.04110748
39	0x3c7acbb8	0.015307359
40	0x3b17ece9	0.002318198
41	0x3da3cf98	0.0799858
42	0x3c06a414	0.00821783
43	0x3d960644	0.07325414
44	0x3d20063b	0.03906844
45	0x3e4cf471	0.20015122
46	0xbdca5e29	-0.09881241
47	0xbe013879	-0.12619199
48	0xbcbca5f6	-0.023028355
49	0xbe0b56c2	-0.13607314
50	0xbe03ea11	-0.12882258
51	0x3a986c56	0.0011628966
52	0x3e463df6	0.19359574
53	0x3d55cc80	0.05219698
54	0xb90f1aaa	-0.00013647476
55	0xbdc1f471	-0.094704516
56	0x3d0e2be4	0.034709826
57	0xb35b8af1	-5.1116277e-08
58	0x3c8dacc4	0.017294295
59	0xb225801d	-9.633394e-09
60	0x3d608942	0.0548184
61	0xbe22ec0d	-0.15910359
62	0x3dff283b	0.12458845
63	0x3e1cd64d	0.15316124

layer2.weight f4 [64, 64]
0	0x3d19932c	0.03749387
1	0x00039f5e	3.32677e-40
2	0xa6c897c2	-1.3918922e-15
3	0x80012187	-1.03863e-40
4	0xbca9c28e	-0.020722654
5	0xbc0c105e	-0.008548824
6	0x32a40be3	1.9097518e-08
7	0xb2619541	-1.313066e-08
8	0x00057470	5.00947e-40
9	0x00001931	9.037e-42
10	0xb436183a	-1.6958884e-07
11	0xbbf52cdc	-0.0074821543
12	0x2f5acdc6	1.990009e-10
13	0xb8775d92	-5.8976533e-05
14	0xbbe555ab	-0.006998738
15	0xbd64cc7c	-0.055859074
16	0x8c7abcb0	-1.931608e-31
17	0x3b5125df	0.0031913442
18	0xbc7a8cf2	-0.015292393
19	0x3ca049f7	0.01956652
20	0xbd6d445f	-0.057926532
21	0x3d85e5ff	0.06538009
22	0xb763d32c	-1.3579422e-05
23	0xb3a4a5d5	-7.66701e-08
24	0xb9a1f5c2	-0.00030891417
25	0xbcdadce2	-0.026716653
26	0x3c0d7db0	0.008635923
27	0xbcaf9734	-0.021434404
28	0x00070588	6.44833e-40
29	0xbc373025	-0.011180912
30	0xbc06643f	-0.0082026115
31	0xbd80bc0d	-0.06285868
32	0xbd43c4ec	-0.04779522
33	0xbbee33d3	-0.0072693615
34	0x3c9bcc70	0.019018382
35	0x0000d038	7.4695e-41
36	0x963badcf	-1.5160584e-25
37	0x3d68704e	0.056747727
38	0x371f103f	9.480921e-06
39	0xbc94d1c0	-0.018166423
40	0x8001d6a0	-1.68828e-40
41	0xbd41bd5a	-0.04729972
42	0x3d7e9667	0.062155154
43	0x3c216971	0.009851799
44	0xbd4d5508	-0.05012992
45	0xb98b5b6f	-0.0002658027
46	0xbcb0a938	-0.021565065
47	0x3c4ac50c	0.012376081
48	0xa3105f90	-7.826492e-18
49	0x901a892c	-3.0476818e-29
50	0x800256e9	-2.14848e-40
51	0xb96069f2	-0.00021401772
52	0xbbce7a32	-0.006301188
53	0x3c07c360	0.008286327
54	0xb618f4b6	-2.2792206e-06
55	0x0006693c	5.88764e-40
56	0x39236571	0.00015582681
57	0x229b916a	4.2166797e-18
58	0x3d9ae5f7	0.075633936
59	0x800503c8	-4.60534e-40
60	0xbc13ca4a	-0.009020397
61	0xbd8a2dfb	-0.06747051
62	0xbc4c7e28	-0.01248125
63	0x3b391fb4	0.0028247656
64	0x0007901b	6.94544e-40
65	0x0001bb11	1.58942e-40
66	0x0000279d	1.421e-41
67	0x33b61a2c	8.479796e-08
68	0xadd37ffd	-2.4044761e-11
69	0x00052324	4.71784e-40
70	0x800501e5	-4.59857e-40
71	0xb45b7ee0	-2.0442121e-07
72	0x2a413b87	1.7162496e-13
73	0x00043ad1	3.88441e-40
74	0x8016ee85	-2.105946e-39
75	0xac2d96eb	-2.4668555e-12
76	0x89fdd5bc	-6.110853e-33
77	0xb40a97ef	-1.2907525e-07
78	0xb04c6c91	-7.436905e-10
79	0xb72ced84	-1.03073e-05
80	0x8004b615	-4.32661e-40
81	0x000012ca	6.74e-42
82	0x348d601b	2.6333223e-07
83	0x1daff082	4.6570794e-21
84	0x32ddd955	2.5826617e-08
85	0xb63d5095	-2.82101e-06
86	0x80062073	-5.62654e-40
87	0x00017b66	1.36103e-40
88	0x000165bb	1.2833e-40
89	0x0004ec38	4.52081e-40
90	0x21ddf592	1.5040544e-18
91	0xb01069f7	-5.253748e-10
92	0x00020e50	1.88805e-40
93	0x00016329	1.27407e-40
94	0x0f9f793b	1.5725307e-29
95	0x28f8d0d8	2.7624103e-14
96	0x3695d3fd	4.4652247e-06
97	0xad92375f	-1.6622868e-11
98	0xb83b6ac1	-4.4683697e-05
99	0x32a33542	1.8999916e-08
100	0x2ecfeb28	9.455042e-11
101	0xb67467ec	-3.6419324e-06
102	0x00014002	1.14797e-40
103	0x80058349	-5.06274e-40
104	0xb7419da1	-1.1540397e-05
105	0xaa9b9ca7	-2.764223e-13
106	0x00024c64	2.11075e-40
107	0x29639b51	5.053884e-14
108	0xa820ead3	-8.932704e-15
109	0x00060ff3	5.56734e-40
110	0x329edc84	1.84939e-08
111	0xaffbf933	-4.58337e-10
112	0x000133e1	1.10446e-40
113	0xa809bf53	-7.6465145e-15
114	0xb0594dbe	-7.905462e-10
115	0xb02a3cb2	-6.1931893e-10
116	0x00018ca7	1.42292e-40
117	0xa0546784	-1.7991349e-19
118	0x37a020b3	1.9088713e-05
119	0x800029b0	-1.4955e-41
120	0x8001c669	-1.63012e-40
121	0x9b170a7a	-1.2493812e-22
122	0x8000ea89	-8.4135e-41
123	0x8000fdac	-9.1e-41
124	0x9b813b80	-2.137971e-22
125	0x981194d9	-1.881596e-24
126	0xb5536a4b	-7.87583e-07
127	0x360c25c4	2.0883608e-06
128	0xbcac1c3f	-0.021009563
129	0x80002b4b	-1.553e-41
130	0xa18485b8	-8.980063e-19
131	0xb8103121	-3.437803e-05
132	0x3d0e6986	0.034768604
133	0xbd1621c3	-0.03665329
134	0xb3611619	-5.2406993e-08
135	0xa589075e	-2.3770704e-16
136	0xb1a7dc87	-4.8854107e-09
137	0xa7537533	-2.9345666e-15
138	0x35a2ddf0	1.2134533e-06
139	0xbc5508f6	-0.013002625
140	0x346c576c	2.2011017e-07
141	0xbb576809	-0.0032868406
142	0xbd36fd4b	-0.044675153
143	0xbaa0c7df	-0.0012266597
144	0x3036c4a9	6.6490685e-10
145	0x3c19cc67	0.009387112
146	0x3cb78a06	0.022404682
147	0x3d3e81ab	0.04651038
148	0x3d1287e9	0.035774145
149	0x3da1c3b5	0.07898656
150	0x0003a376	3.34145e-40
151	0x0001e5ae	1.74229e-40
152	0x3c1b6e72	0.009486781
153	0xbd0766db	-0.033057075
154	0xbc34d278	-0.011036508
155	0x3c44164e	0.0119682085
156	0xb273e12b	-1.4195659e-08
157	0xbcffc55b	-0.031222036
158	0x3d52904f	0.051407155
159	0xbba03c6a	-0.0048900144
160	0x3cd9ce4b	0.026587626
161	0x3d1c9c52	0.038235016
162	0xbc0e1647	-0.0086723035
163	0xb7b5009f	-2.157717e-05
164	0x323d97d1	1.1035767e-08
165	0x3da536af	0.08067071
166	0x377e2f5d	1.5150607e-05
167	0x3b96c56c	0.0046011712
168	0x08a67775	1.0018846e-33
169	0x3d142a4c	0.03617315
170	0xbd7eb230	-0.06218165
171	0xbb57210a	-0.003282609
172	0x3c5cd799	0.013479137
173	0x3c0f318d	0.008739841
174	0x3d4265bc	0.047460303
175	0x3cf0e639	0.029406654
176	0x382bb11e	4.093453e-05
177	0x3256019d	1.2456806e-08
178	0xbbac1794	-0.005251834
179	0xbbb17013	-0.0054149716
180	0x3d53b38e	0.05168491
181	0xbd528bb5	-0.051402766
182	0x0000bc9f	6.7664e-41
183	0x2804301e	7.337906e-15
184	0xbbde6223	-0.006786601
185	0xae11b2af	-3.3127886e-11
186	0x3daf0a44	0.0854688
187	0xb460bc89	-2.0930214e-07
188	0x3cab0089	0.020874279
189	0x3cf9b5c8	0.030482188
190	0xbd25dd38	-0.040494174
191	0x3d5868a7	0.05283418
192	0x3d7ebd97	0.062192526
193	0x2ced0d66	6.7374327e-12
194	0x381a4dbd	3.678886e-05
195	0x00012c58	1.07743e-40
196	0x3ca21dc1	0.019789578
197	0x3d5a043d	0.0532267
198	0x369f1a9d	4.7416675e-06
199	0xaf914471	-2.6423977e-10
200	0x2f7b197f	2.2837375e-10
201	0x35edee2f	1.7727197e-06
202	0xa8f40ee7	-2.7095905e-14
203	0xbac277e6	-0.0014836758
204	0x38345608	4.2995467e-05
205	0xb86c5844	-5.634899e-05
206	0xbb189de2	-0.0023287465
207	0x3c93efa1	0.0180586
208	0x2abb9bf1	3.332608e-13
209	0xb9579633	-0.00020559951
210	0x3bcaefe9	0.0061931503
211	0xbbc055ca	-0.005869602
212	0xbccd6ecf	-0.025077252
213	0xbd8e19cb	-0.06938513
214	0xb7ef8473	-2.8552697e-05
215	0xb7fadbb9	-2.9904639e-05
216	0xb95d7600	-0.00021120161
217	0x3d809810	0.062790036
218	0xbc36f201	-0.011166097
219	0xbd19022b	-0.037355583
220	0x32b13aef	2.0632312e-08
221	0xbb81dc5f	-0.003963038
222	0x3c7a544d	0.015278888
223	0xbbc0ced4	-0.005884031
224	0xbb6c87ec	-0.0036091758
225	0xbca6993f	-0.020336745
226	0x3b95e798	0.0045747273
227	0x309ce8d8	1.1416672e-09
228	0x0000123f	6.545e-42
229	0xbc461f95	-0.012092491
230	0x33989e32	7.106827e-08
231	0xb85d5831	-5.277264e-05
232	0x000783a9	6.90079e-40
233	0xbb4124dd	-0.0029471435
234	0xbc12b0a9	-0.008953252
235	0x3d38c129	0.045106087
236	0xbd01400a	-0.031555213
237	0xb97cc1fb	-0.00024104856
238	0xbd969b4c	-0.07353839
239	0xbbbedbdd	-0.0058245496
240	0x8002beb1	-2.52078e-40
241	0x800116e2	-1.00044e-40
242	0x3745d147	1.1790841e-05
243	0x2de66277	2.61917e-11
244	0xbbb91d9e	-0.0056492826
245	0x3b6f3445	0.003649966
246	0x37bdb378	2.2614127e-05
247	0xa473fdba	-5.290714e-17
248	0x36917b11	4.3356636e-06
249	0x2a4030cf	1.706996e-13
250	0xbc1483b6	-0.009064605
251	0xb3d81896	-1.0062756e-07
252	0xbc72f3f3	-0.01482867
253	0xbbc9b3ac	-0.0061554518
254	0x3d532170	0.05154556
255	0xbcbe538b	-0.023233196

layer2.bias f4 [64]
0	0x3d806b92	0.062705174
1	0xb1266031	-2.4210858e-09
2	0x3c68d357	0.014210544
3	0x3cd13434	0.025537588
4	0x3da56031	0.08074988
5	0x0003ad25	3.37619e-40
6	0xbc903f7c	-0.017608397
7	0xbc51380c	-0.01276971
8	0x39abecb4	0.0003279202
9	0x3b4bfee3	0.0031127266
10	0xbbef04fb	-0.007294295
11	0xbc809cde	-0.0156998
12	0x3c5ff0bd	0.013668236
13	0xbd061953	-0.032738995
14	0x3d388cd7	0.04505619
15	0x23b686f5	1.9789636e-17
16	0xb900bac6	-0.0001227661
17	0x3c9a354b	0.01882424
18	0x3cdfb3c4	0.027307399
19	0xb3b487d4	-8.40661e-08
20	0x3d6e30bc	0.058151945
21	0x3cdd20c5	0.026993165
22	0xb0639801	-8.279813e-10
23	0xbc6faf72	-0.014629232
24	0x3ca0c6ff	0.019626139
25	0x3c214a98	0.009844445
26	0x3d741b56	0.059596382
27	0x80003916	-2.0479e-41
28	0x3c7d0ea7	0.015445388
29	0xbc400e18	-0.01172211
30	0x3a86c373	0.0010281637
31	0x85551a71	-1.00200684e-35
32	0xb62d35e2	-2.5810373e-06
33	0x3c73087c	0.014833566
34	0x3cce8620	0.02521044
35	0x2f915837	2.6438027e-10
36	0xbc8074c6	-0.015680682
37	0x3bf9b48e	0.0076204007
38	0x3d850a6b	0.06496128
39	0x3864ba09	5.4532695e-05
40	0x3be1f737	0.0068959254
41	0x3ce0298f	0.027363567
42	0x3cd3c22e	0.025849428
43	0x3d8345c3	0.0640979
44	0x3ce42bce	0.027852919
45	0x3c45bd0e	0.012069
46	0xbc576a7a	-0.013147945
47	0x3d3ce827	0.046119835
48	0xbbd53727	-0.006506819
49	0x357dd609	9.4561307e-07
50	0x34f1dfd6	4.505261e-07
51	0x3cb5e60b	0.02220442
52	0xb7bcbb6e	-2.2498625e-05
53	0x80032822	-2.89903e-40
54	0xbd1b8635	-0.037969787
55	0xbc0bd9d3	-0.00853582
56	0xbbe261cd	-0.0069086314
57	0x3bed5c38	0.0072436593
58	0x2c2d5747	2.4633227e-12
59	0x35332ce8	6.6748044e-07
60	0x91d1929e	-3.3064746e-28
61	0xb5dc2632	-1.6402394e-06
62	0xbc85b92e	-0.016323652
63	0xbd51f13d	-0.051255453

layer3.weight f4 [1, 64]
0	0xbd980e41	-0.07424594
1	0x36bddc4c	5.658285e-06
2	0x3db1929c	0.08670542
3	0xbcf381a7	-0.029724909
4	0x3dc373c9	0.09543569
5	0x36bc05cc	5.6035115e-06
6	0xbd91639b	-0.07099076
7	0xbc3ee116	-0.011650344
8	0xbb050308	-0.0020295996
9	0x3c78bfe2	0.015182467
10	0xbd22e385	-0.03976776
11	0xbdb722aa	-0.089421585
12	0x3d34ebae	0.044170074
13	0x3de40198	0.111331165
14	0x3e0424d6	0.12904677
15	0x34f72d8d	4.6040478e-07
16	0xbb37fcdb	-0.0028074298
17	0x3cb9af9c	0.022666745
18	0x3dc9682b	0.098343216
19	0x34809cab	2.395585e-07
20	0x3de91b0d	0.11382113
21	0x3d890aac	0.066914886
22	0xb97de39b	-0.0002421275
23	0x3dc03c6c	0.093865246
24	0x3dca136f	0.09866988
25	0x3cb9fd4a	0.022703785
26	0x3d7d3720	0.06182015
27	0xa9a6b0bd	-7.40254e-14
28	0x3d10e975	0.035378892
29	0xbd25293f	-0.04032254
30	0xbd29826c	-0.041384146
31	0xb44c7f71	-1.9045343e-07
32	0x37722a81	1.443422e-05
33	0x3cdb7900	0.026791096
34	0x3d93eaaf	0.07222497
35	0xa92a2911	-3.7783202e-14
36	0xbdc65425	-0.09684018
37	0x3ca61903	0.020275598
38	0x3e4391b2	0.19098547
39	0x3921e8b5	0.00015440847
40	0x3d181bff	0.037136074
41	0x3cef5b74	0.029218413
42	0x3da6f4dc	0.08152172
43	0x3e40f571	0.18843628
44	0xbd8a97d5	-0.06767241
45	0x3d1ee7e3	0.038795363
46	0xbbd2a2e1	-0.006428108
47	0x3e4a9ec2	0.19787124
48	0xbd392a30	-0.04520625
49	0x8003e83b	-3.58815e-40
50	0x8001577b	-1.23218e-40
51	0x3d99ac6a	0.075035885
52	0xb9280732	-0.00016024409
53	0xb15534f4	-3.102568e-09
54	0x3d8614ad	0.06546912
55	0xbd3c2bd3	-0.04594023
56	0x3cff92e1	0.031197967
57	0x3ca2ea39	0.019887077
58	0x369a3e51	4.5968122e-06
59	0x3620aba2	2.3941761e-06
60	0x90c6e587	-7.845087e-29
61	0x828ebc8a	-2.097324e-37
62	0xbbbbeefa	-0.0057352753
63	0xbd22f6d3	-0.03978617
