uncertain/Walker2d-v2/normal_actor.pth (torch_old, 23814 bytes, 6 tensors)

l1.weight f4 [64, 17]
00000000: 6aa2 a13f d1fd b1be c1b5 b4bd 3b07 b23f
00000010: bba2 463c eb0d 3040 2242 d7be 6bc2 313e
00000020: 0062 2f3f 3020 0bbe 6ade 16be a666 d63d
00000030: ccbb 04be 0b09 b3bb e669 c23c d968 333e
00000040: fdaf 21ba 2b9d e6be 7f1d ce3f 5880 b2bd
00000050: 9c7b 81bc 681b e93d 9871 0cbf 3847 04be
00000060: fd8b 80bf 38df 933e c3c5 073f f762 09be
00000070: c932 0e3e ea35 043c f83d 6f3c 65e3 823d
00000080: 28f6 babc eb3f 453b c112 113f 46cf 24bf
00000090: c5ff c63e fe89 a6be 7ea7 eb3e 1916 eebd
000000a0: c92c 403e 1fc1 fb3d 35ce f5be 1b00 0d3f
000000b0: 2a91 9eba 7650 66bd 2f69 ba3d a8c2 8e3c
000000c0: c142 db3d 2371 0abe bb09 513c b647 5ebf
000000d0: 2d70 7bc0 d1c0 ce3e d8f2 cd3c fcac 293c
000000e0: 867a 3ebf 2daf eebd 58ba 73bd 231e 7f3d
000000f0: 16b0 353e bbb3 63be a833 963d 2bd3 bd3b
00000100: 95f1 1dbb 1dcb ebbc eb05 273b 0c45 1f3c
00000110: 8aee 9b3f 280d debf f72b 36bf 00cf 3ebf
00000120: 3c7b 3ebd 554b ee3f 640d af3f b066 333d
00000130: 0047 b23d 1a1e 8d3d cb95 bf3d 330a 823d
00000140: ee4b 55bd b9a7 5c3c 2c1a 383e 2a2d 5a3d
00000150: f3de 8bbc d91d aa3d 3f34 05bf de91 4abf
00000160: 07ac 96bf fd3c a1be 288e e2be de77 84bf
00000170: e5d7 ed3d b303 39be 2fa4 47be 314e f7bd
00000180: 2f9d ce3e c264 a0bd 73da d8bb b10c e2bd
00000190: 9e08 943c e43b 75bd 3109 f3be 188a 1fc0
000001a0: ed3b aa3f 7fd8 d8be beda 9d3e 4221 c83e
000001b0: f073 c03e a1fd 58be 0eb1 8abe 4689 fa3e
000001c0: 20dc 7e3e c598 33bd 6b44 c23d 5548 b73d
000001d0: 99ad afbc af70 223d fb78 60bc d164 0c40
000001e0: 8e71 87bf 900c 5abf 7efb b2be 1238 97be
000001f0: 24d6 1b40 3562 163f df58 a63c 5e73 c5be
00000200: 5acb db3e 9f3c bb3a cc76 c7bc ef6f 003d
00000210: 5fda c8bc c636 1c3d 1c05 56bd 8e59 ed3c
00000220: 6773 a73e c6b2 65be d2f9 cfbf d0e6 b3bf
00000230: 42f8 b1be 0a55 eb3f 45db b23f 5fcc 593f
00000240: 71cb d3bd 5fc0 b33e 1460 633d c1b3 c43c
00000250: 36d9 9cbd bdf8 b63b c6fd 93bd 8cf7 083e
00000260: 97ec 773b 322c fabf e924 7540 db24 d9bf
00000270: 25d2 cfbe ab0a a2be 3b85 c2bf 7c3c 0fbf
00000280: e84a 7e3d 591e f23d bb81 2abd faf1 983d
00000290: 9040 f4bd dcf1 213e 7032 d53b 5240 9fbc
000002a0: c8fe 42bd 19cf 97bb 0db2 89bf 8a8b 70c0
000002b0: a402 d93e 4e3f 40ba 0a45 43bd 42b7 b93f
000002c0: 283f 45bd 6396 963e 2244 07bf addd adbd
000002d0: cc78 563c 4976 dbbd 4fbc 473d 5446 04bc
000002e0: 9b6b a43d 0676 84bc a194 9a3c a8e6 bcbd
000002f0: 4c35 1d40 ee39 923e f415 bdbf e913 863e
00000300: e396 35bf b2b7 703d 5988 63be ccbe a83e
00000310: 0049 27be dacc 253d e115 343e 7b26 283d
00000320: c69b 0b3d e6ad 81bd 2ac4 c1bd 910d 60bc
00000330: 862c aa3f b71e 093f 4b8b ba3e 354f 91bf
00000340: 26e1 193f a30c 8a3d 7b74 f73e cbc5 dcbc
00000350: c2cf b53d 009c 503e 5ab0 58be 10df 3d3e
00000360: 782f 00be c212 433d 2c8f 20be 5dd5 c5bc
00000370: 0f55 703d 34a5 a8be a725 6d40 336a 8ebf
00000380: 9b14 9bbe 1251 de3d 7325 97bf cd3f bdbf
00000390: 27a5 babe 290b a13e 5831 1abe c2e8 543e
000003a0: 0b3f e3bd 7038 16bd d6a3 643c 9b2b 6b3d
000003b0: 4d15 1abd cd08 ffbb 0aff 3b3f 2280 5dc0
000003c0: 008c ac3f b65d 363f 75e5 f7bd b00c af3e
000003d0: acf7 e13e 4930 a2be 08ac c0be 9406 05be
000003e0: 975e 6e3d 0f81 8c3c 40f3 033c 7853 803c
000003f0: 506d 623c 8bb2 ac3c ad77 0fbd 599b 2540
1.262769 -0.3476396 -0.08823729 1.3908457 0.012123759 2.7508495 -0.42042643 0.17359321
0.6850891 -0.13586497 -0.14733282 0.104687974 -0.12962264 -0.0054637245 0.023732137 0.17520465
-0.0006167887 -0.45041785 1.6102751 -0.08715886 -0.015806012 0.113821805 -0.5486083 -0.12917793
-1.0042721 0.2888124 0.53036135 -0.13416658 0.1388656 0.008069495 0.014602177 0.06391028
-0.022822455 0.0030097913 0.5666924 -0.64378774 0.38867012 -0.32527155 0.46026224 -0.116253085
0.18767084 0.12292694 -0.48008886 0.55078286 -0.0012097706 -0.056229077 0.091020934 0.017426804
0.10706092 -0.1351972 0.012758668 -0.8682817 -3.9287217 0.40381482 0.025140211 0.010356184
-0.74405706 -0.11654506 -0.059503883 0.0622846 0.17742953 -0.2223653 0.073340714 0.0057929954
-0.0024100293 -0.028783375 0.0025485705 0.009721052 1.2182171 -1.7347765 -0.71160835 -0.74534607
-0.046504244 1.861674 1.3675961 0.043799102 0.087049484 0.06890507 0.093547426 0.063496016
-0.052074365 0.013467723 0.17978734 0.053265728 -0.017074084 0.08306474 -0.52032846 -0.79128826
-1.1771249 -0.31491843 -0.44249082 -1.034908 0.11613444 -0.18067817 -0.19496225 -0.12075461
0.40354297 -0.07831718 -0.006617838 -0.11037577 0.018070515 -0.05987157 -0.4746795 -2.4928036
1.3299538 -0.42352673 0.3083095 0.39087874 0.37588453 -0.21190502 -0.27088207 0.48932856
0.24888659 -0.043846864 0.09485706 0.08949343 -0.021445083 0.039658245 -0.013700719 2.1936533
-1.0581529 -0.8517542 -0.34957498 -0.29534966 2.434945 0.587436 0.020306049 -0.3856458
0.42928582 0.0014285034 -0.024348639 0.03135675 -0.02451819 0.038138174 -0.052250966 0.028973367
0.32705233 -0.22431478 -1.6248114 -1.4054813 -0.34759718 1.8385327 1.3973166 0.8507747
-0.10341538 0.35107705 0.05551155 0.024011495 -0.07658617 0.005583851 -0.07226138 0.13375682
0.0037830228 -1.9544737 3.8303778 -1.6964372 -0.40590015 -0.31648764 -1.5196909 -0.55951667
0.062083155 0.118221946 -0.041627627 0.07468028 -0.11926377 0.15814918 0.0065062568 -0.01943985
-0.04760626 -0.0046328423 -1.0757462 -3.7585168 0.42384827 -0.0007333652 -0.047673263 1.4509051
-0.048155934 0.2941161 -0.5283834 -0.08489547 0.013090324 -0.107159205 0.04876357 -0.008073408
0.080283366 -0.01616956 0.0188697 -0.09223682 2.456378 0.28559822 -1.4772325 0.26187065
-0.7093336 0.058768936 -0.22219981 0.32958066 -0.16336441 0.040478565 0.17586471 0.041052323
0.034084104 -0.063319966 -0.094612435 -0.0136751095 1.3294837 0.5356249 0.36434397 -1.1352297
0.60109174 0.067406915 0.48331055 -0.026949784 0.08877517 0.2037201 -0.21161023 0.18542123
-0.12518108 0.04762531 -0.15679616 -0.024149591 0.05867487 -0.3293854 3.705423 -1.112616
-0.30289158 0.10855307 -1.1808304 -1.4785095 -0.36454126 0.31453827 -0.15057886 0.20791915
-0.11096009 -0.036674917 0.013955077 0.057414632 -0.03761797 -0.0077830316 0.73436034 -3.4609456
1.3480225 0.7123674 -0.12104312 0.34189367 0.4413427 -0.31677464 -0.3763125 -0.1299079
0.058195677 0.017151384 0.008053601 0.015664801 0.013820007 0.02108123 -0.03502624 2.5876067

l1.bias f4 [64]
00000000: d3f5 1c3f 55c7 413f a315 093f d82d d7bf
00000010: 97eb 843d 8769 c3be 1dce 8b3f 63d2 993f
00000020: ffb9 b03f d2b5 103f 48c5 4a3f 132a 943e
00000030: 0e59 803f bfa9 44bf 022c 213f d11b a93e
00000040: b8e3 c3bf c54e c93e b574 ad3d efe7 ecbe
00000050: f487 07c0 9826 9cbf 0f58 cc3e 8f01 053f
00000060: 5094 b5bf 2f29 a7bf 1867 0940 d6a5 583f
00000070: 5881 353f 2549 a83f c755 a23f 7b84 893f
00000080: f077 0abf 09d9 dcbf 9517 c93f 8dd3 f43e
00000090: 032c c43f 2a36 183e 9a9a e8be f5e1 7b3e
000000a0: 1741 b1be 5c01 df3f 6229 983e ef34 3a40
000000b0: 6d57 a63f d1bf b03f 0a9a 963f 59b8 d63f
000000c0: 330d 0b3e 37e4 853e cb93 223f 290f 5140
000000d0: de39 1140 3798 aabf 0d49 5a3f e462 8e3f
000000e0: e513 b13f 2401 1abf 17a4 e63e d5f4 8bbf
000000f0: 2de7 f43f 2381 cabf 89a3 42bf b47b 17bf
0.613126 0.7569478 0.5354864 -1.6810865 0.06490248 -0.38166448 1.0922276 1.201733
1.3806762 0.56527436 0.7920728 0.2893835 1.0027177 -0.7682151 0.62957776 0.33029035
-1.5303869 0.3931791 0.08469526 -0.462707 -2.117673 -1.2199278 0.39910933 0.51955503
-1.4185886 -1.3059443 2.1469173 0.84628046 0.7090049 1.3147322 1.2682427 1.0743555
-0.5408926 -1.7253734 1.5710322 0.4781765 1.5325931 0.14864412 -0.45430452 0.24597915
-0.34619972 1.742229 0.29719073 2.9094808 1.299543 1.3808538 1.1765759 1.6775008
0.13579254 0.26150677 0.63506764 3.2665503 2.269157 -1.3327702 0.85267717 1.1123929
1.3834196 -0.6015799 0.45047066 -1.0934092 1.9133049 -1.5820659 -0.76030785 -0.5917313

l2.weight f4 [64, 64]
00000000: 0793 183f e896 d53e a075 6fbd fe94 9bbf
00000010: 0826 d9be 713d 04be ae51 c23d b35c 7dbd
00000020: 8077 d9bd 94e6 07bf 36c2 963d 73f6 6abe
00000030: c3f4 f53e 148d b1be 2722 37bd 2e89 19bd
00000040: 7889 8abd 14a0 153e 9d2d e8bc a6c6 83bf
00000050: 986f 123f d63d c33e 1679 ecbe 59a2 a2be
00000060: 2d03 52bf f7bb 233f 451f 41bd 8b60 823d
00000070: ba72 abbe 6ec9 26bf 9a62 e4be 3c3e 5ebd
00000080: 2ef6 743e 2584 ac3e ac77 1f3e d4bf 183d
00000090: b406 173e f79d 53bf 9948 33bf c424 353e
000000a0: f325 943e 7169 7fbe 28d1 9cbe 1025 1cbe
000000b0: bdc6 0a3e a221 b2be 2b42 f8be 0198 3fbd
000000c0: 3b3b b93e b7bc 863f a1ff 9a3d 1baf 203f
000000d0: d8e3 3a3f 558a b3be 41bd be3e 6f3d 173e
000000e0: cabb 1abe 35cf f8be 2359 f6be 152c d63e
000000f0: a379 8abf ef2f b4bd fc1b 25bf f90d 47bf
00000100: 5690 b0ba c006 b1bc 4733 893d 5bf2 a23d
00000110: 8a1e f8bc c451 bb3e 2550 073e be3d 91be
00000120: ec9c bf3e ff09 803d d8ba 7cbe 1405 37be
00000130: 02c4 593e b3f4 f1be 1cff a3be 9e4f 3ebe
00000140: 8012 b43d 95d8 bc3e 64a6 563d a43a b13e
00000150: 8bf5 ec3e a265 c03d fd7a 993d 10c2 9abe
00000160: 74e2 8f3e 4641 7a3e 0b98 a63e f29e 373f
00000170: 3e56 79be b5f8 863e 39cf 69be 6db6 12be
00000180: c00c df3e 7a14 0a3f 0645 93bd ebe9 82bd
00000190: e142 95bb c607 7e3d 9c84 f63e 3b79 1ebe
000001a0: 1c83 e93e 4c8a 16be 660f 083f ccdb 3e3e
000001b0: b7d5 6a3f 4bc6 4abd dcaa 663e 17ac a1be
000001c0: fd06 973d 3bf0 d2be a08e 37bd 7def 9a3e
000001d0: 0273 253e 07ec 78be 4cc4 03be 40a8 a8bd
000001e0: c516 853e 654d f03d cb2b d63e 0656 24be
000001f0: 8b2d c73e 5762 d73d 1242 6d3e 21b1 9cbe
00000200: 2da8 4ebf f2a5 8c3e 919f d1bd 171d fd3e
00000210: a272 d6be 7a97 f43e b25a 3c3d d9d3 6ebe
00000220: 8e3b ee3e 77bd e9be 3db2 4ebe a0a4 4bbe
00000230: 7891 fc3e c04f 10bf cf84 8a3e 8a17 f93e
00000240: 7520 babf 6a2b 0e3f 7f88 d7bd fac0 233d
00000250: 9df0 823f a3dd e43d 3288 2dbf baa5 2b3f
00000260: 1e77 183f eed2 debc 6f27 803e f425 ec3d
00000270: 15ec 223e 11e9 213e 5675 e8be 0110 0c3f
00000280: cd8b a33e 8f86 e3bd 5bd9 3abf b769 36bf
00000290: 9e9f 7fbf 69af 773f 8c10 bd3c 03b1 09bf
000002a0: 252e e63e fe57 f33d 6096 c23e 1a47 ba3e
000002b0: 0da3 203f 2b1f b2be f0be e33e 3a9b 3a3f
000002c0: 3683 c6b9 e748 acbf bcd6 0d3e af7f 45bf
000002d0: 5ca6 f83e d535 9cbc db76 4dbd e27b 013f
000002e0: fe50 263e c14d 95bf ff3b 143e 32a7 0e3e
000002f0: 9668 07bf 5d08 83bf e03b dcbd a9e0 2d3e
00000300: 5192 133c e3cd 273d 5601 e3be 0487 01bf
00000310: 6fa0 0a3f ace9 2bbe f817 eebe 4d6a 74bd
00000320: 9ac4 a73e de93 bf3d 6498 7cbe b1fc f23e
00000330: 0b45 1f3e b592 d23e 28e9 0d3e ce35 a73e
00000340: 87b7 2b3f 1a75 fbbe c49b 5e3e cb0f fe3c
00000350: 54c3 163d 54e2 523f a206 92bd b39f 513f
00000360: 43ab cdbd 4e74 19bf 0d7b eb3e aa1e 5dbd
00000370: 2219 b9bd 469d 1e3e d4a0 fa3d 1ec8 f93d
00000380: f7d5 25bd 7d37 893e 4b42 efbe ddec c93e
00000390: ef1c 84bf 0634 f53e 5062 0abf 0282 89bf
000003a0: 21ab 033f 8a26 d93e 0497 793d 0600 e23c
000003b0: fbfb 933e f573 67be 74cd b73b 87a2 ac3d
000003c0: 24d0 a93e e906 713f a284 0ebd f1ad 32bf
000003d0: 2c29 f03e c332 a83e c11c 93be a000 773d
000003e0: 5405 4cbe d380 c3bd fd73 da3e 1e3e 463e
000003f0: 7107 eabe 6024 9abd dc52 3dbe 7c39 5fbe
0.59599346 0.41716695 -0.058461785 -1.2154844 -0.42411828 -0.12914063 0.094882354 -0.061855983
-0.10618496 -0.5308621 0.073612615 -0.22945575 0.480383 -0.34677947 -0.044710305 -0.03748434
-0.06764501 0.14611846 -0.028342063 -1.0294998 0.5720153 0.38133115 -0.4618613 -0.31764486
-0.82036096 0.63958687 -0.04714896 0.0636607 -0.33485967 -0.6515111 -0.44606477 -0.05425857
0.23922035 0.33694568 0.15572995 0.037292317 0.14748651 -0.8266291 -0.7003265 0.17689806
0.28935203 -0.24942566 -0.30628324 -0.15248513 0.13552375 -0.34791285 -0.48487982 -0.04677582
0.36178002 1.0526341 0.075682886 0.6276719 0.7300391 -0.35066476 0.37253764 0.14769529
-0.15110698 -0.48595586 -0.4811488 0.41830507 -1.081837 -0.08798205 -0.64495826 -0.77755696
-0.001347075 -0.021609664 0.066992335 0.07956382 -0.030288 0.3658582 0.13214166 -0.28367418
0.3742441 0.062519066 -0.2468065 -0.17873031 0.21266177 -0.47257003 -0.3203057 -0.18585059
0.08792591 0.3688399 0.052404776 0.34615052 0.46281084 0.09394385 0.07494161 -0.30226183
0.28102458 0.24438962 0.32537875 0.71726906 -0.24349305 0.26361623 -0.22832955 -0.14327402
0.43564415 0.53937495 -0.071908996 -0.063922726 -0.0045550917 0.062019132 0.48148048 -0.15475933
0.4560784 -0.14701194 0.53148496 0.18638533 0.9173235 -0.049505513 0.22526115 -0.31576607
0.0737438 -0.41198906 -0.044813752 0.3026084 0.16157153 -0.24308787 -0.1286785 -0.08235216
0.25993934 0.11733512 0.41830286 -0.1604844 0.38901934 0.10516804 0.23169735 -0.3060389
-0.80725366 0.27470356 -0.10235513 0.49436256 -0.41884333 0.47771817 0.04598493 -0.23323001
0.46529812 -0.45652363 -0.2018518 -0.19887018 0.49329734 -0.5637169 0.2705445 0.4865077
-1.4541155 0.55534995 -0.105240814 0.03997896 1.0229679 0.11175086 -0.6778594 0.67049754
0.5955676 -0.027200188 0.25030085 0.115306765 0.1591037 0.15811564 -0.4540202 0.5471192
0.31942597 -0.111096494 -0.7298791 -0.7125506 -0.9985293 0.9675203 0.02307918 -0.53785723
0.4495708 0.118820176 0.38005352 0.3638237 0.62748796 -0.34789404 0.4448161 0.72893107
-0.00037863263 -1.3459748 0.13851446 -0.77147955 0.48564422 -0.019068638 -0.050162178 0.50579655
0.16241834 -1.1664354 0.14476012 0.13930967 -0.5289396 -1.0236927 -0.10753608 0.16980232
0.0090070525 0.040967833 -0.44336957 -0.5059664 0.5415105 -0.16788357 -0.46502662 -0.05967169
0.32767183 0.09354375 -0.24667507 0.47458413 0.15553682 0.41127554 0.13858473 0.32658237
0.67076916 -0.4911278 0.21739107 0.03101339 0.036807373 0.823766 -0.07130171 0.81884307
-0.10042431 -0.5994309 0.45992318 -0.05398432 -0.09037997 0.15489683 0.12237707 0.121963724
-0.040487256 0.26800147 -0.46730265 0.39438525 -1.032133 0.47891253 -0.5405626 -1.07428
0.51432997 0.42412215 0.060935035 0.027587902 0.28903183 -0.22602828 0.0056092087 0.08429437
0.3316661 0.9415117 -0.034794457 -0.69796664 0.46906412 0.32851228 -0.28732875 0.06030333
-0.19923908 -0.09546056 0.42666617 0.19359633 -0.45708802 -0.07526469 -0.1848864 -0.21799272

l2.bias f4 [64]
00000000: dff4 903d a8d0 e13e 0f8b bdbe 4eac f0be
00000010: 07b9 093f b48f f93d 142f 2a3e fba6 493e
00000020: 4bdd d8be f0cf 853e 76ed 2e3f a4a1 043f
00000030: 2c90 80bd 1a77 153e 2265 663f d2c7 5f3e
00000040: 9a72 39bf 737f 153f 82ce 90be be49 87bf
00000050: d67b 173f c7ae b6be 1b76 8a3d fb8f 513f
00000060: 77b3 aabe 230b 54ba a977 4fbf 2820 37bf
00000070: daed 023f f650 b1bc f8d2 193f 119f c83d
00000080: 7940 efbf 8ea2 08be f246 cabe 1788 80bf
00000090: 3b01 cdbe c29e 473f ffc8 39bf f035 8a3e
000000a0: 25e6 303f f491 813e 2107 873e 50d6 2dbf
000000b0: b769 fe3e c15c 9dbe 5dcb 753f a151 06bf
000000c0: 540a eebe 45cd 44bf a7f7 19be 619a 473e
000000d0: 8c16 ea3e 362f 3cbf 220f 2b3f 8bd5 3f3e
000000e0: bc46 6cbf c46e eabc b3f9 dd3e 17d8 983d
000000f0: 036f 39bd 6490 a7be 13fb 133f b13b 533f
0.070779555 0.44104505 -0.37020156 -0.47006458 0.53797954 0.12185612 0.16619521 0.19692604
-0.42356333 0.26135206 0.68331087 0.51809144 -0.062774986 0.14596215 0.89998066 0.21853569
-0.72440493 0.583976 -0.28282553 -1.0569379 0.59173334 -0.3568022 0.06760808 0.8186032
-0.33340046 -0.00080888177 -0.8104196 -0.7153344 0.5114418 -0.02164505 0.6008754 0.097959645
-1.869155 -0.1334326 -0.39507252 -1.0041531 -0.4004 0.7797662 -0.7257232 0.26994276
0.6910117 0.25306666 0.26372626 -0.6790514 0.4969003 -0.30734828 0.9601343 -0.52468306
-0.46492255 -0.76875716 -0.15035878 0.19492485 0.45720327 -0.7350954 0.66819966 0.18733804
-0.9229543 -0.02861727 0.43354568 0.07463091 -0.045271885 -0.3272735 0.57804984 0.82512957

l3.weight f4 [6, 64]
00000000: a291 00bf 2ca8 97be 1aa9 123f b528 023b
00000010: b583 0d3f c76b 09bf ea33 e33e 9cf3 a2be
00000020: 9e39 35be 1097 243e 2518 a63f c05b f6be
00000030: 86c0 973d 0e3c 2abd b2f8 a43f 5ec5 033f
00000040: 6d4c 553f 43ed c0bf 3382 0abe 5647 8fbe
00000050: fcd4 ad3e ceb5 96be 481e 13be a08c d4bf
00000060: 4ee3 96bf 1347 863d e332 63bf 5843 f33e
00000070: 5f53 31bf 5152 093f 28bf 223f e89b debe
00000080: db5e 2c40 0207 ce3f 2212 eebe 0239 adbf
00000090: 6e25 ecbe 3418 063f 6ef6 1bbf c742 fd3e
000000a0: 16ca 813f dc32 6d3e d56e 013e c599 563f
000000b0: bdba 6bbf 9b31 0dbf ff78 04bd c51c ffbe
000000c0: 412a 05be de8b 853e 67bf 843e 3ccc 4f3e
000000d0: d128 783f 508b 87bf 9876 9f3e 8dfe 13bf
000000e0: 71af f9bf 045e c03f 0206 5bbe b1e5 213f
000000f0: 1d32 de3e 4d07 26bf 0e46 42bf 3d5d 9b3f
00000100: 7805 04bd 0176 e93e 8d69 87bc e519 96be
00000110: a3a0 80be 2bf6 183f 2c92 7d3d ade9 68be
00000120: d4ba 7f3f b449 bf3e d7a7 81bd 6ea4 823f
00000130: 50c8 2d3f f286 22bf 99f0 4abe 7a68 d8be
00000140: 0431 943e 1eae 7c3f 9bf3 a33f 7812 babf
00000150: 6d83 acbd 84b4 703f 6959 e9be b66f 343f
00000160: 02e7 e53e 6ec6 9dbd 9fbf 35bf 6f64 fcbe
00000170: 42ae f23e d594 acbf b501 163f a06d 163e
00000180: 9644 1940 000d 0bbf 267e 51bf 67b9 b63f
00000190: e6c5 1640 be27 793f 4374 07bf ff2a eb3d
000001a0: c689 a33f a834 9cbf 7172 673f 55df 64bf
000001b0: 05a4 883d f9a4 ec3e f9f3 43bf c3b3 bc3f
000001c0: 2dc8 823f d23b 7bbf 68ac 0c3f dc44 2bc0
000001d0: 39e1 b53e f853 1d3e 21f3 b0bf 8e98 563f
000001e0: 91f1 b73e 85f9 c63d 7704 e03e 98a1 0abf
000001f0: fe46 dbbe 03f2 19bf 3a34 2fbf f7d7 2dbf
00000200: 7eaf d9be 4fdc 5ebf 212c d73f 3b11 82bd
00000210: 56fa 6fbf a194 93be 03b6 a43e 8d79 8fbf
00000220: bc85 993d e249 233f 22ce fc3d f408 bc3e
00000230: c2a3 5fbf a00f 9e3e 596d 2f40 caf4 53bf
00000240: 598e d03e 7c25 4ebf 95c4 e13e 9f7f a13e
00000250: 6548 bebf d2a9 0b3d 17c2 52bf 363a 76bf
00000260: 50bb e03f c8ff a03d 59b8 d0be d8d7 c7bf
00000270: 5bdc 973e 84d6 3cbf 5fee afbe 6bac 0abf
00000280: e1a0 c23e 47a4 9d3f 305f ec3e f559 8d3f
00000290: d255 f83d d81e aa3e 7a1b 2abf 22b9 893f
000002a0: dc45 313f c4a2 49bf e66d 8d3e 6482 06bf
000002b0: ea5b 243e 486e 92bf c150 b2bf fc0d 02bf
000002c0: e2e4 5ebf 5693 c53f b970 fb3f 97e2 203f
000002d0: 3dfb a73f 28ad ef3f edf8 b43f af82 01bf
000002e0: 5ebf b7bf 586c 67be d0bb c13f 69fe 3a3f
000002f0: ee00 db3f 3f6f 5dbf 866f a8be 5e88 32be
00000300: cd7a 72be 7d9a 503f 8dc5 efbe 6248 06bf
00000310: 4b87 2f3d d910 193f 3146 c03e 3278 94bf
00000320: 31f2 823d 246a 1d3e 4ac7 c93d 41bc 893f
00000330: 02a7 d63d 9e89 c63d 4b3c 823e 7845 4ebf
00000340: a964 10bf e05a 8a3c 7fec a23f 7357 3fbf
00000350: 6f0f 83be 0855 103f 18b1 6cbd 8f0c 0a3f
00000360: bd36 eb3e a746 34bd 81dd eb3e 66a6 3bbf
00000370: 756a 123f f4fd 32bf 19e7 ea3e 7c52 8ebe
00000380: 89a9 1440 975e 44be 3a2b f23d e972 723e
00000390: bcb9 a03f 9319 cbbe 021b 85bd 1eb0 4f3f
000003a0: 1b84 753e e514 b73c d4d6 513e c9ad 0ebc
000003b0: 1599 283e ea79 a93e e545 823f 02b8 393f
000003c0: 3420 3abc c458 43bf 2930 17bf 1d36 083f
000003d0: fb4e 013e c3c8 0ebf 5448 ecbe 0905 da3e
000003e0: bbcd 3cbe e2d7 ac3f f44c 033f 916b 0d3e
000003f0: 3f1c e5ba c3ae 7ebe 4089 38bf 6583 9a3d
-0.5022222 -0.29620492 0.5728928 0.001986069 0.55279094 -0.5368008 0.44375545 -0.31826484
-0.1769776 0.16073251 1.2976118 -0.48116875 0.07409768 -0.04156118 1.2888396 0.51473033
0.8331974 -1.5072407 -0.1352623 -0.27984113 0.33951557 -0.2943558 -0.1436702 -1.6605415
-1.1788118 0.06556525 -0.8874952 0.47512317 -0.6926784 0.5364123 0.6357293 -0.43478322
2.6932895 1.6095889 -0.4649821 -1.3533022 -0.46122307 0.5238068 -0.60922897 0.4946501
1.0139797 0.23163933 0.12639935 0.83828384 -0.92081815 -0.55153817 -0.032341953 -0.49826637
-0.130044 0.26083273 0.25927278 0.20292753 0.9693728 -1.058939 0.31145167 -0.5781029
-1.9506665 1.5028691 -0.2138901 0.63241106 0.43397608 -0.6485489 -0.75888145 1.2137829
-0.032231778 0.45597842 -0.016529823 -0.2931663 -0.25122556 0.5975062 0.06190698 -0.2274539
0.9989445 0.3736092 -0.06330841 1.020643 0.6788378 -0.6348716 -0.19818343 -0.4226721
0.28943646 0.9870318 1.2808717 -1.4536886 -0.08423505 0.94025445 -0.45576027 0.7048296
0.44902807 -0.07703863 -0.70995516 -0.49295375 0.47398573 -1.348292 0.58596355 0.14690256
2.3948112 -0.5431671 -0.8183311 1.427533 2.3558288 0.97326267 -0.52911776 0.1148281
1.277642 -1.220357 0.90409 -0.8940328 0.06671909 0.46219614 -0.7654415 1.4742359
1.0217339 -0.98138154 0.5495057 -2.6760778 0.35523394 0.15364063 -1.3824197 0.8382653
0.35926488 0.09715561 0.43753406 -0.5415282 -0.428276 -0.60134906 -0.68439066 -0.6790766
-0.42516702 -0.87054914 1.6810342 -0.06350943 -0.9374136 -0.28824332 0.32170114 -1.1208969
0.07496211 0.6378461 0.12344004 0.3672558 -0.8735925 0.30871296 2.741049 -0.82795393
0.40733603 -0.80525947 0.44095293 0.3154268 -1.4865843 0.0340975 -0.8232741 -0.9618257
1.7557163 0.078612864 -0.40765646 -1.5612745 0.29660305 -0.73764825 -0.3436155 -0.5416934
0.38013366 1.2315758 0.46166372 1.1043078 0.12125744 0.33226657 -0.66448176 1.0759623
0.6924722 -0.78763986 0.27622908 -0.5254271 0.16050687 -1.1439905 -1.3930894 -0.5080259
-0.87068 1.5435588 1.9643775 0.6284575 1.3123547 1.8724718 1.4138466 -0.5059003
-1.4355276 -0.22599924 1.5135441 0.7304445 1.7109659 -0.86497873 -0.32897586 -0.17434832
-0.23679657 0.8148573 -0.46830407 -0.524542 0.042853635 0.5979133 0.37553552 -1.1599181
0.063938506 0.1537252 0.098524645 1.0760576 0.10481073 0.09694217 0.25436625 -0.8057475
-0.56403595 0.016889036 1.2728423 -0.7474281 -0.25597712 0.5637975 -0.057786077 0.5392541
0.459402 -0.04401269 0.46067432 -0.7330078 0.5719369 -0.6991875 0.4587944 -0.27797306
2.3228476 -0.19176708 0.11824651 0.23676647 1.2556682 -0.3966795 -0.06499292 0.8112811
0.23976175 0.02234883 0.20492107 -0.008708426 0.16464646 0.33100826 1.017758 0.725464
-0.011360217 -0.7630732 -0.5905786 0.5320757 0.12627785 -0.5577509 -0.46148932 0.42581967
-0.18437855 1.3503382 0.51289296 0.13810565 -0.0017479731 -0.24871354 -0.72084427 0.07544593

l3.bias f4 [6]
00000000: 2f1c b83e 10f8 55be 556b 26be 6d6d 713e
00000010: 18fd f83d 49b4 663d
0.35959002 -0.2089541 -0.16251881 0.23576899 0.12157649 0.056324277
