uncertain/Walker2d-v2/uncertain.pth (torch, 25375 bytes, 5 tensors)

layer1.weight f4 [64, 23]
-0.013777218 0.18065444 -0.04627856 -0.12939152 -0.01854248 -0.10722047 -0.134102 -0.08064761
0.13907285 0.020149954 0.116486736 0.13150457 -0.08751603 0.19872165 0.04635257 -0.040960975
-0.1692638 -0.040903356 -0.04650492 0.04775658 0.15743142 0.19670463 0.10865996 0.02830786
-0.2082517 -0.15783434 -0.13117518 0.09383869 -0.017957157 -0.09514941 -0.043077216 0.21243611
0.011974982 0.17451352 -0.16599897 -0.16851418 -0.1522153 -0.079658546 0.033766825 -0.18766525
-0.03232338 -0.058492262 -0.009283222 0.23950742 -0.1513946 -0.118915446 -0.05652964 0.15168968
-0.036193304 -0.077195086 0.058521815 0.08645357 0.05813308 0.19228172 0.08262389 -0.120143995
-0.050440896 0.18005285 -0.17874768 -0.04342485 -0.05215921 0.031202046 0.04384072 -0.013508492
-0.2249299 -0.095259 -0.19045854 0.10953519 0.1928887 -0.052037872 0.12823568 0.055838194
0.17408766 -0.18848155 0.1255949 0.079011954 0.21825321 0.18579872 0.017837856 -0.029136516
-0.12476701 -0.10266242 -3.9743212e-05 0.20506336 0.1163392 -0.16777454 -0.04943766 -0.04846129
0.006117129 -0.013017248 -0.15324402 0.1674269 0.18298866 -0.014175447 0.08246533 0.103580095
-0.06508597 -0.12393257 -0.10712216 0.047722828 0.20422061 -0.14376745 0.1561612 0.13580395
0.1132419 -0.052249547 0.1281761 0.15532865 -0.11583026 0.113557346 -0.08670287 0.06172801
0.023056759 -0.17211589 -0.009734961 -0.14043604 -0.078707024 -0.046478182 -0.08454026 -0.1190256
0.07387365 0.11738648 -0.00026967048 -0.018806076 0.10807424 -0.18388814 -0.18491898 -0.2161202
-0.034716144 0.053289957 0.015196252 0.11151687 -0.2128139 -0.08769378 -0.12045358 -0.17884295
-0.09447989 -0.08797955 0.04296195 0.030932562 0.062455308 0.1297471 0.027747659 0.044623986
-0.0036705942 0.05068 0.16378431 -0.0034117252 0.10718585 -0.04491881 0.18528989 0.20754449
-0.16430798 0.10035941 -0.094063014 0.16570376 -0.08452456 -0.12763388 0.054802954 0.15759875
-0.07220469 0.011369926 -0.052776802 0.049370933 -0.1364269 0.059227303 0.20369935 -0.16747274
-0.16577199 -0.02131298 0.114632465 0.18333463 -0.03067041 0.13663231 -0.03641884 0.060034253
-0.0245911 0.07720252 -0.14115486 -0.09340946 -0.07630256 -0.14435561 0.16275415 0.023713134
0.2278733 0.037385 -0.1488247 0.043877225 0.16368432 -0.122734584 0.105054125 0.09619568
-0.057793435 -0.14792106 0.13632144 0.03611761 -0.07989748 0.06666883 -0.04242492 0.15690121
0.05593105 0.072055936 -0.14053197 -0.025108252 0.02857475 0.14479838 -0.13293806 -0.14744179
-0.009952 0.11558658 0.021462314 0.09664716 -0.08503384 -0.13909821 0.021641992 -0.055856653
0.16394931 -0.040505387 -0.19539823 -0.18849428 -0.022099031 0.19664712 -0.13682584 0.034391627
-0.19774877 0.017939776 -0.16139491 0.0199116 -0.124071695 -0.06307564 0.13866924 0.00910063
0.060301587 -0.07053667 0.007460324 -0.022725549 -0.18293056 -0.06469111 -0.0053031472 0.09051183
0.079567544 -0.1903571 0.19233789 0.040445812 0.05822912 -0.19034119 -0.10302293 0.0024241046
0.029730557 -0.002597323 -0.11781293 -0.029314525 0.025103176 -0.06905022 -0.019381255 -0.053960774
00000000: d7b9 61bc 7afd 383e 968e 3dbd 367f 04be
00000010: 66e6 97bc 6896 dbbd 0952 09be 932a a5bd
00000020: 1d69 0e3e 8411 a53c 9990 ee3d 22a9 063e
00000030: 9b3b b3bd b07d 4b3e 31dc 3d3d b2c6 27bd
00000040: 7d53 2dbe 478a 27bd f17b 3ebd 679c 433d
00000050: b435 213e f06c 493e 1d89 de3d e3e5 e73c
00000060: ef3f 55be 539f 21be c952 06be 802e c03d
00000070: e31a 93bc b2dd c2bd bc71 30bd da88 593e
00000080: b732 443c acb3 323e a2fb 29be fb8e 2cbe
00000090: 54de 1bbe 0524 a3bd 154f 0a3d 522b 40be
000000a0: 8565 04bd 9595 6fbd a818 18bc 6f41 753e
000000b0: 3007 1bbe f189 f3bd a08b 67bd 8a54 1b3e
000000c0: 6e3f 14bd 7518 9ebd 92b4 6f3d 920e b13d
000000d0: f41c 6e3d 80e5 443e b736 a93d 0e0e f6bd
000000e0: 1d9b 4ebd c65f 383e a209 37be 41de 31bd
000000f0: e5a4 55bd 6f9b ff3c 5492 333d b952 5dbc
00000100: 0654 66be 2717 c3bd 9007 43be fc53 e03d
00000110: 9e84 453e aa25 55bd 3750 033e 97b6 643d
00000120: 0944 323e 4f01 41be f39b 003e 05d1 a13d
00000130: c57d 5f3e 0542 3e3e b220 923c b4af eebc
00000140: d985 ffbd ad40 d2bd f3b1 26b8 21fc 513e
00000150: 3f43 ee3d 17cd 2bbe 257f 4abd 587f 46bd
00000160: 3372 c83b 4c46 55bc 00ec 1cbe f571 2b3e
00000170: 6161 3b3e 2240 68bc 95e3 a83d cd21 d43d
00000180: cb4b 85bd 5cd0 fdbd dd62 dbbd 0379 433d
00000190: 351f 513e c637 13be b9e8 1f3e 3110 0b3e
000001a0: 5feb e73d 9f03 56bd 9840 033e 790e 1f3e
000001b0: 6a38 edbd c190 e83d 4691 b1bd 83d6 7c3d
000001c0: 87e1 bc3c 263f 30be 637f 1fbc 77ce 0fbe
000001d0: 2631 a1bd e85f 3ebd 7223 adbd b2c3 f3bd
000001e0: 114b 973d 5368 f03d 8f62 8db9 330f 9abc
000001f0: 0756 dd3d 2c4d 3cbe 675b 3dbe 9d4e 5dbe
00000200: 8432 0ebd 9246 5a3d b3f9 783c f562 e43d
00000210: e3eb 59be cc98 b3bd 5eb0 f6bd 9b22 37be
00000220: ac7e c1bd 9f2e b4bd dff8 2f3d 4966 fd3c
00000230: 23d1 7f3d 6cdc 043e 0f4f e33c a4c7 363d
00000240: 5a8e 70bb d595 4f3d 13b7 273e 4097 5fbb
00000250: 4184 db3d c9fc 37bd a2bc 3d3e 8b86 543e
00000260: 5a40 28be 3c89 cd3d 1ca4 c0bd 3fae 293e
00000270: 361b adbd 75b2 02be 1079 603d 9161 213e
00000280: 0de0 93bd ed48 3a3c 7d2c 58bd 2d39 4a3d
00000290: 7eb3 0bbe 5498 723d 9096 503e f97d 2bbe
000002a0: 22c0 29be 8f98 aebc 6dc4 ea3d 13bc 3b3e
000002b0: 8340 fbbc 57e9 0b3e ec2b 15bd 7ae6 753d
000002c0: 4673 c9bc 5b1c 9e3d e68a 10be 754d bfbd
000002d0: 8444 9cbd f5d1 13be 06a9 263e 0c42 c23c
000002e0: 9e57 693e 0421 193d 8165 18be 9bb8 333d
000002f0: dd9c 273e 455c fbbd 9e26 d73d 3e02 c53d
00000300: cfb8 6cbd 9e78 17be d997 0b3e 0ff0 133d
00000310: 4aa1 a3bd ab89 883d c1c5 2dbd b6aa 203e
00000320: f517 653d 1092 933d 9de7 0fbe d2af cdbc
00000330: 9815 ea3c 0746 143e ea20 08be fbfa 16be
00000340: b70d 23bc a8b8 ec3d bcd1 af3c f2ee c53d
00000350: 3926 aebd c36f 0ebe 8c4a b13c f2c9 64bd
00000360: 54e2 273e fae8 25bd 7916 48be a504 41be
00000370: 0709 b5bc dd5d 493e 131c 0cbe 3cde 0c3d
00000380: a77e 4abe 70f6 923c b544 25be a71d a33c
00000390: 4d19 febd cd2d 81bd 4fff 0d3e cf1a 153c
000003a0: ccfe 763d 8875 90bd bc75 f43b ee2a babc
000003b0: 2652 3bbe c67c 84bd 06c6 adbb 445e b93d
000003c0: 4ff4 a23d f9ec 42be 39f4 443e 82aa 253d
000003d0: a881 6e3d cde8 42be b0fd d2bd badd 1e3b
000003e0: 7f8d f33c d937 2abb e847 f1bd 0425 f0bc
000003f0: 2da5 cd3c 346a 8dbd 70c5 9ebc f905 5dbd

layer1.bias f4 [64]
0.1716847 0.10607067 -0.15287574 0.1007562 0.02421722 -0.11306802 -0.10377594 0.19221674
-0.08060745 -0.0056665237 0.1727011 0.106442474 0.25256947 -0.1200248 0.030819412 -0.10570313
0.027061785 0.22543314 -0.12157806 0.05947854 -0.0681799 0.027798511 0.19294 -0.19021462
0.13264963 -0.13746205 0.20483992 0.028498007 0.045891766 0.071609646 -0.07232538 0.23926947
-0.12505424 0.0025217591 0.16898662 0.06912952 -0.113780595 -0.1614364 -0.011905559 -0.23803511
0.18135706 -0.09256452 0.13686068 0.015960652 -0.01754138 -0.088960946 0.15366699 0.059110194
0.16650236 -0.23344365 -0.082880944 0.2662368 0.043636836 -0.032616198 -0.24959081 0.13404334
0.08330215 0.07821112 0.1114193 0.09841856 0.10959575 0.031432584 -0.047518786 -0.14578314
00000000: 1dce 2f3e 943b d93d 758b 1cbe 4459 ce3d
00000010: 3163 c63c 3590 e7bd 7b88 d4bd 77d4 443e
00000020: 8515 a5bd 3fae b9bb 8fd8 303e 83fe d93d
00000030: c950 813e 90cf f5bd fe78 fc3c e27a d8bd
00000040: adb0 dd3c f2d7 663e ebfd f8bd c59f 733d
00000050: e7a1 8bbd b4b9 e33c 1092 453e 9fc7 42be
00000060: 4ed5 073e dac2 0cbe 8ec1 513e a774 e93c
00000070: 01f9 3b3d 14a8 923d 541f 94bd 0e03 753e
00000080: 380e 00be 1944 253b d40a 2d3e c793 8d3d
00000090: cd05 e9bd 954f 25be 890f 43bc 7abf 73be
000000a0: aab5 393e 7892 bdbd 3525 0c3e eabf 823c
000000b0: f1b2 8fbc 2831 b6bd e15a 1d3e 881d 723d
000000c0: 987f 2a3e da0b 6fbe 7cbd a9bd 3150 883e
000000d0: 8abc 323d 9098 05bd bc94 7fbe a842 093e
000000e0: 519a aa3d 272d a03d cd2f e43d ac8f c93d
000000f0: bd73 e03d 74bf 003d 0fa3 42bd 2d48 15be

layer2.weight f4 [64, 64]
0.116059646 0.11967232 -0.08575575 -0.13179122 -0.0057761976 0.119403556 0.05684721 0.11302438
-0.017156098 0.11795195 0.05057187 -0.046897195 0.05886758 -0.085563496 0.08293855 0.0020294837
0.01452028 0.033307537 0.07260347 -0.07280435 -0.004621756 -0.08404414 -0.07873369 -0.06770316
-0.07240748 -0.048508037 0.030010294 -0.013340201 -0.08739852 -0.018830316 -0.08596951 0.056942113
-0.090581514 0.108158134 0.077284135 0.06521704 0.0026345688 0.06628849 -0.04251182 -0.011164171
0.024352418 0.10755753 0.088435255 0.0114319455 -0.025531279 -0.061570805 0.09584951 -0.1085681
0.00037730744 -0.04894695 -0.018065618 0.104958415 0.09667256 -0.080386214 -0.05357472 -0.10676452
0.06264418 0.006708306 -0.12551814 -0.020003116 -0.08431516 0.04646743 -0.10223868 -0.09483544
-0.07637542 -0.085628256 -0.10614024 0.08809061 -0.033686683 -0.0206311 -0.1097991 0.020788055
0.045314535 -0.1326272 0.007495284 0.014209301 -0.013260686 -0.103333205 0.031454053 0.037964504
-0.018517278 -0.0414528 0.025268132 0.11937599 -0.09142777 0.058259655 -0.11731286 -0.12963076
-0.08169995 0.10779713 0.023962826 -0.1261872 -0.0070161633 0.030288948 0.08636389 -0.0070650657
-0.059394453 -0.03137894 -0.057275828 -0.017108085 -0.033165626 0.042315524 0.082323544 0.10853463
-0.05031407 -0.016219508 0.087550364 -0.080816746 -0.09661095 -0.015625741 0.10679381 0.059050526
0.073982 -0.095513545 0.09459062 0.13807696 0.042301904 -0.10004234 -0.06470327 0.05353881
-0.036618616 -0.10658489 0.1243216 0.11011618 0.099768765 -0.0136051215 -0.031115929 0.060519982
0.040061995 -0.05015278 0.08619486 -0.013301389 -0.053666927 -0.01909638 0.11817529 0.081595674
0.09351862 0.00031174396 -0.052028876 -0.085923195 0.11647117 0.004181934 -0.07782542 -0.023992276
-0.0025797351 -0.04738258 -0.01221275 0.070208 -0.025439644 0.059956413 -0.038345676 -0.07558301
-0.11183105 -0.037653074 0.101189144 0.13157982 0.10051236 -0.045672137 0.019980384 0.053162113
0.02361864 0.11286413 -0.092311636 0.12024986 -0.08657805 -0.010654806 0.11803443 -0.0742886
-0.06581494 -0.05393794 0.1194872 -0.06788262 0.073960066 -0.070630446 0.042168986 0.08550651
0.11677492 -0.06299972 -0.018414177 -0.013541608 0.10325634 -0.06908288 0.06982425 0.073353074
0.05054361 -0.09988328 -0.028474305 0.102756284 0.008730968 0.12676029 0.016919851 0.092989095
0.0821871 -0.008230383 -0.0788256 -0.040547747 0.07359289 0.09449462 0.021370163 0.06514307
0.088600986 -0.032724768 0.10482379 0.02621007 0.056086786 -0.12292807 0.08263561 0.035064336
-0.08724235 0.07023593 -0.034382492 -0.07157503 -0.050453406 0.017113464 -0.010832523 -0.09843415
0.08118307 -0.12255988 -0.045121234 -0.058401223 0.03727062 -0.033244316 0.070039615 -0.08008558
0.11381535 0.047716025 -0.008210078 -0.01797514 0.043644138 0.03815143 -0.051589098 0.11656394
-0.049341485 -0.076533005 0.049440484 -0.0862084 -0.011279217 0.06409746 0.10123965 -0.008337843
0.021527847 0.020664455 0.10827523 0.031702973 0.07958562 -0.12137545 0.117153004 -0.042190883
-0.09285021 0.025768032 0.10011454 0.02517872 0.05461058 0.01949526 0.06365784 -0.06992599
00000000: aeb0 ed3d c316 f53d b6a0 afbd 47f4 06be
00000010: 4246 bdbb da89 f43d 9fd8 683d 5379 e73d
00000020: f28a 8cbc cb90 f13d 7324 4f3d 4617 40bd
00000030: 221f 713d ea3b afbd b0db a93d 1601 053b
00000040: 78e6 6d3c 7c6d 083d 21b1 943d 721a 95bd
00000050: 1972 97bb 561f acbd 213f a1bd f4a7 8abd
00000060: 5f4a 94bd 5db0 46bd 26d8 f53c dc90 5abc
00000070: fffd b2bd 0942 9abc c810 b0bd 223c 693d
00000080: cd82 b9bd 0382 dd3d 2547 9e3d 8390 853d
00000090: bba8 2c3b 43c2 873d e020 2ebd ede9 36bc
000000a0: b97e c73c 1f47 dc3d 8b1d b53d 0e4d 3b3c
000000b0: f926 d1bc ab31 7cbd bf4c c43d f458 debd
000000c0: 59d1 c539 997c 48bd 59fe 93bc 70f4 d63d
000000d0: 43fc c53d 87a1 a4bd 2a71 5bbd 5ba7 dabd
000000e0: 984b 803d 59d1 db3b d487 00be 93dd a3bc
000000f0: 6dad acbd a254 3e3d 8362 d1bd 1539 c2bd
00000100: b76a 9cbd de5d afbd 0e60 d9bd da68 b43d
00000110: 0cfb 09bd 8d02 a9bc 5ade e0bd b64b aa3c
00000120: bc9b 393d 6dcf 07be 009b f53b 21ce 683c
00000130: 5943 59bc 5ca0 d3bd f7d5 003d ab80 1b3d
00000140: 8cb1 97bc 69ca 29bd 1dff ce3c 667b f43d
00000150: 7c3e bbbd ada1 6e3d ba41 f0bd edbd 04be
00000160: 4e52 a7bd bec4 dc3d b04d c43c 3837 01be
00000170: d8e7 e5bb 8720 f83c 8ddf b03d 1182 e7bb
00000180: 9947 73bd 3487 00bd 0f9a 6abd 4126 8cbc
00000190: aed8 07bd 0b53 2d3d 3f99 a83d 6747 de3d
000001a0: 2016 4ebd c6de 84bc 9b4d b33d 4083 a5bd
000001b0: f6db c5bd 8e01 80bc b7b6 da3d f7de 713d
000001c0: e083 973d 9b9c c3bd bab8 c13d 0c64 0d3e
000001d0: c344 2d3d 00e3 ccbd 2683 84bd 834b 5b3d
000001e0: 67fd 15bd 2e49 dabd 539c fe3d 9784 e13d
000001f0: 9153 cc3d 04e8 5ebc d5e6 febc cde3 773d
00000200: 0c18 243d 006d 4dbd ee86 b03d 12ee 59bc
00000210: dad1 5bbd 0370 9cbc e305 f23d a21b a73d
00000220: b186 bf3d 9171 a339 3b1c 55bd 80f8 afbd
00000230: 7088 ee3d 9b08 893b ef62 9fbd 738b c4bc
00000240: c610 29bb 3c14 42bd fc17 48bc 36c9 8f3d
00000250: cd66 d0bc db94 753d 5b10 1dbd 44cb 9abd
00000260: ad07 e5bd 1c3a 1abd 413c cf3d dcbc 063e
00000270: 6dd9 cd3d b512 3bbd e7ad a33c 84c0 593d
00000280: e17b c13c 4f25 e73d e20d bdbd 8f45 f63d
00000290: d54f b1bd 7f91 2ebc 09bc f13d 9f24 98bd
000002a0: fcc9 86bd 08ee 5cbd b5b5 f43d 0b06 8bbd
000002b0: 6078 973d b2a6 90bd 63b9 2c3d 0a1e af3d
000002c0: b027 ef3d ff05 81bd 54d9 96bc 9fdd 5dbc
000002d0: 0f78 d33d 537b 8dbd 0400 8f3d 233a 963d
000002e0: d106 4f3d 9b8f ccbd f242 e9bc e371 d23d
000002f0: 560c 0f3c 73cd 013e 809b 8a3c 1171 be3d
00000300: b651 a83d bad8 06bc 516f a1bd 6515 26bd
00000310: deb7 963d 6586 c13d 7b10 af3c bb69 853d
00000320: 6f74 b53d 680a 06bd dbad d63d 80b6 d63c
00000330: 42bb 653d b6c1 fbbd dc3c a93d 9f9f 0f3d
00000340: 1eac b2bd dbd7 8f3d a8d4 0cbd ee95 92bd
00000350: 3ba8 4ebd 8931 8c3c e57a 31bc d897 c9bd
00000360: 4f43 a63d ad00 fbbd 0bd1 38bd 1f36 6fbd
00000370: 14a9 183d 312b 08bd ee70 8f3d e903 a4bd
00000380: 0618 e93d e171 433d 9083 06bc 9a40 93bc
00000390: 32c4 323d ad44 1c3d 174f 53bd 13b9 ee3d
000003a0: 4c1a 4abd 56bd 9cbd 1b82 4a3d 088e b0bd
000003b0: 77cc 38bc 8745 833d bc56 cf3d 739b 08bc
000003c0: 2b5b b03c 8148 a93c 67bf dd3d fada 013d
000003d0: c9fd a23d b193 f8bd eaed ef3d 59d0 2cbd
000003e0: 4028 bebd 7b17 d33c da08 cd3d 9a43 ce3c
000003f0: 58af 5f3d 86b4 9f3c 0b5f 823d 5c35 8fbd

layer2.bias f4 [64]
0.1491872 0.06771635 -0.15670268 0.051958904 -0.06662758 0.08804862 -0.0138446065 -0.07140375
0.15796201 -0.010369936 0.1470794 -0.013506895 0.057638124 0.23213626 0.06820712 0.061232008
0.19034772 -0.06715011 -0.06405504 -0.023319697 0.066156566 -0.003999678 0.07399255 0.16090198
0.14446037 0.1194088 0.20356707 0.06695833 -0.02546252 0.050152175 -0.1150638 -0.08167582
-0.0636559 0.16048294 0.13733234 -0.009933688 -0.08961929 -0.15187228 0.11017953 -0.048380528
-0.1476613 -0.053395715 0.01687877 -0.032745257 0.1444168 -0.04314057 0.09823212 0.076800846
-0.06220072 -0.0024600467 -0.056661412 0.052636586 0.120366104 -0.05782632 -0.04027233 -0.037877623
0.01765727 -0.19947976 0.09935002 -0.07612846 -0.11249144 0.12733656 -0.08152995 0.059739914
00000000: 88c4 183e dfae 8a3d ab76 20be dcd2 543d
00000010: 0a74 88bd d652 b43d 7dd4 62bc 213c 92bd
00000020: cbc0 213e aae6 29bc fb9b 163e 064c 5dbc
00000030: f415 6c3d 21b5 6d3e 2db0 8b3d 6ace 7a3d
00000040: 83ea 423e ff85 89bd 4a2f 83bd f308 bfbc
00000050: 187d 873d bb0f 83bb 6889 973d 7dc3 243e
00000060: 6bed 133e 9a8c f43d e373 503e 7321 893d
00000070: c696 d0bc 5e6c 4d3d 92a6 ebbd a745 a7bd
00000080: 065e 82bd a455 243e d9a0 0c3e e8c0 22bc
00000090: 518a b7bd 6884 1bbe cea5 e13d a92a 46bd
000000a0: 8634 17be 77b5 5abd 5945 8a3c e41f 06bd
000000b0: ffe1 133e 2bb4 30bd ec2d c93d c349 9d3d
000000c0: 2fc6 7ebd bc38 21bb cc15 68bd 7699 573d
000000d0: 8182 f63d 4bdb 6cbd 99f4 24bd 9125 1bbd
000000e0: fba5 903c 6c44 4cbe 0678 cb3d 3de9 9bbd
000000f0: e961 e6bd 8464 023e 2df9 a6bd d7b1 743d

layer3.weight f4 [1, 64]
0.07313922 0.034759413 -0.04843887 -0.091358714 -0.020961504 0.09484081 -0.07053477 0.101442054
0.11526212 0.07727819 0.15210289 0.07408708 -0.03825985 0.14410718 -0.039675217 -0.0912718
0.08662609 0.09997965 0.087880544 0.03320956 0.10198651 -0.025621526 0.008671378 0.093744084
0.09322605 0.07239805 0.024394533 -0.1079449 -0.06462447 -0.102954656 -0.029531559 -0.068936765
0.017526845 0.112621315 0.02896901 -0.0592324 -0.026457647 -0.11760978 0.08854831 -0.035860687
-0.033358447 0.08829085 0.07115746 0.11622999 0.11613998 0.01151823 -0.105813846 -0.114622965
0.001547155 0.08499187 0.07276637 0.05256234 0.094987206 0.11095922 0.0420693 -0.04334138
0.15049426 -0.103339665 0.12720928 -0.06861631 -0.045732 0.07925397 -0.10415582 -0.05855884
00000000: 04ca 953d e35f 0e3d d667 46bd 471a bbbd
00000010: 76b7 abbc e63b c23d 8974 90bd dac0 cf3d
00000020: 8c0e ec3d 0744 9e3d dcc0 1b3e f8ba 973d
00000030: 5cb6 1cbd d590 133e 7b82 22bd b6ec babd
00000040: 0569 b13d 21c2 cc3d b7fa b33d bf06 083d
00000050: 4ede d03d 3ce4 d1bc 6512 0e3c e6fc bf3d
00000060: 4ded be3d 6e45 943d 0bd7 c73c 3712 ddbd
00000070: d659 84bd e4d9 d2bd 2bec f1bc b82e 8dbd
00000080: 7594 8f3c 01a6 e63d 6b50 ed3c ac9d 72bd
00000090: b5bd d8bc 65dd f0bd d158 b53d a8e2 12bd
000000a0: dea2 08bd d5d1 b43d 01bb 913d fd09 ee3d
000000b0: ccda ed3d f5b6 3c3c eeb4 d8bd 72bf eabd
000000c0: e8c9 ca3a 3810 ae3d 8906 953d 9c4b 573d
000000d0: a788 c23d 963e e33d dc50 2c3d bb86 31bd
000000e0: 2b1b 1a3e bfa3 d3bd 2643 023e b586 8cbd
000000f0: 7a51 3bbd e84f a23d a64f d5bd 65db 6fbd
