uncertain/Ant-v2/actor.pth (torch, 49701 bytes, 6 tensors)

l1.weight f4 [64, 111]
00000000: efd1 f8bc 5c74 253e 1e01 cbbe 63dd 08bf
00000010: 0af1 63bf 3c61 75be 1f44 4a3c 69a9 acbe
00000020: aa62 65be f360 12be 59ad fabd 2a26 5dbe
00000030: 5efd 8a3e a15a 9fbd c8ad 67bc 8156 dfbd
00000040: 1f80 e0bc 2d6c 983d bcd1 7ebd aa24 063d
00000050: a862 543d 45df 31bd a636 c03b 0257 afbb
00000060: 48e8 e7bd 659d d23c 9d9e b53b b5bc 4e3d
00000070: df5b a73d 31c6 2dbd c2ba 2abd f66e 8d3c
00000080: edd0 90bd 1f17 67bb b6ff 633d 6c9d c03c
00000090: 9c32 3b3b 4012 0d3d 6b58 0bbd 095d a53d
000000a0: 5882 143d e92a 01bd 4b14 91bc 90ec e33c
000000b0: 5a41 48bc 353a a23d 0c10 a3bd 4920 4a3d
000000c0: 24f7 4bbd 48cc abbd 39f5 b13d 5476 f83c
000000d0: 9d57 833c 63dc 6fbd a243 813d 39f7 923c
000000e0: 00c5 783d 64e2 c5bc d8f4 b0bd 6fc0 793d
000000f0: da3a 443c d4cd 4c3d f055 98bc d21e 6a3d
00000100: 155c 49bd aaa5 583d 5d3a 803d 8cfd ce3c
00000110: be68 95bc ff74 983d 097d 07bc 3282 9c3d
00000120: d2e7 573d 88c7 03bd 8e43 d83c 603e 4bbd
00000130: 958e 083d ee0b 06bd 7aa5 49bb 7c2a aabd
00000140: af95 d43b f3de a3bd 2755 493d 9b60 c0bd
00000150: db01 3e3d 8f44 42bd f55d 4a3d bad7 89bd
00000160: 0354 533d 1adc 7b3d eebd ffbc 0407 c13c
00000170: c597 213d 980f bc3d 70fe c7bb 9ab4 1fbd
00000180: 2a8f 9a3d 0b23 84bc 6e02 d73a a8d0 963d
00000190: d4c1 a43d a86b 293d fa69 7abd 67db 9f3d
000001a0: ffeb bf3d 520c 703d 49a2 173d 4db2 9f3d
000001b0: 3abe c0bd 9776 fabc 858e 11bc dc73 4c3e
000001c0: 8835 61bf dec1 89be ab64 aa3e 284e 2b3d
000001d0: 3142 9f3d 79ff a83e 497f 7e3e ed01 94be
000001e0: ff52 71bd 6c9d 7dbe 4652 30bf 132c b3bd
000001f0: d71f d1bc acc6 0b3d 3f76 d23d dd91 1a3d
00000200: a6f1 1fbd 7354 7e3d e653 8e3b 1731 66bd
00000210: 4b93 c93c fcde bebd 753d c7ba 3593 17bd
00000220: 4aa9 46bd 34f1 61bd 1335 bfbc 3a0e 96bc
00000230: 7d91 97bd bfde 95bd 8a01 c0bd d5f7 bdbd
00000240: 4269 92bd 59a9 083d a185 a63d cffa 843d
00000250: d1ee 383c a458 9fbd 1135 343d 12fc b2bd
00000260: 99d6 7a3d 554a 9c3c 22bd d7bb 6fb6 c0bc
00000270: d68a 91bd 0925 33bb 7f4c 86bb 34f6 f8bc
00000280: 94fe 49bd 50e0 c1bd 942f 913d 8743 b9bd
00000290: 3c49 06bd bf28 8cbd e2b3 723a 9b96 abbc
000002a0: 896c 9f3c 3d47 91bc 4597 dc3c 0c00 8dbd
000002b0: 3946 b63d 8b61 ba3d 8d8f abbd cc02 a9bd
000002c0: 1d70 b9bc ef03 3dbd 3b64 d4bc a2e4 423c
000002d0: 4fe5 093d 4768 863d 6038 683c 812d 7cbd
000002e0: e5c6 873d e5ed 583d ba70 1bbd 81f4 593d
000002f0: 1300 463a 94ad 54bd 3a70 b53d 14a1 3c3d
00000300: 9051 b6bc 2d3a c3bc c8b3 9c3b fbc4 973d
00000310: b82c 94bd 7fd9 30bd 8dc2 983d 96b8 2abd
00000320: 54e1 acbd 75d4 513b 3ad5 54bc cdd0 a2bd
00000330: f0c1 1a3d ad6c 27bd 4802 49bd 134e 403c
00000340: 227c e93c 07dc 563d 82ca ac3d b59d b8bc
00000350: a796 debc ddfe 4bbc 4545 87bb 95c9 783d
00000360: ffb4 07bd 8a50 b5bd dff0 c03d b5f1 05bc
00000370: 865b 23bc f175 63bd bd96 4f3e 8d66 583d
00000380: 1b13 23bf 4c9b 613e 4d73 27be eded 853d
00000390: 2aef 20be 1030 bebe acc1 4c3d 3b37 04bc
000003a0: f6f9 cebd 5cf7 e63e 6b30 4e3d 5aee 1ebd
000003b0: 3592 11bd a7d5 1dbb 5365 27bd c4f5 b6bc
000003c0: e2e0 523d 554a 843c a59c 50bc 3c74 f1bc
000003d0: d91f 53bd e269 c23b aef8 653d ba3c 203d
000003e0: 37b6 7abc 8342 9bbc 8267 b7bd dfa6 a83c
000003f0: 2fc8 ba3c df87 29bd 787d 933d 6cec 8ebd
-0.030373542 0.16157669 -0.3964929 -0.5346281 -0.8903967 -0.23962873 0.012345343 -0.33723
-0.22400919 -0.14294796 -0.12240095 -0.2159659 0.2714643 -0.07780958 -0.014140554 -0.10905171
-0.027404843 0.07442508 -0.062211737 0.03274981 0.0518519 -0.043425817 0.0058658896 -0.0053509483
-0.11323601 0.025709817 0.00554259 0.050472934 0.0817182 -0.04242534 -0.041682012 0.017264824
-0.070710994 -0.0035261584 0.055663787 0.023512565 0.00285641 0.034441233 -0.03401987 0.08074386
0.036257118 -0.031535063 -0.017709872 0.027822763 -0.012222612 0.07921258 -0.07962045 0.049347196
-0.04979624 -0.08388573 0.08689351 0.03032986 0.016032988 -0.058559787 0.06311728 0.01794015
0.06073475 -0.024155803 -0.0864045 0.060974535 0.011976922 0.05000098 -0.018595666 0.0571583
-0.049160082 0.052892365 0.06261132 0.025267385 -0.018238422 0.0744419 -0.008269557 0.0764202
0.052711315 -0.03217271 0.0263994 -0.049620032 0.0333391 -0.03272622 -0.0030768798 -0.083088845
0.0064875702 -0.080015086 0.049153473 -0.09393426 0.04638849 -0.047428664 0.04940601 -0.067306
0.05159379 0.061489202 -0.031218495 0.023562916 0.03945138 0.09182662 -0.0061033294 -0.038990594
0.07546838 -0.016129991 0.0016403922 0.07364017 0.08044782 0.041362435 -0.061136223 0.078055196
0.093711846 0.0586055 0.03702 0.0779768 -0.09411283 -0.030574126 -0.008884077 0.19966072
-0.8797231 -0.2690572 0.3327993 0.041822582 0.07776297 0.3300741 0.24853243 -0.2890772
-0.058917042 -0.24767083 -0.6887554 -0.08748641 -0.025527878 0.034125015 0.1027646 0.037736762
-0.039048813 0.062092256 0.0043434976 -0.05619916 0.024606368 -0.09319875 -0.0015200811 -0.037005622
-0.04850129 -0.05516167 -0.023340737 -0.01831733 -0.074007966 -0.07317876 -0.093752936 -0.09275786
-0.071489826 0.033364628 0.081309564 0.064931504 0.011287407 -0.07780579 0.04399592 -0.08739485
0.061239813 0.019078413 -0.0065838257 -0.023524491 -0.07106559 -0.0027335307 -0.0040984745 -0.030390836
-0.04931505 -0.09466612 0.07089153 -0.09046083 -0.032784685 -0.06843709 0.0009258372 -0.020945838
0.019460933 -0.017734164 0.0269276 -0.068847746 0.08900113 0.09100636 -0.083769895 -0.082524866
-0.022636468 -0.04614633 -0.0259267 0.011895331 0.03366595 0.06562858 0.014173597 -0.061566833
0.06629733 0.05296125 -0.0379493 0.053211693 0.00075531116 -0.05192335 0.08859296 0.046052054
-0.022255689 -0.023831451 0.004782174 0.07410618 -0.07235092 -0.04317617 0.074589826 -0.04167994
-0.084414154 0.0032017503 -0.01299029 -0.07949982 0.03778261 -0.040875126 -0.04907444 0.011737364
0.028501574 0.05245593 0.08437063 -0.022536138 -0.027171446 -0.012450901 -0.0041281306 0.06073912
-0.033131596 -0.08853252 0.094209425 -0.008175303 -0.009970551 -0.0555324 0.20272346 0.052832175
-0.6370103 0.22031897 -0.16352578 0.06539521 -0.15716234 -0.37146044 0.049989387 -0.008069809
-0.1010627 0.45110595 0.050339144 -0.03880153 -0.035539825 -0.0024083646 -0.040868115 -0.022333987
0.051483996 0.016148726 -0.0127326595 -0.02947437 -0.051544044 0.0059330324 0.056145363 0.039120413
-0.0153022325 -0.018952614 -0.089552894 0.020587383 0.022800533 -0.041389342 0.07201666 -0.06978688

l1.bias f4 [64]
00000000: 984a f53c 2b1c 4f3e da1d 8ebe 795b 6a3e
00000010: e261 55bf ee89 91bd b6fa 3fbc 9870 d7be
00000020: 0969 843d 0dcf 25bb 3c9b b5be 7c03 c1bd
00000030: def7 3cbd 0d27 013e e114 febe 437d f1be
00000040: dcdd 953d 4d8a 8d3e b765 a03e af5c 27bf
00000050: fa0f 9bbe d47e 603e c288 37be e71d b5bd
00000060: 620a b5bd 6db8 3d3e ec3a f9be dd36 a5be
00000070: fd85 3dbe 1f56 993e 20ce 673d c01c bebe
00000080: 9bb1 173e 75eb 2bbf f3ce 0abe bc51 4ebd
00000090: c147 0e3e 9517 623e aa1d 4e3e 9819 98be
000000a0: 099b e33d 5ad7 f73e 7485 993e 2271 5fbf
000000b0: e2c9 b93e 5045 773e 9630 fc3d 1a32 483c
000000c0: 9a65 25be b990 7a3e 705e 0bbf 1884 da3d
000000d0: a57e c13e f3d6 10bf 31e6 b13e d2f8 bf3e
000000e0: d611 953d 1770 18bf 7944 ebbe f397 25bd
000000f0: c671 c83d 7446 083e 113b 09bf 0232 993e
0.029942796 0.20225589 -0.2775715 0.22886457 -0.8335248 -0.07106386 -0.011717489 -0.4207809
0.06465346 -0.0025300414 -0.35469997 -0.09424493 -0.046134822 0.12612553 -0.49625304 -0.4716588
0.07317707 0.27644578 0.31327602 -0.653758 -0.30285627 0.21923381 -0.17923263 -0.08843594
-0.08839871 0.18527384 -0.48677766 -0.3226842 -0.18508144 0.29948518 0.05659306 -0.3713131
0.14813845 -0.67156154 -0.13555507 -0.050370917 0.1389456 0.22079308 0.20128503 -0.29707026
0.11113555 0.48406488 0.2998463 -0.87282 0.36286837 0.24147534 0.123139545 0.012218976
-0.16152039 0.2446927 -0.54440975 0.10669726 0.37791935 -0.56577986 0.34745935 0.37494522
0.072787926 -0.59546036 -0.45950678 -0.040428113 0.097873256 0.13308126 -0.53605753 0.29920965

l2.weight f4 [64, 64]
00000000: bb75 1c3e a853 c3bc 9987 1b3e 112e f03e
00000010: ba64 85bf 3d4c 08bd d7b0 4f3d d6a1 b0bc
00000020: 3233 4abf b9e6 b5be bb65 cfbe 356d c83e
00000030: d684 a9bd 86d1 613e 2e18 97be 1ee8 c23e
00000040: 85e4 e73d 5e6d 463e bbf2 d23d 59b5 553d
00000050: 52e1 843e 62b1 79bd ac21 903e bc5d 6e3d
00000060: 9886 7f3e 763e 42bf 9ddf 4cbf 0f58 3e3e
00000070: 2022 893e 2ae1 c6bd 8afa f63d 215a 0c3e
00000080: 65fd 3cbc a351 103e f9cf f03e d07a db3e
00000090: 9274 823c d310 71be aeed 0f3e 246b 383e
000000a0: fe8c 983e 189d 923e 63d0 b2be 58e4 b5bc
000000b0: ae0a 893d d0fa af3e b9fe cf3a e4ca 743e
000000c0: dcac 693d 1695 213e b015 c0be d970 be3e
000000d0: 6735 afbe f0dc 973e a826 56be 293b 59bf
000000e0: 6712 183d bbab 1c3f 097e b6be 7ee9 2d3e
000000f0: 1e02 6cbc 2d3e 213e 81b8 413e c5e8 cb3e
00000100: 14c5 bc3e b6c6 543e ee48 803d 930c 03bf
00000110: 55ec b23e eff6 dcbd 63fa b7be 4fb3 613f
00000120: 0062 fd3e 5e0d 863e e565 e83e f0e4 8d3d
00000130: dde5 af3e 5b2c 14bf 778f 903f ea50 843e
00000140: 4a18 1fbe ed01 6abe ea09 05bf 768c 79be
00000150: e39c 7f3f 3bf0 0b3e 04e4 983e b0d5 293f
00000160: cf77 c43e 44b6 f3bd 394c 35bf f466 1cbf
00000170: e621 963e e63d 5e3f f2f9 d13d d38b e9bd
00000180: 1362 173f 1ad7 49bf c201 d3bc dd6c a53e
00000190: fd8b c23e f0e1 143f 2d5a 59bc aad6 383f
000001a0: a0df 1fbe 11c1 e4bd 4a3d d7bd 21bb 56bf
000001b0: a441 db3d 9904 b83d 2760 84be 3e4c c3be
000001c0: 7dbb 323d aaa0 8abe bc60 f93c e5cf 513f
000001d0: cb37 15bb 8d7b 1d3f 5aa4 293e bdee 8c3e
000001e0: d4a3 0fbd 70cf d63e 9c2a f0bb fc7c 01be
000001f0: dc7f 393f e9ac c3bc 8218 ac3e 2f31 15bf
00000200: db35 45be c13e be3e 5d2d 913e 7fbc 0d3e
00000210: 1bf7 e93f 88a5 6bbd 733b 36bf aedd 0ebe
00000220: 4253 5f3f 7578 ef3e e17e 0b3d f750 64be
00000230: a145 e33e c370 703e b208 1d3f 4978 0d3e
00000240: 3d29 723e e04c 403a 3ac9 f53c 0222 da3e
00000250: d57f fb3e f541 303e cee3 7e3f 4975 213d
00000260: 5109 fc3e 048f 67bf 6bed 5bbe 5026 353f
00000270: 5c54 863f fa46 953f 5071 57be c39a 1abf
00000280: bb77 80bd 2cd6 883e 4393 293f 5752 3f3f
00000290: 034b 4abe bfc4 073f 2d75 e83e 8095 043f
000002a0: 94ef 03bf 7d63 bfbe cc70 8abe 11c2 77bf
000002b0: 934a b7be 491d 1e3e 7d41 67be 6766 f4bd
000002c0: f3c9 fe3d 5657 d43e a2c5 453f 0a0b e23d
000002d0: 78b4 4c3d 28fd 1a3d 76be 0d3f 1599 c4bd
000002e0: 17bc ccbe 69f1 793f d6a6 bf3f e49a a9bc
000002f0: f3a6 7dbe ae19 5cbe 443e b23e 8e3f 8ebd
00000300: 99df 70be a935 f33b 37c7 97be 603e 28bf
00000310: 37c2 523f feb8 2e3e 1fb0 483f 4c98 a7bf
00000320: 8f8b 403e 7cc9 843e c09e f63e 7917 0dbf
00000330: 8833 523f 5639 a03e d7ea de3d f985 d93d
00000340: f77a d53e b1ea 3b3d 34ff 523e 3da2 273f
00000350: 19a7 60bf b011 8e3d e269 443f c32b c8bd
00000360: 22d4 853e f757 163c 3e6a 163e f634 0e3f
00000370: 3609 88bc 484e 2d3f 4b64 a93e af05 3bbf
00000380: 7f00 93be b62f aebe 1ed7 40bd 1a61 9abd
00000390: 665c 39bf 22ed f83c 10b5 62be e8b3 1a3f
000003a0: c5fd 51bd 5dfe 8ebd bc70 003d f276 93bf
000003b0: 89e7 8bbe cf3b 97bd 8613 863e a132 013f
000003c0: e496 22be 7e36 f43d 1f1f 00bf 7777 d43e
000003d0: bf9d a5be 320f 9ebe 82e0 0fbe f916 8e3e
000003e0: f62a 81be c134 9b3f 9335 b6be ac7c f2bd
000003f0: 3bfa 3dbc 92e9 07be 0d7e 7a3e 7450 83be
0.15279286 -0.023843601 0.15188445 0.46910146 -1.0421364 -0.03327583 0.050705757 -0.021561544
-0.7898437 -0.3552759 -0.40507302 0.39145818 -0.082772896 0.22052583 -0.29510635 0.38067716
0.113228835 0.19377658 0.103002034 0.0521749 0.25953156 -0.06096018 0.2815069 0.05819486
0.24953687 -0.7587656 -0.80028707 0.18588279 0.26783848 -0.097109154 0.12059505 0.13706256
-0.011535023 0.14093642 0.4703367 0.42867136 0.015924726 -0.23541574 0.14055511 0.18009621
0.29795069 0.28635478 -0.3492461 -0.02220361 0.0669149 0.34371042 0.001586876 0.23905522
0.057049617 0.15779528 -0.37516546 0.3719547 -0.3422043 0.2966075 -0.20913184 -0.84855896
0.037126925 0.6119954 -0.35643032 0.16983601 -0.014404802 0.15746374 0.18918039 0.39826027
0.3686911 0.20778927 0.0626391 -0.5119106 0.34945932 -0.10789286 -0.35933217 0.8816423
0.4948883 0.26182073 0.4539024 0.06928432 0.3435506 -0.5788018 1.1293782 0.25842983
-0.1553661 -0.22852297 -0.5196825 -0.24369988 0.99848765 0.1366586 0.29861462 0.66341686
0.38372657 -0.11899999 -0.7081943 -0.61094594 0.29322737 0.868132 0.102527514 -0.114036225
0.59134024 -0.78843844 -0.025757674 0.3230962 0.37997428 0.58157253 -0.0132661285 0.7220255
-0.1561265 -0.11169637 -0.10509737 -0.83879286 0.10705879 0.08985252 -0.25854608 -0.38144106
0.043635834 -0.27075702 0.030441634 0.81957847 -0.002276885 0.6151665 0.16566601 0.27525893
-0.035068348 0.41955137 -0.007329298 -0.12645334 0.7246072 -0.02388616 0.33612448 -0.58278173
-0.19258825 0.37157252 0.28354922 0.13841437 1.8278536 -0.05753091 -0.7118446 -0.13951752
0.87236416 0.4677159 0.034056548 -0.2229651 0.4438906 0.23480515 0.61341393 0.13815416
0.23648544 0.0007335674 0.030003179 0.4260407 0.49120966 0.1721266 0.9956635 0.039418492
0.49225858 -0.904526 -0.21477287 0.70761585 1.0494494 1.1662285 -0.21039319 -0.603924
-0.06272837 0.267259 0.6624033 0.74735016 -0.19755177 0.53034586 0.45401898 0.5179062
-0.5153744 -0.3738059 -0.27039182 -0.96780497 -0.35799083 0.15440859 -0.22583576 -0.11933594
0.124408625 0.41472882 0.7725469 0.11037262 0.049976796 0.037839085 0.55368745 -0.095995106
-0.3998725 0.9763399 1.4972789 -0.02070374 -0.24770717 -0.21494171 0.3481313 -0.06945716
-0.23522796 0.0074221683 -0.29644176 -0.65720177 0.823276 0.17062756 0.7839374 -1.3093352
0.18803237 0.2593497 0.48167992 -0.5511394 0.8210988 0.31293744 0.10884636 0.106212564
0.41695377 0.045878116 0.20605165 0.6548193 -0.8775497 0.069369674 0.76724064 -0.09773972
0.26138407 0.009176246 0.14688966 0.5554956 -0.016605955 0.6769757 0.3308433 -0.7305555
-0.28711316 -0.34020776 -0.04708015 -0.07538052 -0.72406614 0.030386511 -0.22139382 0.60430765
-0.051267404 -0.0698211 0.031357512 -1.1520674 -0.27325085 -0.073844545 0.2618677 0.5046788
-0.15877873 0.11924456 -0.5004749 0.41497394 -0.32346913 -0.30870968 -0.14050487 0.27751902
-0.2522809 1.2125474 -0.3558775 -0.118401855 -0.011595304 -0.13272694 0.24462147 -0.25647318

l2.bias f4 [64]
00000000: 0c29 76bc 05e2 adbc 2fe0 10be b664 ccbd
00000010: 5d71 2b3e 6281 5e3e af3c 283c 5111 0dbe
00000020: 22f8 d7bd ab67 0abe 204f 2abd 193a c0be
00000030: eddc c73c 6b95 283e a207 06bf 005e 403e
00000040: f664 053e 9128 173e adca f23c 4346 803d
00000050: 7664 d83d 7317 153e 4a27 fa3b 4a14 20be
00000060: 83c6 4dbe 7fba d7bc 3f40 67be 8e55 8abe
00000070: c9b5 e2be 478c 2fbf e205 e9be 7818 31bd
00000080: ddde 19be 7afb 41bf aab9 943e b945 cc3d
00000090: c2f8 07bf 3eaa 0fbe 6f33 29be c6bf 73be
000000a0: d2db 61bc db6d ccbe ea8f 973e 4228 903d
000000b0: c6cb 283e d3c3 90be ee61 523d 4900 4a3d
000000c0: da4a 8e3d b13d 033d 47ee edbe 4618 94be
000000d0: c388 a7bd eaef 0fbf 052a 113d 1c4a 8bbd
000000e0: 3f66 cabe 0ac4 a0bc 512e 58be bac3 973e
000000f0: 9500 a5bd cf5c 41be aa08 08be 3cb8 4cbe
-0.015024435 -0.021225939 -0.14148019 -0.099801466 0.16742463 0.21729043 0.010268374 -0.13776137
-0.105453745 -0.13516109 -0.041579366 -0.37544325 0.024397338 0.16463248 -0.52355397 0.18785858
0.13026795 0.14761569 0.029637659 0.06263401 0.105660364 0.14559726 0.007634078 -0.1563274
-0.20095257 -0.026334045 -0.22583102 -0.27018398 -0.44279316 -0.6857342 -0.455123 -0.043236226
-0.15026422 -0.7577435 0.290479 0.09974236 -0.5311395 -0.14029786 -0.16523527 -0.23803625
-0.013785319 -0.39927563 0.29601985 0.070389286 0.16483983 -0.28274402 0.051362924 0.04931668
0.069478706 0.032041255 -0.46470854 -0.2892477 -0.08180382 -0.56225455 0.035440464 -0.068012446
-0.39531133 -0.019624729 -0.21111418 0.29641515 -0.08056752 -0.1888306 -0.13284555 -0.19992155

l3.weight f4 [8, 64]
00000000: 0842 3bbf 8f9b 15bf 8e34 393f 4f02 583e
00000010: 3445 e5bc ecf6 0b3f 5de7 f03e 4af9 983d
00000020: 7827 edbf bff1 413f e158 2cc0 e77b dfbd
00000030: 5dc9 fcbc 87b0 8dbf 2a34 853e 87c5 a03c
00000040: 0f01 9d3d f6ae 1cbe 9ed9 3d3e 627b 38bf
00000050: 419c cd3d f344 073f 60f2 17be 1395 8c3e
00000060: 6201 a83e f90e 193f c170 6fbf 0354 4c3f
00000070: f66b 26c0 9167 8fbf 8098 f6be b941 5540
00000080: 7a27 1e3f f348 1e40 a32b 88bc a805 e1bd
00000090: e9de fa3c 0531 cbbf 7d0a 983f 76d8 b6bf
000000a0: 373a 953f e6be 6f3f 4386 b7be f1cf a93e
000000b0: ff44 053f b411 3e3d c2a1 34bf ebdb 0dbf
000000c0: 002c 133f 3e9d be3c 7b4e 173e 3d33 92bf
000000d0: e12e 41bf 6b7e edbf f9c8 243f 401f f1bf
000000e0: 40df 803f 4bc9 3140 a791 19bf 363c 7fbe
000000f0: 1ce3 91bf 5559 e5be 34c0 0ebf a648 0fbe
00000100: 5103 3f3f adea 293e 0dac cabe 79b9 fe3e
00000110: 4537 2dbf f6f0 eabd f28e 913e 5fa4 b53d
00000120: ce10 343f 20e5 3abf ed9b d23f 87bd f53d
00000130: 3a7c 07bf b1a7 d93d fe56 2d3f a428 08bf
00000140: b970 8b3e 7831 aabd 1b39 753e 9a2d 5e3e
00000150: 7663 e73e 5af0 56bd c4ff 7c3f 73ee 993f
00000160: a734 56bf 5190 06be eb56 b9bf 92a2 2bc0
00000170: 58bc c23f 20bc 33bf 5730 5b3f 62a4 1bbf
00000180: f9c8 adbe 83a2 353e aade a7be 1976 ccbe
00000190: 0596 95be 27f5 dcbf b26d cfbe 7e8d ea3f
000001a0: 8d35 fcbe f04c 533f c433 d4bd 9457 523e
000001b0: 8459 723e 90a8 993e 27d3 e2be 7676 af3e
000001c0: 490b 4cbf 89a3 7ebd 52cb e23d 7819 0cbf
000001d0: 3674 993e 3d79 0040 1f95 8fbe 7973 743f
000001e0: 5756 743c 299e d0be aeed 453f bf20 fc3e
000001f0: 2a84 8f3e 9195 bfbe 43c0 c83e 32a7 8e3e
00000200: 319e abbf 07d9 7c3d db23 dc3e d214 c5be
00000210: fa41 debf f684 013f 840a 8bbe a475 373e
00000220: 125d f2be b71b 37bf f3c0 40bf b922 45bf
00000230: f967 543e 074c 73be 8833 f1bd 5176 0abf
00000240: c96f 923e 9015 0ebe e9cf ee3e ce3a 62be
00000250: b229 043e 3982 d33d cabb ed3e 84b8 88be
00000260: 22c0 52bd ab7b 2f3d 93f5 7f3f b890 13c0
00000270: 1ab6 5c3f 5838 95bf def2 34be 464a a53e
00000280: f173 98bd 30f2 01c0 e96e e43c 2790 553e
00000290: dd75 6c3f 3f63 a23f 6153 18be 55bb babf
000002a0: 5a3b 13bf 0cc8 56bd c334 973e 4b22 723e
000002b0: f786 6c3e 0cd8 5fbe 614f a73e c8f7 c43d
000002c0: a005 723f 9e51 a4bc d404 14be a8c5 1a40
000002d0: 503d ce3e 8102 ae3e 5fca 3d3f 0f0b 0740
000002e0: cbd6 efbe 5a84 acbf 9774 f8be 0025 3040
000002f0: 3009 bbbe 9cd1 f13e a2c0 55be 3a80 eabe
00000300: 0364 33be 1503 2cbd 8f2f cfbc 34bd 8a3e
00000310: afe8 3abe dbd3 d23b 3ccd 183f 2176 233e
00000320: 7a7a 19be 3e48 90bf f26b 513d 886b 283f
00000330: fb7e 6f3e bc53 13bf b8c3 683f 7d10 5dbe
00000340: 160b e43e 8dc9 bfbe 3e6d f6bd 47b0 e13e
00000350: 07e4 10bf bbac d1be db98 c43e 1de7 6a3f
00000360: 177f f83e 1661 1dbf 9c6a f6be ddc0 d4be
00000370: c923 6e3e 3242 9a3f 4fda 193e ee83 86be
00000380: 7be5 023f 9123 0a3e f203 73be fd23 62bd
00000390: 73d6 02be 727c 243f cc9c 46be 62bd 6cbf
000003a0: 3d7d fc3e aefc e33e 0780 55be d6e8 4d3f
000003b0: daa1 973e 9a25 b43d 812f cb3d 27e6 c8bf
000003c0: b94b 653f a61a 113e 2139 99bd c867 56bf
000003d0: b11e 063f c179 b4bf 6a22 2b3f 96ee e5bf
000003e0: 5d92 a23f 0ca1 5bbe 255d 83be bb7b e83d
000003f0: d49f febc 2f54 7abf d302 513f d6cb 96bf
-0.7314763 -0.5844049 0.7234582 0.2109463 -0.0279871 0.5467365 0.47051516 0.07469423
-1.852767 0.757595 -2.6929247 -0.10912304 -0.030857736 -1.1069497 0.2601636 0.019625438
0.076662175 -0.15301117 0.18540046 -0.7206327 0.10039569 0.52839583 -0.14838552 0.27457485
0.32813555 0.5978847 -0.93531424 0.7981569 -2.6003394 -1.1203481 -0.48163223 3.3321364
0.61778986 2.4732025 -0.01662237 -0.10987407 0.03062387 -1.5874335 1.1878201 -1.4284809
1.1658391 0.9365066 -0.3584462 0.3316646 0.52058405 0.0464036 -0.7055932 -0.55413693
0.57489014 0.023268338 0.14776032 -1.1421887 -0.75462157 -1.8554205 0.6436916 -1.8837662
1.006813 2.777911 -0.5998787 -0.24925312 -1.1397433 -0.44794717 -0.5576203 -0.13992557
0.74614435 0.16593428 -0.3958439 0.4975088 -0.6766246 -0.11471741 0.2842937 0.08869242
0.7033814 -0.73005867 1.6453835 0.1199904 -0.5292393 0.10627688 0.67710865 -0.5318701
0.27234438 -0.08310217 0.23947565 0.21697083 0.4519307 -0.05247531 0.9882777 1.2025894
-0.8367409 -0.1314099 -1.447965 -2.6817975 1.5213728 -0.7020893 0.85620636 -0.60797703
-0.33942392 0.17737775 -0.32787067 -0.3993385 -0.29216018 -1.7262315 -0.40513378 1.832443
-0.49259606 0.8253927 -0.10361436 0.20541221 0.2366696 0.30011415 -0.4430172 0.34270066
-0.7970472 -0.062167678 0.110739365 -0.5472636 0.29971474 2.0073998 -0.28043458 0.954887
0.014913163 -0.40745667 0.77315795 0.49243733 0.2803052 -0.37418798 0.39209184 0.27861935
-1.3407651 0.06173041 0.42996106 -0.38492447 -1.7363884 0.5059351 -0.2715646 0.1791597
-0.47336632 -0.71526664 -0.7529442 -0.7700611 0.20742787 -0.23759471 -0.11777407 -0.54086787
0.2860091 -0.13875413 0.46642998 -0.22092745 0.1290653 0.103275724 0.46432334 -0.26703274
-0.051452763 0.04284255 0.9998409 -2.305708 0.86215365 -1.165782 -0.17670771 0.3228323
-0.07443989 -2.030407 0.027884917 0.20855771 0.92367345 1.2686538 -0.14875557 -1.4588419
-0.5751244 -0.052436873 0.29532441 0.23645894 0.2309836 -0.21859759 0.3267775 0.09617573
0.94539833 -0.02005845 -0.14454967 2.418314 0.40281153 0.33986285 0.7413692 2.11005
-0.46843562 -1.347789 -0.4852645 2.7522583 -0.36530447 0.47230232 -0.20874265 -0.45800954
-0.1751862 -0.041995127 -0.025291232 0.27097476 -0.18252824 0.0064339465 0.5968816 0.15963031
-0.14988127 -1.1272047 0.051128335 0.6578908 0.23388283 -0.57549644 0.90923643 -0.21588321
0.44539708 -0.3745846 -0.12032555 0.440798 -0.5659794 -0.40952095 0.3839787 0.917589
0.48534462 -0.61476266 -0.48128211 -0.41553393 0.23255838 1.2051451 0.15024684 -0.2627253
0.5113141 0.1349013 -0.23731974 -0.055210102 -0.12777118 0.6425239 -0.19395751 -0.92476475
0.493143 0.44528717 -0.2084962 0.80433404 0.2961567 0.087962344 0.0992117 -1.5695237
0.8956867 0.14170322 -0.074815996 -0.8375211 0.5239058 -1.4099656 0.66849387 -1.7963436
1.2700917 -0.21448153 -0.25657 0.11351725 -0.031082071 -0.97784704 0.81644934 -1.1780956

l3.bias f4 [8]
00000000: 7ad3 dc3d afeb 3c3d ed38 b13d ea41 283e
00000010: bf64 123e 418b 973b 4be7 993d 73c9 2e3f
0.107825235 0.046123203 0.08653436 0.16431394 0.14296244 0.0046247547 0.07514819 0.6827614
