uncertain/Ant-v2/uncertain.pth (torch, 49951 bytes, 5 tensors)

layer1.weight f4 [64, 119]
0	0xba3595b1	-0.0006926908
1	0xbafb26f4	-0.0019161389
2	0xb9499236	-0.00019223322
3	0xb91e545b	-0.00015099479
4	0xbbfeb79a	-0.007773352
5	0xbae160b8	-0.0017194962
6	0xbb75b2ca	-0.00374906
7	0x3a87f141	0.0010371582
8	0x3a8a4d53	0.0010551609
9	0xbaac4326	-0.001314257
10	0x3b1d50b8	0.002400441
11	0xbae50481	-0.0017472656
12	0x3bbad157	0.005701225
13	0x3b576412	0.0032866043
14	0xba8d4316	-0.001077744
15	0x3b93a021	0.004505173
16	0x3c3518a1	0.011053235
17	0xbc43fd42	-0.011962237
18	0x3be7ae28	0.0070703216
19	0xb7a0b1f8	-1.915636e-05
20	0xbc64d995	-0.013967891
21	0xb937fb25	-0.00017545799
22	0xba0287cf	-0.00049793435
23	0x3b5c2f4b	0.0033597525
24	0xbb8277cf	-0.0039815675
25	0xba0c8ccb	-0.0005361556
26	0x3bf34940	0.0074245036
27	0x3b43d18a	0.0029879534
28	0x8cb84abe	-2.8394673e-31
29	0xb9e54428	-0.00043729064
30	0x3b0823a6	0.0020773201
31	0x3123a71c	2.3814613e-09
32	0xb6479230	-2.9738403e-06
33	0x31644bec	3.3221523e-09
34	0x3c3dc683	0.011582973
35	0xbb28b2d8	-0.0025741365
36	0xbb85a50c	-0.004078513
37	0xbbc519e6	-0.00601505
38	0xba6145d2	-0.0008593473
39	0xb3777c04	-5.762196e-08
40	0x39966854	0.0002868796
41	0x3b3ecc27	0.0029113383
42	0xb88c4109	-6.687834e-05
43	0x20c1668e	3.2763337e-19
44	0x9e0cebb4	-7.4602806e-21
45	0x3bec810b	0.0072175316
46	0x3913ad17	0.00014083493
47	0x92ddb8d8	-1.3992628e-27
48	0xb97b8967	-0.00023988412
49	0x3a9a7b86	0.001178608
50	0xb6ace227	-5.152327e-06
51	0x383c5c67	4.490875e-05
52	0x0daab86f	1.052146e-30
53	0x3a861659	0.0010230049
54	0xbc48e3fc	-0.012261387
55	0x3bbd965f	0.005785748
56	0xa4f2ce95	-1.05300734e-16
57	0x32211994	9.377249e-09
58	0xbb6679c8	-0.0035167802
59	0xbb15c4e8	-0.002285296
60	0xbb56f519	-0.0032799898
61	0x900957cf	-2.708613e-29
62	0xb76ba03d	-1.40444e-05
63	0x3b476fc6	0.0030431612
64	0xb68a49f5	-4.12133e-06
65	0xba60f5d9	-0.0008581556
66	0x94c71bc5	-2.0104818e-26
67	0x966e3f10	-1.9245386e-25
68	0xb88fd151	-6.8577596e-05
69	0xb83c7357	-4.493011e-05
70	0x3985b59e	0.00025503052
71	0xbc118b40	-0.008883297
72	0xbb86d69d	-0.0041149394
73	0x3b9b6638	0.00474241
74	0xbac1ea3f	-0.0014794542
75	0x3be1009b	0.0068665273
76	0xbc266293	-0.010155338
77	0x909ce454	-6.1882946e-29
78	0xbc45ff9f	-0.012084871
79	0xbc069f26	-0.008216655
80	0xbc03e8ec	-0.008051138
81	0xb7ea5c64	-2.7937996e-05
82	0xb7511a69	-1.246352e-05
83	0xb5f2df23	-1.8095346e-06
84	0xb8ac6d9f	-8.222018e-05
85	0x3a6a9de7	0.0008949921
86	0x0f4b1b42	1.00139224e-29
87	0xbb26af81	-0.0025434198
88	0x1a2e9c1c	3.610846e-23
89	0x3bc65eef	0.0060537974
90	0x3b943ca5	0.004523831
91	0xbc25c047	-0.010116643
92	0x12413ae9	6.0972674e-28
93	0x94f75f5c	-2.4978239e-26
94	0xbc2c070c	-0.010499727
95	0x27332fbd	2.486712e-15
96	0x0d6579c6	7.0712653e-31
97	0xba5ff6a6	-0.00085435284
98	0x3c474fd1	0.012165026
99	0x3afa69a8	0.0019104974
100	0x24849247	5.749368e-17
101	0x3b5afead	0.0033415959
102	0x3c2bb7ca	0.01048083
103	0xbb9ad627	-0.004725236
104	0xbbdb7fa7	-0.006698567
105	0x3aca141d	0.0015417371
106	0x31fcf634	7.3621553e-09
107	0x3661a1c2	3.3621768e-06
108	0x1d9f712f	4.220398e-21
109	0x3abe2a10	0.0014508385
110	0x0ba7a80f	6.4578927e-32
111	0xba174907	-0.0005771075
112	0xbbbfcc8a	-0.0058532404
113	0xbc57654f	-0.013146712
114	0x3b154466	0.0022776364
115	0x3abd253e	0.0014430655
116	0xb9a9411b	-0.000322827
117	0x39dbd391	0.00041928564
118	0x3bb54011	0.005531319
119	0x3dafb5ed	0.085796215
120	0xbcfc3ca0	-0.030790627
121	0x3b869ae6	0.004107821
122	0xbd04871e	-0.03235542
123	0xbd8c2585	-0.06843094
124	0x3d0e743a	0.03477881
125	0xbc20c828	-0.009813346
126	0xbd9d1716	-0.07670419
127	0xb992a0a6	-0.00027966982
128	0xbd8f3709	-0.06992919
129	0xbdc7da41	-0.097584255
130	0x3b916aa8	0.0044377632
131	0x3dad23ac	0.084540695
132	0xbc642181	-0.013924004
133	0xb892b3c8	-6.9953094e-05
134	0xbba0efaf	-0.004911385
135	0xbbae08b4	-0.005311096
136	0x3c018d1a	0.007907176
137	0x3c6232a5	0.01380602
138	0xbbd96119	-0.0066338894
139	0x3d04a8ad	0.032387424
140	0xbc0297c9	-0.007970759
141	0xbce9ae0d	-0.028525377
142	0xbd0bf22c	-0.0341665
143	0x3bde76ff	0.006789088
144	0xbc91d58c	-0.017802022
145	0x3c8aa052	0.01692215
146	0xbb72aca8	-0.003702918
147	0xb826862d	-3.9702445e-05
148	0x3bc93fd3	0.0061416416
149	0xb380bbcf	-5.994627e-08
150	0xbb427bb2	-0.002967578
151	0xbac264d2	-0.0014831072
152	0x39032ae9	0.00012509119
153	0x3b4c9f4b	0.0031222876
154	0x3a53587b	0.0008062196
155	0xb5b2ff97	-1.333642e-06
156	0x3bb0599b	0.0053817756
157	0x3988b3c1	0.00026073869
158	0x39c02e13	0.00036655422
159	0x3b90e477	0.0044217664
160	0x3c0a5cfd	0.008445022
161	0x3bead7d7	0.0071668434
162	0x8c0e03c7	-1.0940419e-31
163	0xb8b995ba	-8.849376e-05
164	0x8e12c070	-1.8088545e-30
165	0xbc3297da	-0.010900462
166	0xbb100eee	-0.0021981555
167	0xbbae2087	-0.005313936
168	0xbbaa0057	-0.005188029
169	0xbab700fb	-0.0013962084
170	0x3b21c3f1	0.002468344
171	0x32072d7c	7.868376e-09
172	0xb8356781	-4.325016e-05
173	0xb7b1e67d	-2.1207374e-05
174	0xb7379931	-1.0943318e-05
175	0x0cda509d	3.3636736e-31
176	0x13c4ed2c	4.9711226e-27
177	0x1200448a	4.047416e-28
178	0x0d1b0066	4.776354e-31
179	0xb94c2dd3	-0.00019472027
180	0xb8fd79db	-0.000120866775
181	0x3c32493b	0.010881717
182	0x91bd1cc8	-2.983668e-28
183	0x35d1da54	1.5635255e-06
184	0xb6c16ff5	-5.7648817e-06
185	0x33c7e26f	9.307848e-08
186	0x3c0d808c	0.008636605
187	0x32173c34	8.803045e-09
188	0xb8cdaf49	-9.807811e-05
189	0x8f9cd418	-1.5464483e-29
190	0x8db6f943	-1.1276624e-30
191	0x3af70a3d	0.0018847656
192	0x3b1dec10	0.0024097003
193	0xbc1e3f9d	-0.009658721
194	0x1b036b34	1.0870705e-22
195	0xb144f008	-2.8658196e-09
196	0x3c357477	0.011075131
197	0x2d2f7a46	9.9747485e-12
198	0x3b8a16b0	0.0042141303
199	0xb9e6b901	-0.00044006857
200	0x0d0aae10	4.2734053e-31
201	0xbb4a7ad8	-0.0030895974
202	0x39255e76	0.00015770816
203	0x3c39e991	0.0113471905
204	0x303df274	6.9102346e-10
205	0xbc082f7c	-0.008312102
206	0x3c271337	0.010197452
207	0xb8ff2222	-0.00012165705
208	0x99685635	-1.2011528e-23
209	0xa4cef9a1	-8.976115e-17
210	0xbc23406f	-0.009964093
211	0x2eb766cc	8.340137e-11
212	0xb7946fc4	-1.769502e-05
213	0xbaf05a0d	-0.0018337384
214	0x9d753930	-3.2455045e-21
215	0xbb12bd52	-0.0022390676
216	0xbb3455fb	-0.0027517069
217	0x2c261b14	2.360505e-12
218	0x2dbf40c4	2.1742948e-11
219	0xb46114bd	-2.0962302e-07
220	0x397faa5a	0.00024382156
221	0x3063b14d	8.283408e-10
222	0x3c392ff2	0.011302935
223	0x3ab1e81e	0.0013573205
224	0x391b6f8c	0.00014823506
225	0x3bdc5459	0.006723922
226	0x3bebdc59	0.0071978983
227	0xbba8a076	-0.0051460816
228	0xbc01315a	-0.0078853015
229	0xbaa538f4	-0.0012605474
230	0x3cd85c1a	0.026411105
231	0xbc8413ed	-0.016122783
232	0x3db8d85b	0.090256415
233	0x3c7f36e5	0.015577053
234	0xbd364f0a	-0.04450897
235	0xbd9c0d1d	-0.07619689
236	0x3d88ac5d	0.06673501
237	0x3d1e89bb	0.03870557
238	0x3c099d78	0.00839936
239	0xb7c59f6a	-2.3558463e-05
240	0xba529445	-0.0008032958
241	0x3c44e32d	0.012017054
242	0xbb5cb1f9	-0.0033675416
243	0xbb8d56b2	-0.0043133134
244	0x39f9379c	0.00047534413
245	0x38e9a14d	0.000111403504
246	0x3bd4ed82	0.0064980397
247	0xbba0648a	-0.0048947977
248	0xbbf0b3c2	-0.0073456476
249	0x3c58a4ab	0.013222854
250	0x3c6d57c3	0.014486256
251	0xb9beadd9	-0.0003636915
252	0xb81c33b7	-3.724146e-05
253	0x39af70cc	0.0003346264
254	0x3b4234ee	0.00296336
255	0x3abe600b	0.0014524473

layer1.bias f4 [64]
0	0xbb644425	-0.0034830656
1	0x3d9b427b	0.075810395
2	0xba1c8571	-0.0005970812
3	0xbcfb3a3b	-0.030667415
4	0xbcdb6f26	-0.026786398
5	0x3dc41958	0.095751464
6	0x3c19ba08	0.009382732
7	0x3db01d8a	0.08599384
8	0x3d8deb08	0.06929594
9	0x3dba80a5	0.09106568
10	0x3d5ca6c4	0.053869978
11	0x3c85755c	0.016291313
12	0xbb675f7a	-0.0035304711
13	0x3c82d57b	0.015970936
14	0x3da8df94	0.08245769
15	0x3db6cbf1	0.089256175
16	0x3c0791d2	0.008274512
17	0xbd8d9f7f	-0.06915187
18	0x3bf3e6d6	0.0074432893
19	0x3d711516	0.058858
20	0x3b009335	0.0019618992
21	0x3c684577	0.014176718
22	0xbc1f35b9	-0.009717398
23	0x3ce67a62	0.028134529
24	0x3baff9cc	0.0053703543
25	0x3d8a24f5	0.0674533
26	0x3da5b559	0.0809123
27	0xbc52c283	-0.012863758
28	0x3d907d46	0.07055144
29	0xbd012b59	-0.03153548
30	0x3d7de718	0.061987966
31	0xbd3ca285	-0.04605343
32	0x3d8ef902	0.06981088
33	0x3c78820b	0.015167723
34	0x3d86e74e	0.065870866
35	0xbc0ab2c2	-0.008465471
36	0x3da25e01	0.07928086
37	0x3da2d0fa	0.07950015
38	0xbd1b3e68	-0.037901312
39	0x3d8cb38b	0.068701826
40	0x3c0b9bac	0.008521002
41	0x3dacb5e8	0.08433133
42	0x3d18cea6	0.03730645
43	0x3d5d7964	0.054070845
44	0x3c2733c0	0.010205209
45	0x3cd0ce82	0.025489096
46	0x3d81f9a3	0.063464426
47	0x3cf01452	0.029306564
48	0x3d6850b4	0.05671759
49	0x3d05f30a	0.032702483
50	0xbc0a6dc8	-0.008449025
51	0x3d985ab8	0.07439178
52	0x3dc013c6	0.093787715
53	0x3db5a750	0.08869803
54	0x3dd7fbbc	0.105460614
55	0xbc0379e0	-0.008024663
56	0x3bbf0aa1	0.0058301245
57	0x3c83050e	0.015993621
58	0x3dbbb0f0	0.091646075
59	0x3d16b9c3	0.03679825
60	0xbc0fc341	-0.0087745795
61	0x3cf996d9	0.030467438
62	0x3d80c6e2	0.06287934
63	0x3c3e670a	0.011621246

layer2.weight f4 [64, 64]
0	0xbb9221db	-0.0044596023
1	0x3d81cfd7	0.063384704
2	0x3a8e6c96	0.0010866101
3	0x3cf2545e	0.029581245
4	0xbd659952	-0.05605442
5	0x3c98d479	0.018656002
6	0xbd008cab	-0.03138415
7	0x3bf8c532	0.007591867
8	0x3c8bc69a	0.017062474
9	0x3d88911d	0.06668303
10	0xbc475760	-0.012166828
11	0xbcbc216d	-0.022965157
12	0xbcc13f0c	-0.023589633
13	0x3baca604	0.005268814
14	0xbc7eea74	-0.015558828
15	0xbd80f836	-0.062973425
16	0x3bf7ed83	0.0075661554
17	0xbcf94678	-0.03042911
18	0xbc812293	-0.015763557
19	0xbd0174ed	-0.03160565
20	0x39152b14	0.00014225795
21	0xbb4d9771	-0.0031370784
22	0x3a737f04	0.0009288641
23	0x3d394906	0.045235656
24	0x3cea09eb	0.028569182
25	0xbc55aa3e	-0.013041077
26	0xbd084658	-0.03327021
27	0xbd06461d	-0.03278171
28	0x3d814382	0.06311704
29	0x3cd10ae0	0.02551788
30	0x3db6c490	0.0892421
31	0xba06727d	-0.00051287544
32	0x3c3b3b6d	0.011427742
33	0xbcb64a17	-0.022252126
34	0xbc58a282	-0.013222339
35	0xbd768722	-0.060187466
36	0xbd8cc935	-0.06874315
37	0xbd43c859	-0.04779849
38	0x3d2b9292	0.041887827
39	0x3d72fb9b	0.05932198
40	0xbc3acd0f	-0.011401429
41	0xbd8d6603	-0.06904223
42	0x39c95ee2	0.000384084
43	0x3d41f63c	0.047353968
44	0xba04412e	-0.0005045113
45	0x3d5b6a57	0.05356821
46	0x3d2ef043	0.0427096
47	0xba5b7fbb	-0.00083732203
48	0xbc25436c	-0.010086875
49	0xbcc04337	-0.02346955
50	0xbcb58a18	-0.022160575
51	0xbd4c8600	-0.04993248
52	0xbd3bce3b	-0.045850974
53	0x3ca1f20b	0.019768735
54	0xbc8ba702	-0.017047409
55	0xbd5dd6ad	-0.05415981
56	0xb85a1fcd	-5.2004867e-05
57	0xbad13882	-0.0015962275
58	0xbcf05437	-0.029337032
59	0x3d13fe66	0.036131285
60	0x3cc4d6b8	0.024028167
61	0x3d9abd94	0.075556904
62	0x3d8c93fd	0.06864164
63	0x3c99cafb	0.018773546
64	0xbae6a5f6	-0.0017597068
65	0x3da6df93	0.08148112
66	0x3c2c65ec	0.010522347
67	0x3d039001	0.032119755
68	0x3d80c1be	0.062869534
69	0x3d3585b2	0.044316955
70	0x3c10969b	0.00882497
71	0xbcb1870f	-0.021670846
72	0xbccc1813	-0.024913823
73	0xbd02c85f	-0.03192937
74	0x3d6647e1	0.056220893
75	0x3d3208b2	0.043465324
76	0xbb7ab379	-0.0038253947
77	0xbb0a0c02	-0.0021064286
78	0x3dac2140	0.084047794
79	0x3d9319d8	0.07182664
80	0x3d9f74eb	0.07785972
81	0xbd34aec6	-0.04411199
82	0xbd373992	-0.044732638
83	0xbd3b6f1f	-0.04576027
84	0xb902bd73	-0.00012468341
85	0xbd1c9675	-0.038229425
86	0x3c61e701	0.013787986
87	0x3d36dbf7	0.04464337
88	0xba76a3e4	-0.0009408577
89	0xbd01c343	-0.031680357
90	0x3d2685cf	0.040654954
91	0x3c1e0251	0.009644107
92	0xbd512f38	-0.051070422
93	0xbd1c716e	-0.038194112
94	0xbd03049d	-0.03198682
95	0x3c33ed81	0.010981918
96	0xbd2e76f5	-0.042593915
97	0x3b64d980	0.003491968
98	0x3b351be6	0.0027635037
99	0x3d74f571	0.059804384
100	0xbd91c724	-0.07118061
101	0xbc8c8d28	-0.017157152
102	0xbc02bede	-0.007980077
103	0x3d67cdf4	0.056592897
104	0xbbf8ad4c	-0.007589018
105	0x3d69a0d1	0.057038132
106	0xbb76b3d5	-0.003764381
107	0x3d46d9db	0.048547607
108	0xbbe42270	-0.006962113
109	0xbca38432	-0.019960497
110	0x3a1a551d	0.00058873167
111	0xbc1abf1b	-0.009444977
112	0xbcaf81f7	-0.021424277
113	0x3d6e5be2	0.058193095
114	0xbb0bdcd7	-0.0021341348
115	0x3bfa2d86	0.0076348213
116	0x3d192cbb	0.037396174
117	0x3cec01a2	0.028809372
118	0xbd4aad21	-0.049481515
119	0x3db33bc4	0.08751634
120	0x3c1072d7	0.008816442
121	0xbd49b7a7	-0.04924741
122	0x3d7baef0	0.06144613
123	0xbd279ef6	-0.04092308
124	0xb9d13d20	-0.00039909128
125	0xbd58429d	-0.052797902
126	0x3cfd0002	0.030883793
127	0x3ca288e0	0.019840658
128	0x3a8e896e	0.0010874697
129	0x0f45ef7a	9.7589714e-30
130	0xb7c60518	-2.3605811e-05
131	0x3c0ad34d	0.00847323
132	0xbc9501f2	-0.018189404
133	0x11625885	1.7855534e-28
134	0xbcf39732	-0.029735181
135	0x1cb13570	1.1726691e-21
136	0xbb25b852	-0.0025286865
137	0xbc12d0b2	-0.00896089
138	0x8e27c041	-2.0676906e-30
139	0x0f32d85d	8.8177476e-30
140	0xbce1ecf7	-0.027578814
141	0x397363a9	0.00023211412
142	0x37938a30	1.7588114e-05
143	0x392a59fd	0.00016245987
144	0xbd078340	-0.033084154
145	0xbc0140ae	-0.007888956
146	0xbc08da5e	-0.008352844
147	0x3c9ce69a	0.019152928
148	0x3a45a5c1	0.0007539653
149	0x3cdefd0d	0.027220273
150	0x3b59a4d5	0.003320982
151	0x2fa07569	2.9187255e-10
152	0x396c6487	0.00022544163
153	0xbb281876	-0.0025649345
154	0xb7103bf2	-8.597026e-06
155	0xbce483de	-0.02789491
156	0x1fca5bbc	8.570209e-20
157	0x37ed61b3	2.8298096e-05
158	0xbc49f8af	-0.012327357
159	0xb4165228	-1.3999727e-07
160	0xad931b63	-1.6724127e-11
161	0x10b23c9b	7.0302e-29
162	0x1ac6a97b	8.216469e-23
163	0xb5c81517	-1.4907299e-06
164	0x8dd62f66	-1.3200179e-30
165	0x8c33cfed	-1.3852229e-31
166	0xa7bc88f8	-5.2328984e-15
167	0xbc9d5d9d	-0.019209677
168	0x11337e85	1.4159597e-28
169	0xbc1e37ad	-0.009656829
170	0xbc3f89c3	-0.01169056
171	0xbc36aff0	-0.011150345
172	0x3ce81b8b	0.028333446
173	0x36be81d5	5.6775557e-06
174	0x3c4b6a85	0.012415533
175	0xb9c48a87	-0.00037487244
176	0xbc9389d4	-0.018010058
177	0xbc31465d	-0.010819999
178	0xbbe09a9f	-0.00685437
179	0xbcf7da93	-0.030255591
180	0xbb5d23c4	-0.0033743242
181	0xba1e5d5c	-0.00060411333
182	0xa84d52fb	-1.13977795e-14
183	0xbaa46267	-0.0012541533
184	0x39f83691	0.000473429
185	0xbc946296	-0.018113416
186	0x32081ab0	7.92231e-09
187	0x2b7132a0	8.5690656e-13
188	0x397cf1a3	0.0002412261
189	0xbc031e00	-0.008002758
190	0x3b7cb53b	0.003856017
191	0x1256a4c0	6.7729564e-28
192	0xbc59e43c	-0.013299044
193	0x3cc17605	0.023615846
194	0x3b14e9ef	0.0022722443
195	0x3cc4ddfc	0.024031632
196	0xbb29b513	-0.0025895282
197	0xbd52f904	-0.05150701
198	0x3bc02c2a	0.0058646398
199	0xbd67d5fb	-0.056600552
200	0xbccd0476	-0.025026541
201	0x3b2fe7f9	0.0026841147
202	0xbc9887ff	-0.018619535
203	0x3ced3203	0.028954512
204	0xbd587d64	-0.052853957
205	0xbcd10f99	-0.025520133
206	0x3c1e8c99	0.009677076
207	0x3c5e2cc4	0.013560478
208	0xbce063fa	-0.027391423
209	0xbc25d261	-0.010120959
210	0xbcafba8b	-0.021451255
211	0x3c08d55b	0.008351649
212	0xb8b8ea9c	-8.817503e-05
213	0x3bcf11c2	0.0063192556
214	0x3c56d734	0.013112832
215	0x3cebd59f	0.028788386
216	0x3c32709d	0.010891107
217	0x3d6ff869	0.05858651
218	0xbae29a94	-0.00172885
219	0x3b9be3b3	0.0047573685
220	0xbc815d48	-0.01579155
221	0x3ccd1ffc	0.025039665
222	0x3d6458ad	0.05574863
223	0xbbebea04	-0.0071995277
224	0x3d88ae23	0.06673839
225	0xbcb8c4c1	-0.022554757
226	0x3cabf7e2	0.020992223
227	0x3cd3eb9a	0.02586918
228	0xbd2ba16d	-0.041901994
229	0x3d1375aa	0.036000885
230	0x3bfc98c2	0.00770864
231	0x3d0a76fc	0.03380488
232	0x3ca06537	0.019579513
233	0xbd2cdfd3	-0.042205643
234	0x3a0994b4	0.0005248294
235	0xbbf37380	-0.00742954
236	0xb9e681e7	-0.00043965803
237	0x3c9327f1	0.017963381
238	0x3a471335	0.00075941096
239	0xbac2ab05	-0.0014851993
240	0xbaebb6dd	-0.0017983575
241	0xbcfc05d5	-0.0307645
242	0xb898481b	-7.2613555e-05
243	0x3bed5c73	0.007243687
244	0x3d1bf465	0.03807487
245	0x3cd4c0bd	0.025970811
246	0x3d690b3c	0.05689548
247	0x3ca753cc	0.0204257
248	0xbc610534	-0.013734151
249	0xbd2d6e42	-0.04234148
250	0x3d32aba5	0.043620724
251	0xbbd528a1	-0.0065050875
252	0xb8c6e9aa	-9.484899e-05
253	0xbca11b24	-0.019666262
254	0xbce8ae96	-0.028403562
255	0x3cf04340	0.029328942

layer2.bias f4 [64]
0	0xbc219468	-0.009862043
1	0x3d73d32f	0.059527572
2	0xb857f562	-5.1488525e-05
3	0x3dba4f82	0.09097196
4	0xb9dbc3e3	-0.00041916882
5	0x3bbba6b7	0.005726661
6	0x3d8c9ca7	0.068658166
7	0xbd4599ad	-0.04824226
8	0x3c4463f5	0.011986722
9	0x3deecdc4	0.116603404
10	0x3de05fb9	0.10955758
11	0x3d8cb844	0.068710834
12	0x3de776bd	0.113019444
13	0xbba2a496	-0.004963468
14	0xbda6a8f0	-0.08137691
15	0x3d94fea6	0.07275133
16	0xbd8ea9c9	-0.06965978
17	0xbcba6cb6	-0.022756916
18	0xbc95c374	-0.018281676
19	0xb736ae1f	-1.0888586e-05
20	0xbba69ecf	-0.0050848494
21	0xbc96477d	-0.018344635
22	0x3dbbb4e2	0.0916536
23	0x3d9b769b	0.075909816
24	0xbcd7cf94	-0.026344098
25	0x3e0710e0	0.13190031
26	0x3d60a0ec	0.054840967
27	0xbd44b1bd	-0.048021067
28	0x3c879cea	0.016554315
29	0x3cb1c586	0.021700632
30	0x3c1dd8da	0.009634221
31	0x3c9a6ddd	0.018851215
32	0x3d429e81	0.047514442
33	0x3e0c671f	0.13711213
34	0xbc1b3302	-0.00947261
35	0x3dbd6c19	0.092491336
36	0xbd1b8d86	-0.037976764
37	0x3d204d71	0.039136354
38	0x3dcf103b	0.101105176
39	0x3d5be551	0.05368549
40	0x3d9260d5	0.071473755
41	0x3d895fdd	0.067077376
42	0x3d9abb45	0.0755525
43	0x3d96a7a0	0.07356191
44	0x3cb89208	0.02253057
45	0x3d8a509d	0.06753657
46	0x3d11e9db	0.035623413
47	0x3d5dc715	0.054144938
48	0xbd9bc656	-0.07606189
49	0x3d95f230	0.07321584
50	0x3a0264f4	0.00049741496
51	0x367d38e2	3.7733048e-06
52	0x3cf6f10c	0.030144237
53	0xbb08ccc8	-0.0020874012
54	0xbb0240f3	-0.0019875139
55	0x3e0cb3b2	0.13740423
56	0xbb53bffc	-0.0032310477
57	0xbd3bd2f6	-0.045855485
58	0xbd80627f	-0.06268787
59	0xbc23d5e3	-0.009999725
60	0xbad7c569	-0.0016462031
61	0xbd692c26	-0.05692687
62	0x3c11a7c5	0.008890097
63	0x3cb5de6a	0.022200782

layer3.weight f4 [1, 64]
0	0xbd7d66bb	-0.06186555
1	0x3d31d768	0.043418318
2	0xbcf188fb	-0.029484263
3	0x3cf5a186	0.029984247
4	0x3992aff1	0.00027978377
5	0xb94eeaab	-0.00019733112
6	0x3d9c645b	0.07636329
7	0x3da2025d	0.07910607
8	0xbc23f41e	-0.010006933
9	0x3d53d7f5	0.051719625
10	0x3d0f030c	0.034915015
11	0x3d58c151	0.052918736
12	0x3e176a63	0.14786677
13	0xb8147b45	-3.5400753e-05
14	0xbd20f467	-0.03929558
15	0x3dde5cb1	0.10857523
16	0x3dd0ef37	0.102018766
17	0xbcbd7755	-0.023128191
18	0x3e05d57d	0.1306972
19	0xbc42b269	-0.011883357
20	0xb9359702	-0.0001731776
21	0xbd357eb8	-0.0443103
22	0xbc2af0e4	-0.010433409
23	0x3d39eb2c	0.045390293
24	0x3d13484c	0.03595762
25	0x3e0102b7	0.12598692
26	0x3d1caa1f	0.038248178
27	0xbc890bf9	-0.016729342
28	0x3dd0917b	0.10183998
29	0xbc3673fc	-0.011136051
30	0x3d879f09	0.066221304
31	0x3d6c0817	0.057624903
32	0x3d66f3b5	0.05638476
33	0x3dc540d1	0.096315034
34	0x3d919854	0.071091324
35	0x3e035db3	0.12828712
36	0x3c009e01	0.007850171
37	0xbd4eadad	-0.0504586
38	0xbde2532e	-0.110510215
39	0x3da01e76	0.0781831
40	0x3d2c5d84	0.04208137
41	0xba910a5e	-0.0011065712
42	0x3e0debf8	0.13859546
43	0x3d738d88	0.059461147
44	0xbc8afe1c	-0.016966872
45	0x3e0abd56	0.13548788
46	0x3e1590a5	0.14605959
47	0xbc527489	-0.012845167
48	0x3dd845d4	0.10560194
49	0x3dfc7ff5	0.12329093
50	0x3868eda7	5.553444e-05
51	0xba092a3e	-0.000523243
52	0xbdaad1fe	-0.08340834
53	0xbc68c910	-0.014208093
54	0xbc42353f	-0.011853515
55	0x3d4ed3f2	0.050495096
56	0x31890fdc	3.9890278e-09
57	0x3dc01b35	0.09380189
58	0xbd9d174d	-0.0767046
59	0xbce1622c	-0.027512632
60	0x3da121ec	0.07867798
61	0x3e0424ac	0.12904614
62	0x3d2f0fd3	0.0427397
63	0xbdb22926	-0.08699255
