uncertain/InvertedDoublePendulum-v2/actor.pth (torch, 503839 bytes, 5 tensors)

l1.weight f4 [400, 11]
000000 98 1c 9d be 08 b0 a0 3d 37 58 8c 3f 95 2a ab be
       -0.30685878 0.07846075 1.0964421 -0.33430925
000010 11 6b 98 be 84 5c d5 bd 81 ea c4 3d 72 e0 01 3e
       -0.29769185 -0.104180366 0.096150406 0.12683275
000020 10 33 a5 bc 70 a9 7e 3e 04 c3 20 be d9 c6 63 bd
       -0.02016595 0.24869323 -0.15699393 -0.055609558
000030 a4 40 0e c0 ff 8a 2d c0 03 bd d8 bd b5 35 26 bf
       -2.2226954 -2.7116086 -0.10582926 -0.649257
000040 2d b2 20 be df 30 60 3e c3 b4 1f 3e 74 75 41 3e
       -0.15692969 0.21893643 0.15596299 0.18892461
000050 b0 ea 8a 3e bc e2 f8 bd 5f 3d 9d be db 25 1d 3f
       0.27132177 -0.12152621 -0.30710885 0.6138589
000060 ef ec df bf 94 39 d4 be e5 b8 1f bf 8e 48 88 be
       -1.7494181 -0.4145018 -0.623915 -0.26617855
000070 59 06 48 be 5d 1c 99 be e4 fb ee 3d 84 3d b0 3d
       -0.19533671 -0.29904452 0.11669138 0.08605483
000080 fc 01 07 3e 63 d1 77 be be 42 3e bf d4 20 bf 3e
       0.1318435 -0.24200968 -0.7432059 0.37329733
000090 6a 0f 09 bf 3c 5c 81 bc e3 b4 0b be 6b a9 c7 be
       -0.53539145 -0.015791051 -0.13643222 -0.38996443
0000a0 ca fa 5e 37 fd 64 8f bc 10 8b 77 3d b2 63 87 3e
       1.32906225e-05 -0.01750421 0.060435355 0.2644325
0000b0 91 cb 04 bf 58 fa c1 bf 40 c7 25 3d be 63 47 be
       -0.5187312 -1.5154524 0.040473223 -0.19471642
0000c0 31 5b 6a 3e 38 f2 94 be 6f ed 64 be 9f f4 5e 3d
       0.2288635 -0.29091048 -0.22356199 0.054432508
0000d0 c0 87 95 bd d0 d1 54 3e 75 f3 25 be 53 b5 83 3e
       -0.07301283 0.20783162 -0.16206153 0.25724277
0000e0 81 83 8e 3f 7a 75 72 bf e3 28 1f be 62 a3 e4 be
       1.1133882 -0.94710505 -0.15542941 -0.446559
0000f0 92 cb 9d 3d 86 fb 9c be 9f 11 79 be 97 9a 92 be
       0.077048436 -0.30660647 -0.24323128 -0.28633568
000100 c0 98 40 bd c8 7a 3d 3d a1 92 15 bd 65 f8 b0 3e
       -0.047020674 0.04625967 -0.03651679 0.3456451
000110 b8 a9 9e bf fa 96 23 be ff 28 b4 be 28 5a 2f 3e
       -1.2395544 -0.15975562 -0.35187528 0.17124236
000120 13 44 04 be 31 44 c4 be a3 77 75 bd 8e be 06 3e
       -0.12916593 -0.38333276 -0.059928548 0.13158628
000130 a8 df aa 3d ff 66 67 3c 9d 0c b7 3f df d5 57 3f
       0.0834344 0.014123677 1.4300724 0.84310716
000140 48 31 21 bd 9d 76 fb 3d a2 c9 ac 3d d7 01 ae 3e
       -0.03935364 0.12278483 0.08436896 0.3398578
000150 44 af 72 3e 51 97 d3 bc b8 f4 44 3d 9a c8 1e be
       0.23699671 -0.02582899 0.048084944 -0.15506211
000160 09 1f 69 3e 3e 04 ab bd 6e bd 43 3f fb cb c6 3d
       0.22765745 -0.083504185 0.7646092 0.09706875
000170 40 f3 58 be a2 bf cc 3c 10 dc 14 3d aa 4f 48 3d
       -0.21186543 0.024993721 0.03634268 0.0489041
000180 10 21 83 3d 43 48 85 be 32 3b 84 3e 0a a1 8a 3c
       0.064027905 -0.26031694 0.25826412 0.016922493
000190 67 94 a3 bf ed 94 39 bf 7d 15 b2 be e6 0a d0 bd
       -1.2779664 -0.7249287 -0.3478202 -0.10158329
0001a0 38 7d ba bd 50 39 aa be de 1f 8f be c6 c8 4c 3e
       -0.09105915 -0.3324685 -0.27954 0.19998464
0001b0 00 f5 c9 3d a2 ca 7c be 50 0b a9 be 08 c8 d1 be
       0.09861183 -0.24686673 -0.33016443 -0.40972924
0001c0 79 2c ca bf a1 06 ac 3d 4b 2a b6 be fb 05 0d be
       -1.5794822 0.08399702 -0.35579142 -0.13771813
0001d0 3c bb e2 bc d1 40 a9 bd 7e dd de bd 5a fc 83 3e
       -0.027677171 -0.08264316 -0.1088209 0.25778466
0001e0 4d 17 2b be e0 67 60 3e ac 73 58 be 22 4b 7f bd
       -0.16708107 0.21914625 -0.21137875 -0.06232751
0001f0 5c 98 d3 3e 20 cd d1 3e ba dc 23 3d 76 f2 5e be
       0.41327178 0.4097681 0.040005423 -0.21772179
000200 45 46 06 be 42 8f 1d bf 96 a5 19 3e 00 2d 61 3d
       -0.13112743 -0.6154672 0.15004572 0.054974556
000210 60 f1 fd 3c db 29 3a 3f a9 d1 33 3f 32 25 07 3e
       0.030998886 0.72720116 0.7024179 0.13197783
000220 7c f6 0c 3e f6 88 90 bd aa 30 05 3e a9 4c be 3d
       0.13765901 -0.07057373 0.13006845 0.092919655
000230 79 b0 80 be 78 e5 55 bd c4 1f ce bd 41 d1 65 be
       -0.25134638 -0.05222079 -0.100646526 -0.22443105
000240 b9 eb f7 3f db 2d a8 bf 1c 25 23 3e 18 a5 b2 bd
       1.9368812 -1.3138994 0.15932125 -0.087228954
000250 a6 3f cf bb b3 8e b9 3d ee 79 4d be 3e 2c b0 3c
       -0.006324726 0.09060421 -0.20066044 0.021505471
000260 dd 3d 7f be ac 8e 4c 3e d7 80 2e bf 01 82 1e 3f
       -0.24925943 0.199763 -0.68165344 0.6191712
000270 59 e1 49 3f c6 69 cc be 53 78 a3 bc d2 fc b8 3d
       0.7885948 -0.3992445 -0.019954836 0.09032597
000280 3e 32 e4 3d 55 07 9e bd 54 a7 27 bc c0 0a 61 3e
       0.111423954 -0.07716242 -0.010232765 0.21976757
000290 d6 60 34 3e cf 3e df bd 4d ae 61 be cd 7c 56 bf
       0.17615065 -0.10900652 -0.22039147 -0.8378418
0002a0 be 74 c5 bd c3 c5 2c 3d 29 39 dd 3c 41 cf 6d 3b
       -0.096414074 0.042180788 0.027004795 0.0036286863
0002b0 c3 d2 55 bd 96 dc fd 3c 26 0e 7f be f0 79 ec 3d
       -0.05220295 0.030988973 -0.24907741 0.11546695
0002c0 07 4e c8 3d c4 cd 49 bf 54 e7 53 bf 0a 13 f2 3d
       0.097805075 -0.788296 -0.82774854 0.11820038
0002d0 4e 64 83 be 83 d9 b9 3c ba 14 0a 3e 01 0a ca bd
       -0.25662464 0.022686725 0.13484469 -0.09865189
0002e0 d2 cf 40 bc 6e 8c 17 3e 34 e5 2b 3e 8b 51 6d 3f
       -0.011768298 0.14799663 0.16786653 0.9270255
0002f0 21 7a 3a 3f 8c 8e 29 3d 16 e8 3e 3e ae 38 94 be
       0.72842604 0.04139571 0.18643221 -0.28949493
000300 fc ac af 3e 6c a1 9c 3e 6e a5 8d 3d 74 af 0e 3e
       0.34311664 0.30591905 0.06916319 0.13934118
000310 7a 7c 35 be 4a 0f 20 be dd d3 8a be e9 8d 65 3e
       -0.17723265 -0.15630832 -0.27114764 0.22417416
000320 00 03 71 3f 7e 5e 9f be 89 26 a0 3d 7e 7b ea bd
       0.941452 -0.3112678 0.0781985 -0.114493355
000330 4a 95 cc bd a1 a7 95 bd 87 f2 61 bd 18 4d 3f be
       -0.09989412 -0.07307363 -0.055162933 -0.18681753
000340 75 83 6d be 44 bb 06 be 14 04 ad 3f 35 94 ad 3f
       -0.23194678 -0.13157374 1.351687 1.3560854
000350 e3 77 d5 be a5 01 dd 3d 6f 4c 55 3d 42 4d 20 3d
       -0.4169303 0.10791329 0.052074846 0.03913618
000360 39 53 f1 3d 61 6f 46 bc 52 c2 42 3e c0 77 4b 3e
       0.117834516 -0.012111516 0.1901944 0.198699
000370 be e7 77 bd a6 3d 43 bf 98 3d 39 bf 7a ad 98 bd
       -0.06052374 -0.76265943 -0.7235961 -0.07454963
000380 98 91 20 be 47 f7 b6 bd 87 d7 8c bd 1d b7 ce 3c
       -0.1568054 -0.08933883 -0.06877046 0.0252338
000390 76 f2 1d 3d 40 26 88 3c ea a9 0f 3e 87 3b 36 bd
       0.038561307 0.016619802 0.14029661 -0.044490363
0003a0 12 e0 bd be 55 ff 84 3e 08 70 ca be a0 17 b9 3d
       -0.37085015 0.25976053 -0.39538598 0.09037709
0003b0 2a 22 05 3d db 4e 8d 3e 5b bc 92 3e de e8 72 bc
       0.032503285 0.27599224 0.2865933 -0.014826028
0003c0 44 e7 ea 3d 00 df 93 ba ed 4c ae be c3 58 13 bf
       0.11469892 -0.0011281669 -0.34043065 -0.57557315
0003d0 65 c8 48 bf 54 dd 36 bf dc 32 e4 be b6 a7 89 bd
       -0.7843078 -0.7143147 -0.44570053 -0.067214414
0003e0 c9 b1 11 bf dd 0b dd be 81 89 8a bd e8 a9 97 3e
       -0.56911904 -0.43173113 -0.06764508 0.29621816
0003f0 f2 c2 69 be 5e 2f 94 3d 53 ab 75 3f 9d 6b 7c 3f
       -0.22828272 0.07235597 0.95964545 0.98601705

l1.bias f4 [400]
000000 cc 1d 02 3e a3 d4 1f bf 4f c7 10 bf a3 f3 87 be
       0.12706679 -0.6243383 -0.5655412 -0.26553068
000010 83 e7 45 3c 38 71 06 bf ec b5 cc be 8d c2 43 bd
       0.0120791225 -0.5251651 -0.39982545 -0.04779296
000020 89 85 f3 bd 7c d4 95 3e 8e 08 ac be 58 bb f1 3e
       -0.11890704 0.29263675 -0.33600277 0.47213244
000030 3e 6c 76 be ea 12 04 3d 79 ff 78 be 5c 58 ff bd
       -0.24064729 0.0322446 -0.24316205 -0.12468025
000040 cd 23 c2 3d 15 51 d5 be bb 10 f9 3b bb de 3e be
       0.09479485 -0.41663423 0.0076008714 -0.18639652
000050 da 1d bf 3d f6 fb dc bd fc ff 99 bc 40 cc 34 bd
       0.093318656 -0.10790245 -0.01879882 -0.0441401
000060 96 5f 04 bf 1d 34 87 be 56 25 76 be 38 eb b2 be
       -0.5170835 -0.26406947 -0.2403768 -0.34945083
000070 43 83 9a be 5e 24 b2 be 2e 5a 24 be ab 9e 6d be
       -0.3017827 -0.3479337 -0.16050026 -0.23205058
000080 59 6f c0 be 9c 0e a0 be 7b 3d 18 3e 73 5b dd 3d
       -0.37584952 -0.31261146 0.14867203 0.10808458
000090 a2 ce 13 be 0e 01 99 be 5b 86 78 bd f5 c9 87 3e
       -0.14434293 -0.29883617 -0.060675006 0.26521268
0000a0 2c 33 46 3e 2f 29 0e 3c 2b b4 f4 bd 00 df 56 3c
       0.19355458 0.008676811 -0.11948427 0.013114691
0000b0 f6 31 68 bd f3 c0 49 be 2b 35 a3 3b d4 3f f1 bd
       -0.05668827 -0.1970251 0.0049807034 -0.117797524
0000c0 a5 1d 37 be ed a7 e6 bd 1b 96 ee bd 2f 2d 31 3e
       -0.17882402 -0.11262498 -0.11649724 0.17302392
0000d0 56 1e 74 be 9a 98 ef 3d 45 f0 57 be 25 3e 2e be
       -0.23839697 0.11699028 -0.2108775 -0.17015894
0000e0 9b 2e d9 3d 9f 44 09 be f0 18 95 be 11 e9 66 bd
       0.106045924 -0.13405083 -0.29120588 -0.056374613
0000f0 bb 64 72 bd 41 81 15 be dc 32 3d 3d 28 19 7c 3c
       -0.059178095 -0.14600088 0.04619108 0.015386857
000100 46 8f 6a bd 6e cf af bd a0 ab 9b be fd 92 5a 3e
       -0.057265542 -0.08584486 -0.30404377 0.21345134
000110 72 0d 2f be de 20 0c 3e af 3b 06 3e 2f 79 d4 be
       -0.17094973 0.13684413 0.13108705 -0.41498706
000120 5d 2e d1 be 43 b0 8f 3d 1f b6 6a be 74 5d a0 3c
       -0.40855685 0.07016041 -0.22921036 0.019575812
000130 d7 24 21 3e f0 d3 0b 3d 5b c7 6b 3e 33 e0 25 bd
       0.1573671 0.034137666 0.23025267 -0.040497016
000140 20 c4 9e be 01 7c 06 3d 61 d9 ea 3d e4 84 6c be
       -0.31009007 0.032833103 0.11467243 -0.23097569
000150 25 73 b9 be d7 c5 9e 3c ec fb 91 be 4a bf cc 3d
       -0.3622066 0.019381447 -0.28512514 0.09997423
000160 5f e9 d2 3d d8 f7 88 3e 93 99 8a 3b 8f e8 3a bf
       0.10298418 0.2675159 0.0042297333 -0.73011106
000170 cd 33 90 be 21 90 96 be 81 d0 0a 3b 1c 8d 1f be
       -0.2816452 -0.29406837 0.0021181407 -0.15581173
000180 9f ee 39 be 98 c3 5d be 6b 1f 70 3e 1d 81 ff bd
       -0.18157433 -0.21656644 0.23449485 -0.12475798
000190 4c 72 7b be ce 05 48 be 2b 65 af be e9 40 76 be
       -0.2455532 -0.19533464 -0.34256873 -0.24048199
0001a0 58 65 d6 be 90 60 72 be 51 e1 00 3d 4c 5e 6b 3e
       -0.41874194 -0.23669648 0.03146488 0.2298519
0001b0 9d d6 c8 3d c9 42 0d be af fd 31 3e ef 1c 22 3d
       0.09806559 -0.13795008 0.17381929 0.039578374
0001c0 1b c1 1d 3c bb b7 50 3e 9a 78 b7 bd e3 0e e2 bd
       0.009628559 0.20382588 -0.0895855 -0.11037996
0001d0 05 b0 4b 3e ed 85 95 3b e3 64 83 be f2 bd 28 3c
       0.19891365 0.0045630843 -0.25662908 0.010299193
0001e0 67 a4 a3 be fb da 91 3d 51 36 94 bd e1 2a a0 be
       -0.31961367 0.07121845 -0.072369225 -0.31282714
0001f0 72 11 e1 3d 1f 69 b0 be c4 d5 96 be f8 41 da bb
       0.109896556 -0.344552 -0.29459965 -0.006660696
000200 3c aa 45 be 9f 5d f3 be a8 92 cd be 05 11 28 be
       -0.1930322 -0.47532365 -0.40150952 -0.16412742
000210 3f 5b 27 3e e4 c8 f1 3d d6 f0 22 bf 45 3b 19 3e
       0.16343401 0.11805895 -0.63648736 0.14964016
000220 10 49 bf be 2d e5 fc bd 68 01 81 3d b1 1b c5 be
       -0.3736043 -0.12348399 0.06299096 -0.3849769
000230 06 98 76 be 25 0d 30 be 8e a2 92 bd 5a 76 07 bf
       -0.2408143 -0.17192514 -0.07159911 -0.52914965
000240 88 f2 84 3e 89 74 f4 3d 63 0b bb bc fc cf 1a 3d
       0.25966287 0.1193629 -0.022832578 0.037796006
000250 a1 66 d2 bd 37 6b 90 3c 77 bb 7b 3c 4c ad a9 3d
       -0.10273481 0.017629249 0.015364519 0.08285007
000260 2b b5 50 bd 35 ef 9a bd 60 8a a5 3a 06 6a 14 bf
       -0.050954025 -0.07565156 0.001262974 -0.5797428
000270 d9 40 2e be f8 38 03 3e 81 09 98 3d 2f eb 1a bd
       -0.17016925 0.128147 0.07423688 -0.037821945
000280 0d 10 5f be 89 b5 e9 be fb a4 ac 3c 12 01 e8 3e
       -0.21783467 -0.45646313 0.021074763 0.45313317
000290 18 5d 5d bd ff 59 78 be 92 ba 94 bd a3 bb da be
       -0.05404386 -0.24253081 -0.07262148 -0.4272128
0002a0 b2 1e 14 be 3a da e1 be 63 4a 38 be 10 f3 a7 be
       -0.14464834 -0.44111806 -0.17997126 -0.3280263
0002b0 82 e4 d3 be bc de aa be 67 c3 a1 be 11 9c 9f be
       -0.41385275 -0.33373058 -0.31594393 -0.31173757
0002c0 27 46 5f bd 35 e4 8c be 10 3e 35 bf 29 fc 54 be
       -0.054510262 -0.27517858 -0.70797825 -0.20799316
0002d0 84 03 25 3d 33 2e 20 be 7d b3 b4 bd 71 23 55 be
       0.040286556 -0.15642624 -0.08823297 -0.20814301
0002e0 65 1c 33 3e 12 69 ad be c7 15 a7 be 8a d0 02 3d
       0.174913 -0.33869225 -0.32633802 0.03193716
0002f0 7d 5d dd 3e fb a6 f0 bc 4a 0d 01 3d a6 ae af be
       0.43235388 -0.029376497 0.031506814 -0.34312934
000300 1d ef 47 3b b8 2b ab be 86 e3 4b bd f7 71 f8 bb
       0.0030507513 -0.33431792 -0.04977753 -0.007581945
000310 39 59 2c bf ec f0 69 bd 1a 81 1e bf d8 62 c8 bd
       -0.6732364 -0.057114527 -0.61915743 -0.09784478
000320 c3 b7 91 3d 7b bc a8 be 6d b4 96 bd b6 69 38 be
       0.07115128 -0.329563 -0.07358632 -0.18009076
000330 35 f6 cb be 3c 32 33 be ad f7 d8 be de e1 55 3e
       -0.3983628 -0.17499632 -0.42376462 0.20886943
000340 6d d1 1b bd 9d c5 ad be 25 b9 03 be 67 ad fd 3c
       -0.03804152 -0.3393983 -0.12863596 0.030966474
000350 43 90 3e be 13 b4 b4 be a9 65 b3 be c7 db c8 3d
       -0.18609719 -0.35293636 -0.35038498 0.09807544
000360 ce 7c ac 3c ac 92 d0 bd 52 14 e4 bc 51 fa 3e be
       0.021055605 -0.101842254 -0.02784172 -0.18650176
000370 31 fd ec 3d 24 bd cf bd d5 07 d2 be 71 14 8a be
       0.1157173 -0.101434976 -0.410216 -0.2696872
000380 97 32 5e be cf c3 d8 bd f3 6d 15 3d 76 79 38 be
       -0.21698986 -0.105842225 0.03648181 -0.18015084
000390 27 db 0f be 2d 15 b1 3d 8b 4d 64 3e c2 34 b3 bd
       -0.14048444 0.08646617 0.22295205 -0.08750297
0003a0 e9 2f 81 be e2 25 19 3d 32 e4 17 3d 31 96 98 be
       -0.25231865 0.037389643 0.03708286 -0.29802087
0003b0 4a 93 ee bd fe 8a eb 3d 43 8e 9e be ff 91 e5 bc
       -0.11649187 0.1150112 -0.30967912 -0.028023718
0003c0 c3 24 88 be ff 1f 5f bd 07 cf f3 be 6a bb 91 be
       -0.26590547 -0.054473873 -0.47618887 -0.28463298
0003d0 30 1c 91 bd dc cd 6f be ec c3 59 be a2 dd 11 bf
       -0.070854545 -0.23418373 -0.21266145 -0.5697881
0003e0 db 3b af be b9 92 4d ba 11 93 86 3a db 84 d7 bd
       -0.34225354 -0.0007841993 0.0010267218 -0.10523387
0003f0 fe 2c 59 bf d1 5b 81 3e c2 00 e0 be 87 51 60 bd
       -0.8483428 0.25265363 -0.43750578 -0.05476525

l2.weight f4 [300, 400]
000000 ef b2 e5 bd 3c c7 80 be 77 37 e4 be 79 a6 ee 3d
       -0.112157695 -0.25152004 -0.44573566 0.11652846
000010 38 08 3c 3d 63 4c 4b bf 89 f6 14 3d 53 d6 0b 3e
       0.045906276 -0.7941343 0.036367927 0.13655977
000020 21 52 bb 3e 2b 86 a6 bd 59 8a bf 3f 67 e1 6a be
       0.36586097 -0.08131059 1.4964095 -0.22937547
000030 cb 23 18 3e 01 0b 8f 3d ce 0e e6 3c ac 3e 06 be
       0.14857404 0.06984521 0.028083231 -0.13109845
000040 4b 2a 57 be 5c 17 e5 3d 7a 95 79 be b2 32 be 3d
       -0.21012227 0.11186096 -0.24373427 0.09287013
000050 1a 96 b9 be 12 f2 b4 be 60 85 3e be 17 63 dd 3d
       -0.3624733 -0.35340935 -0.18605566 0.108099155
000060 54 35 b4 bf 76 b5 af bf da 08 13 3f ec b5 82 be
       -1.4078774 -1.3727252 0.5743538 -0.2552942
000070 84 5f 04 3c 09 fa 8e 3f 48 29 f4 be b3 c8 44 3f
       0.008079413 1.1170055 -0.47687745 0.7686874
000080 66 19 87 3d 41 5a 5f 3d 0b 72 1b bf bd 20 18 3e
       0.06596641 0.054529432 -0.6072089 0.14856239
000090 70 fc 83 be 69 a5 6f bd 84 87 8a 3e 11 71 03 be
       -0.25778532 -0.058507357 0.27056515 -0.128361
0000a0 56 6d a9 3c e6 f4 28 3e 03 47 9e be ef e3 d2 3d
       0.020682018 0.16499671 -0.30913553 0.10297381
0000b0 53 b6 81 3e 25 a3 e8 be 2a 9c 5b bf 95 44 52 3e
       0.25334415 -0.4543697 -0.8578516 0.20533974
0000c0 11 3b ea bd 2f 97 4f be 17 fb 10 3f cc 3e df 3e
       -0.11437047 -0.20272516 0.5663313 0.43602598
0000d0 c4 08 4a bd 13 4b 25 3c 90 bc 40 3e 5d 7a 59 3f
       -0.049324766 0.0100887 0.18821931 0.84952337
0000e0 69 66 7b bd e5 cd 0f be c7 b9 36 be 21 99 9b be
       -0.061376963 -0.14043386 -0.17844306 -0.30390266
0000f0 9f cb 6b be 7f 50 0e 3f 86 db 75 bf b3 7e 2a 3f
       -0.23026894 0.5559158 -0.9603809 0.6659958
000100 63 a5 09 bd 15 4a de bc 9f 6c be 3e 18 ea d0 be
       -0.03360499 -0.027134934 0.37192246 -0.408036
000110 b9 05 5f 3c e5 12 68 3e 99 07 7e bf 65 f4 b0 bc
       0.013612204 0.22663458 -0.99230343 -0.021600911
000120 2a e6 b4 3e e9 40 ff bd 36 9a 32 3f e4 2a 55 bf
       0.3533185 -0.124635525 0.6976656 -0.8326857
000130 93 9c d9 bd a0 c5 87 3e 70 91 f1 3d f0 8a cb 3e
       -0.10625567 0.26517963 0.11795318 0.39754438
000140 f4 40 3e be ec 2f 58 be 95 2f 04 bf cb 7a 2a 3f
       -0.18579465 -0.2111203 -0.51635104 0.6659362
000150 88 0e 98 be af 46 32 be 0f f7 a0 3d 69 b7 d0 be
       -0.29698586 -0.17409776 0.07859623 -0.4076493
000160 a5 9c c1 3e dc 21 3e 3d d3 7c 77 be 08 a4 0c bf
       0.37814823 0.04641901 -0.2416871 -0.5493779
000170 65 cb ae be 15 89 24 bf 64 14 79 be 1e 4f dd 3d
       -0.34139553 -0.6427167 -0.24324185 0.10806106
000180 66 aa 9e bc 0c 85 e8 3e 64 20 48 3e 15 c4 34 be
       -0.019368362 0.45414007 0.19543606 -0.17652924
000190 bb a0 e2 3c df c7 d0 3e 98 69 d3 3e 80 c1 30 3f
       0.027664533 0.4077749 0.412915 0.6904526
0001a0 e8 8a 9f 3f 4d c5 c1 3e d1 ab 06 3f 5a 3f f2 3c
       1.2464266 0.3784584 0.5260592 0.029571224
0001b0 da 0e 94 be c6 16 68 3d 11 84 2c 3e ee e6 35 bf
       -0.2891758 0.056662343 0.16847254 -0.71055496
0001c0 41 bd 84 be 2c b9 e7 bc d0 18 0f 3e 5a be 54 be
       -0.2592564 -0.028286539 0.13974309 -0.20775738
0001d0 79 47 00 3e 5e ff b1 3d 71 1f 0a 3e f2 04 0d bf
       0.12527265 0.086912856 0.13488556 -0.5508567
0001e0 a9 df 24 bf f8 ec 20 3c 26 20 09 c0 25 7e 6c 3f
       -0.6440378 0.009822123 -2.1425872 0.9237998
0001f0 0a 51 0f bf 73 ac b1 bb af 7e d3 3e 2e 4b b8 3f
       -0.5598303 -0.005422169 0.4130759 1.4397943
000200 6d 8b 8b bf 93 bb b0 bf 4f 86 54 3f ec 62 e7 3e
       -1.0901924 -1.3807243 0.8301744 0.4519266
000210 dc 2f 8e 3e 42 ed 57 bf 2a e4 25 bf c2 5a 5c 3e
       0.2777089 -0.843464 -0.64801276 0.21518996
000220 29 09 bb 3e 99 4e dc 3e ff 4e 8d 3e 34 75 8a 3e
       0.36530426 0.43028715 0.27599332 0.27042544
000230 2b be e2 bc 63 67 be be df 2a 82 be 43 a3 84 3e
       -0.02767857 -0.37188253 -0.25423333 0.2590581
000240 72 4f e8 bd 52 b0 38 bf a2 cb 5c bf 17 fb 32 3e
       -0.11343278 -0.72144043 -0.8624822 0.17478596
000250 54 45 20 3e 7b c7 bc 3e e9 70 59 bf 60 00 48 be
       0.15651447 0.36870942 -0.8493791 -0.19531393
000260 f2 7b 6a be 4b cf 5c be 3d a2 be bd 51 19 17 be
       -0.22898844 -0.21563451 -0.09308288 -0.14755751
000270 f5 35 f5 3d 0f 33 aa 3c 20 59 d4 3d 15 91 6b 3e
       0.11973182 0.0207763 0.10368562 0.23004563
000280 63 f7 98 3f 71 98 55 bf b8 fb 26 3e 7e 8f 69 bf
       1.1950496 -0.8343573 0.1630696 -0.91234577
000290 89 2f 73 3e a1 06 47 3e 10 b0 a6 bd 35 65 0a 3e
       0.23748602 0.19436122 -0.0813905 0.1351517
0002a0 d4 1b f1 3e c0 47 83 3e e3 6c 3e 3e 87 3b 34 3f
       0.47091544 0.25640678 0.18596224 0.7040333
0002b0 03 88 6e be 43 1b 29 bc 7d aa 54 3f 2f 5e 2f bf
       -0.23294072 -0.010321441 0.83072644 -0.6850309
0002c0 57 20 90 bc 57 97 f7 3f 96 25 d8 be e2 63 7b be
       -0.017593546 1.934306 -0.42216176 -0.24549821
0002d0 50 23 02 40 45 e2 26 bf 57 f9 97 be 2e 9c 31 3e
       2.0334053 -0.6518901 -0.2968242 0.17344734
0002e0 2f b1 06 be 83 f8 48 3f eb 21 ce 3e 14 84 24 be
       -0.13153528 0.785042 0.40260252 -0.16066009
0002f0 e0 fe 9e 3b be f5 e9 3e 72 7d 02 3e 1f a9 15 bf
       0.004852161 0.456953 0.12743166 -0.58461183
000300 8f dd 9b be e1 dd 8a be 69 21 10 bd 27 9e 02 3e
       -0.30442473 -0.27122405 -0.035188112 0.12755643
000310 8b e4 91 3e 57 ab 5b 3e 15 f6 42 3f 81 aa 29 be
       0.28494677 0.2145208 0.7615674 -0.16568948
000320 d0 08 ca 3e 13 73 e5 be 70 47 1a 3f 44 b2 f6 be
       0.39459848 -0.44814357 0.60265255 -0.4818288
000330 26 15 a2 3e 2b da fb 3e ea c5 e9 3e 64 a2 76 c0
       0.3165676 0.49189886 0.4565881 -3.8536615
000340 17 54 7a 3e b5 71 18 bd 41 b5 d1 be a2 ef 29 bc
       0.2444614 -0.037217814 -0.40958598 -0.010372074
000350 d2 7d c1 be 58 ea 95 be ba cb f8 3e 58 b3 a6 bd
       -0.37791306 -0.29280353 0.4859293 -0.08139676
000360 59 35 56 3e ab 3e fe 3d 40 ef 2c 3d 2f fa e4 be
       0.20918788 0.12414297 0.042220354 -0.44722125
000370 42 16 9b bf 25 ef e1 3c 95 32 a9 3b 2d c1 bc 3d
       -1.2116168 0.027579853 0.0051635006 0.09216533
000380 39 99 a9 3f b5 d9 02 bf 00 d7 38 bd 32 a8 4e 3e
       1.3249885 -0.51113445 -0.045126915 0.20181349
000390 18 dc 35 bf a0 72 c8 3e 23 8d 09 3e 6d 92 51 3e
       -0.7103896 0.39149952 0.13432746 0.20466013
0003a0 ab fe 6a bf 54 9b 28 3e 53 6e a9 3d 2b 57 65 bf
       -0.9179484 0.16465503 0.08272996 -0.8958613
0003b0 25 06 dc 3e 49 51 84 3f c6 16 ae be 4e cf dc 3e
       0.42973438 1.0337306 -0.3400175 0.4312691
0003c0 29 52 98 be 5c 98 81 3f 58 14 04 bf 14 44 07 bf
       -0.29750183 1.0124621 -0.5159354 -0.52838254
0003d0 6f 45 06 3f a9 e1 e8 bd 03 d2 83 3e 6c f4 1e 3e
       0.524497 -0.11371166 0.25746164 0.15522927
0003e0 f8 b4 37 3e c3 71 c7 be 53 e7 d0 3e b4 e9 c5 3e
       0.17940128 -0.3895398 0.40801486 0.38654864
0003f0 d4 eb 98 3f 29 38 91 bf 0d 1b 0a 3f 04 3f bf bf
       1.1946969 -1.1345264 0.53947526 -1.4941106

l2.bias f4 [300]
000000 50 6e 6d be 63 14 a2 be 38 e4 39 bc 64 d1 36 3d
       -0.23186612 -0.3165618 -0.0113459155 0.044633284
000010 99 35 d6 bc cf 4f 98 bd 80 60 da 3a 2c 28 11 bd
       -0.026148604 -0.07437097 0.0016660839 -0.0354387
000020 9a 5d 92 3d 11 96 6f bd 74 61 76 bd 50 19 ae bb
       0.07146759 -0.058492724 -0.060151532 -0.005313076
000030 13 63 78 be fb 21 82 bd 32 52 86 3b b6 84 4e be
       -0.24256544 -0.063541375 0.004099154 -0.20167813
000040 66 46 5c bd d0 76 3e bd bd b8 8e 3c 0a 9d 74 be
       -0.053778075 -0.046500027 0.017422074 -0.2388803
000050 0a f6 08 3c ef c7 6f bd 98 a9 82 3c 52 90 73 bc
       0.0083594415 -0.05854028 0.01595001 -0.014865952
000060 95 e7 5e bd 97 ee 16 bc d4 67 0b 3c 5a 0e 4f bd
       -0.054420073 -0.009212158 0.008508641 -0.050550796
000070 86 0e c7 bc ec 55 fe 3d a5 82 05 be 71 25 b5 3c
       -0.024298918 0.12418732 -0.13038118 0.02211258
000080 20 12 e5 3d 06 e1 90 3d 71 29 0b 3e 36 d9 1b be
       0.11185098 0.0707417 0.13590027 -0.15219578
000090 65 e6 fd bd 94 12 19 bb 59 c7 cb 3d 69 9a c8 be
       -0.1239746 -0.002335702 0.09950132 -0.39180306
0000a0 95 8a 80 bd 28 ea 45 3c e0 4e 6f bd 5d 86 3b be
       -0.062764324 0.012079753 -0.05842483 -0.18312974
0000b0 b9 ef 7e 3c 7c ab d2 3c b9 36 84 bc 61 52 1b be
       0.015560084 0.025716536 -0.016139375 -0.15168144
0000c0 3c 9a 16 3e 8a d1 04 bc cc 98 0a 3c 3a b4 c6 bc
       0.14707273 -0.008106599 0.008459281 -0.02425586
0000d0 ad 96 82 bd 42 4c 91 bc 16 ec 48 be 1a 48 f5 3d
       -0.063763954 -0.017736558 -0.1962131 0.11976643
0000e0 ff b7 81 bd 63 7f f7 be f7 da 00 3e a1 54 0e 3e
       -0.063339226 -0.48339376 0.12583528 0.13899471
0000f0 bc 6b 9e 3e 74 8b e3 bc 52 d9 d8 3c 25 0d 27 bd
       0.3094157 -0.027776457 0.026470814 -0.04078402
000100 33 67 40 bd 28 e8 f5 3c 39 01 64 bd 9f 43 d3 3c
       -0.04697342 0.030017927 -0.05566523 0.02578908
000110 58 c6 3a 3e f6 49 a8 bd ec 27 d2 3c 3d c1 9f 3b
       0.18239725 -0.08217232 0.025653802 0.0048753307
000120 53 33 59 bd af 57 d7 3b e0 3e 7f bc b9 25 42 bb
       -0.053027462 0.006571732 -0.015578955 -0.0029624535
000130 b1 cf 6e 3c c9 82 83 bc 6d 83 55 3b 5d 1c 3e 3c
       0.014575885 -0.016053574 0.0032579557 0.011603442
000140 38 9c f4 bb 86 08 c7 bd 05 22 d5 3e cd 39 af 3d
       -0.007464912 -0.097184226 0.41627517 0.085559465
000150 62 83 94 3e 7c e2 ad bc e7 b1 d4 3b d5 2c 99 3c
       0.29006487 -0.02122616 0.006490934 0.018698135
000160 20 ef de be c0 55 cb bc d9 52 c0 be 54 9e c0 3c
       -0.43541813 -0.024821162 -0.37563208 0.023512997
000170 b7 4e 5e bc 86 4c 44 be 52 9c 8a 3d 49 e8 83 be
       -0.013568572 -0.19169816 0.06768097 -0.25763157
000180 ec 50 00 3b e3 b7 14 bd 4f 3f 8c bd ef 02 05 be
       0.0019579483 -0.03630818 -0.06848013 -0.129894
000190 10 54 ad bc 73 bb dd 3b c7 5c ef 3c 2b c6 e3 3c
       -0.021158248 0.0067667305 0.029219044 0.027804455
0001a0 b1 73 bb 3d cb e0 f0 bc 26 e0 a9 be 7d 8e 9e 3c
       0.09152926 -0.029404065 -0.33178824 0.019355053
0001b0 95 ef 54 3d 09 c9 60 bc 0a 67 58 bd a7 bf dc be
       0.051986296 -0.0137198055 -0.05283264 -0.4311497
0001c0 92 d0 63 3b c1 44 fe be c5 7a 4b bc e2 4b 45 3e
       0.0034761769 -0.4966183 -0.012419407 0.19267228
0001d0 7f b1 4e bd 95 53 10 bf a4 21 76 bc 64 1b 52 bc
       -0.050462242 -0.56377536 -0.015022669 -0.012823913
0001e0 ad 0f f4 bd 76 be 4e bc 5b ae 28 bd d6 d6 2b bd
       -0.119170524 -0.012618652 -0.041181903 -0.04195293
0001f0 8a 63 cc bd 7c 82 58 bd 42 2d 11 bc 04 e7 50 bc
       -0.09979923 -0.052858815 -0.008860888 -0.012750391
000200 65 82 c8 bc db 64 db 3c 38 1f e6 3e d3 16 01 be
       -0.02447624 0.02678149 0.44945693 -0.12606363
000210 2f 9a 57 be 47 7d 17 be 2e fc 2a bd 1d 7c da 3c
       -0.2105491 -0.14793883 -0.041744404 0.02667051
000220 8b 84 a5 bc af 29 4a be de 95 ad 3b d2 fb b7 be
       -0.020204803 -0.19742464 0.0052974066 -0.3593431
000230 25 63 3f bd ba 6a 52 bd e8 88 17 bd 8b c6 00 3d
       -0.04672541 -0.051371314 -0.0369958 0.031439345
000240 91 e0 21 be 48 9b 36 3c b0 26 0e 3c 5b 2f 07 be
       -0.15808322 0.01114542 0.008676216 -0.13201658
000250 0a 21 ac bc 19 29 3d 3d 2b bd 0a 3d a7 74 27 bd
       -0.021011848 0.046181772 0.03387181 -0.040882733
000260 97 80 96 bd 3c 91 ae 3d 3a bb 8a bc 4d 28 7c 3b
       -0.07348745 0.08523795 -0.01693498 0.003847617
000270 a3 0f 63 be 6a 55 51 bd 59 e8 8a 3e 8e 1a 4d 3a
       -0.22173934 -0.051106848 0.27130392 0.00078240864
000280 01 24 b8 bc 12 c6 24 bd f0 10 3e bd 5e 96 39 3e
       -0.022478106 -0.040227957 -0.04640287 0.18123767
000290 d3 a7 91 bd 16 cb b9 3c 8a bd 60 bd 85 b0 04 be
       -0.07112088 0.022679847 -0.05486826 -0.12957962
0002a0 9c be 10 be 1d 52 6d bd f4 77 79 be aa da f5 3c
       -0.14135212 -0.057939637 -0.24362165 0.030011494
0002b0 c2 b4 36 bc 23 81 33 be 4e 68 47 bd 57 5e 8c 3b
       -0.011151494 -0.1752973 -0.048683457 0.004283707
0002c0 65 cc 37 bd 85 17 6f bd 75 3d 93 bd 2b 21 23 bf
       -0.04487266 -0.05837204 -0.071894564 -0.63722485
0002d0 e1 c1 1d bf 1f 37 fc 3c d2 65 aa 3c de 8a eb 3c
       -0.6162396 0.030788003 0.020800505 0.02875274
0002e0 43 1b 5f bd 32 87 0c be fa be f4 be 46 3a c4 3c
       -0.05446936 -0.13723448 -0.47801954 0.023953568
0002f0 b1 82 f2 bc 86 41 e9 be 88 b8 22 bd 2c d7 23 bd
       -0.029603334 -0.45557803 -0.039726764 -0.040000126
000300 e7 df 83 3c 2b 32 35 be 5d 44 a2 bd fe d6 2b 3c
       0.016097976 -0.17694919 -0.079231955 0.01048827
000310 eb 84 2d be 6c 74 53 be 67 9e 19 bd dd ef 18 3e
       -0.16945235 -0.2064988 -0.03750458 0.1493525
000320 35 b8 1b bd 28 96 59 be b2 cf 0d 3c 1c cf 16 3d
       -0.03801747 -0.21248686 0.008655475 0.03681861
000330 cd a1 56 bc 53 d0 1b be de 70 b0 3b ea 9e 23 be
       -0.0131001 -0.15216188 0.0053845486 -0.1597859
000340 35 b2 71 be fa 62 36 bd bd cf 21 bd 6f 28 b0 be
       -0.23603137 -0.044527985 -0.039504755 -0.34405848
000350 96 fd 44 3d fa 00 c4 bc 00 15 4f 39 6e cd f3 b9
       0.0480934 -0.023926247 0.00019748881 -0.0004650163
000360 ef 8a 45 be 98 d0 2f be 6e c3 c7 bd 96 a4 fd be
       -0.1929128 -0.17169416 -0.09754072 -0.49539632
000370 1e e7 12 bd 76 28 89 bd df 9b 66 3b b5 db 28 bb
       -0.03586494 -0.066971704 0.0035188121 -0.0025765721
000380 ba c7 1c be 02 c6 9f 3e e6 a0 b4 3d 12 11 32 3b
       -0.15310565 0.31205755 0.088197514 0.002717082
000390 b1 bc 02 3f bc 9f 40 bd 3d 6a 36 be b7 c6 49 be
       0.5106917 -0.047027335 -0.17813964 -0.1970471
0003a0 4b 51 ab 3c 5e c4 1c be 92 a1 65 bd 37 5e 51 bc
       0.020912787 -0.15309283 -0.05606229 -0.01277881
0003b0 4b 45 a1 bb 0d 28 4b bd 69 08 f3 bb 5a 91 40 ba
       -0.0049215904 -0.049598742 -0.007416774 -0.0007345878
0003c0 1d 19 16 3e aa e7 b8 be e5 03 39 bd ed 48 59 bd
       0.14658017 -0.36114246 -0.04516973 -0.053048063
0003d0 63 f3 b6 be ab 61 55 bd a6 4e ae bc 08 01 b0 bc
       -0.35732564 -0.052095097 -0.021277737 -0.021484867
0003e0 11 82 47 3e 20 c3 4d bd 00 15 5e 3b 34 a7 f9 3c
       0.1948321 -0.050234914 0.0033887029 0.030475236
0003f0 d1 32 9b ba 48 bd 14 bd 79 2e ee bd d9 98 c8 3c
       -0.0011840706 -0.036313325 -0.11629958 0.024486946

l3.weight f4 [1, 300]
000000 4f 61 a7 3d 0b a2 39 3f 85 60 19 3b 84 38 f3 bc
       0.08172857 0.7251288 0.0023403477 -0.029690035
000010 ce fe 26 3d 26 eb 3d c0 b2 a0 4f bd a7 50 02 3d
       0.040770344 -2.9674773 -0.05069036 0.031815197
000020 73 ae 4f 3e 1a f7 2c bd db 58 ce bc 02 4d d6 be
       0.20281391 -0.042227842 -0.025188854 -0.41855627
000030 34 2b d8 bf b0 14 22 c0 0d a0 cc bc cd 8a ad 3d
       -1.6888185 -2.5325127 -0.024978662 0.0847374
000040 91 ef 53 3f 07 1f 80 bc 74 52 00 bc 48 2a 05 42
       0.82787424 -0.015639795 -0.007832158 33.29129
000050 14 98 00 3b 26 43 97 be f7 8c b5 3b ff 51 b0 bc
       0.0019621896 -0.29543418 0.005540486 -0.021523474
000060 2d 25 29 38 4f 08 d8 3b 54 cc 2a 3f a4 1a b0 3c
       4.0327363e-05 0.0065927873 0.6671803 0.021497078
000070 15 ae a2 3c fa b2 4e be 12 00 15 3d 95 80 21 40
       0.0198584 -0.20185462 0.03637702 2.523473
000080 01 16 38 3d af 54 57 c0 66 1b 3c 3f a6 38 df be
       0.04494286 -3.3645437 0.73479307 -0.43597907
000090 da 2b 31 3e d2 88 0a 3f 47 96 b5 bd 4b db e8 bd
       0.17301884 0.5411502 -0.08866554 -0.11369952
0000a0 b6 b5 94 be 64 4c 88 bc c4 ca fc bc 99 20 82 be
       -0.29044884 -0.016637988 -0.030858405 -0.25415495
0000b0 4c bb 4e 3d 39 bb e3 bc a4 35 96 3d 13 fd 2a bd
       0.05047159 -0.027799236 0.0733445 -0.041745257
0000c0 4b ca ab bd 57 8e 0a bd c9 30 a5 3c c7 70 14 bb
       -0.08388194 -0.033827152 0.020164864 -0.0022650228
0000d0 71 60 65 b9 bd 73 3c bd e6 90 88 be 25 37 eb 3d
       -0.00021875069 -0.046008814 -0.2667305 0.11485127
0000e0 f1 24 db 3a ee 50 da 3c 36 81 9a 3f 8b 5e 8e be
       0.0016719383 0.026649918 1.2070682 -0.27806506
0000f0 52 64 7b bd 95 6e 21 bb 5b 65 b4 bc f2 3e 3b b9
       -0.06137497 -0.0024632562 -0.022020986 -0.00017857159
000100 d1 98 e5 3c 9f 02 16 bd 21 ee 13 bb 73 c5 b0 3a
       0.02802697 -0.036623593 -0.0022572356 0.0013486579
000110 9e f0 0b be 8d 1a 39 3e 80 aa 00 bd 04 bf 31 3b
       -0.13666007 0.18076535 -0.0314126 0.002712191
000120 14 dd 1b 3e b7 5d e0 bc a4 7b 38 bd 45 69 a2 b9
       0.15221053 -0.027388437 -0.045039788 -0.0003097748
000130 bb 2a 07 3c e4 f8 a5 bc 07 96 7d bd 0b f6 d8 bc
       0.008249934 -0.020260282 -0.061910655 -0.02648451
000140 61 1b 3b bc 76 16 02 3f 7a 25 82 3d f6 2b a7 3e
       -0.011420102 0.5081552 0.06354804 0.32650727
000150 ce bf 0c be 5d 60 14 3d fc 64 95 3c 5c 1a c4 bc
       -0.13745043 0.03622471 0.01823663 -0.02393835
000160 03 ff 73 3e b2 00 35 3d ed 6e 12 be 7a 7d 16 bd
       0.23827748 0.044190116 -0.14300127 -0.036740758
000170 63 fe ae 3c 22 d6 da 3e c6 99 a7 bd 94 7e 46 c0
       0.021361535 0.42741495 -0.08183627 -3.1014757
000180 b1 1e 3a 3d 13 7f d3 3e c0 f5 2e bb e9 65 03 42
       0.045439426 0.41307887 -0.0026696771 32.84952
000190 8a 9f cb bc 4e 9e 0f 3d e0 a0 4e bf d0 0e 9e bb
       -0.024856348 0.03506308 -0.80714226 -0.004823543
0001a0 9d 8e 07 3d 65 30 24 ba d4 2c ba 3e e8 8d 2e bd
       0.03309499 -0.0006263315 0.36362326 -0.0426158
0001b0 0e ac 64 c2 28 18 41 3d 47 5c 38 3c 59 ba 25 3d
       -57.168022 0.047142178 0.011252469 0.040460918
0001c0 ab be b7 3b 7e 7d eb 3d 05 47 87 bf fc 6f 6c 3d
       0.005607446 0.11498545 -1.0568548 0.057723984
0001d0 3b 66 ba 3a 17 64 84 3e 05 76 99 ba 5d e6 96 be
       0.0014221141 0.25857612 -0.0011708146 -0.29472628
0001e0 15 49 1c bf 81 c6 e4 37 fa a0 53 3d 38 2b 99 ba
       -0.61049014 2.7272154e-05 0.05166719 -0.0011685854
0001f0 e9 21 18 3e ee 5a e3 bc f1 42 3c bd 68 08 04 3d
       0.14856686 -0.02775332 -0.045962278 0.03223458
000200 b2 83 17 bb 30 27 a6 be 38 17 43 bc df 9a 71 42
       -0.0023119268 -0.32451773 -0.011907391 60.40124
000210 1a d1 0d bd f4 63 1b bf 70 18 2c bf 9d 21 b1 3b
       -0.034623243 -0.6069939 -0.6722479 0.0054056183
000220 3c 85 03 3b f4 15 6b 41 f7 f8 8b 3d f8 cb 1c 3c
       0.0020068428 14.69286 0.06834596 0.009570114
000230 05 32 bc 3c b8 fd 0a 3d 1e 48 31 bc a4 d0 4d bb
       0.02297307 0.03393337 -0.010820417 -0.0031404877
000240 f3 60 3f c0 4d 43 10 3d 76 3c 03 3b 70 3c 49 40
       -2.9902923 0.035220433 0.0020025051 3.1443138
000250 95 9b f8 3e 1c 5b 13 3f cd 52 db be 16 49 4d 3f
       0.485562 0.57560897 -0.4283661 0.80189645
000260 5c c5 1d 3a 64 2a 27 c0 69 c5 c2 3f 91 f7 c8 bf
       0.00060184835 -2.6119623 1.5216495 -1.5700551
000270 21 8f 8d bf d3 47 b5 bb 9d 55 57 3d d0 b4 2b c2
       -1.1059304 -0.0055322438 0.05257188 -42.926575
000280 df 17 1f 3d 92 5e b1 bc a4 bd cf 3b 0f 41 a4 bd
       0.038841125 -0.02165154 0.0063397456 -0.080202214
000290 9f 54 ee 3d 42 3d dc 3c 0a 84 a7 bc 45 cd f9 3d
       0.11637234 0.026884679 -0.020448703 0.12197355
0002a0 77 f8 66 3d b8 18 83 be fd 24 f1 c0 1f c1 80 39
       0.0563893 -0.25604796 -7.535765 0.0002455795
0002b0 0a 05 03 bb 69 3c b1 40 fb 3f ca 3b 5d f2 25 3b
       -0.0019992017 5.5386243 0.006172178 0.0025321462
0002c0 6f 45 34 3d 0a f1 67 ba df c0 0d be 7a 94 a8 3e
       0.04401153 -0.00088478683 -0.13843106 0.3292578
0002d0 4e f0 1d 3f 50 cb 36 bd d6 53 2b bc 85 4b f1 3c
       0.616948 -0.044627488 -0.010457 0.029454956
0002e0 5c 05 be be 7f eb f2 3d cc eb ae bf bc 60 f0 3c
       -0.37113464 0.118613236 -1.366571 0.029343002
0002f0 90 6d 43 bd ed 57 85 3e fa fa 0c 3b d5 7e 8b 3c
       -0.04771191 0.26043645 0.0021511898 0.017028252
000300 f5 aa 75 3c d0 fe 89 c1 89 d2 f5 3e 23 1c 7d 3a
       0.014994373 -17.24942 0.48012188 0.0009655377
000310 d7 35 82 3f 4c 56 76 c1 54 18 97 3b 26 44 b2 3e
       1.0172681 -15.396069 0.0046110544 0.34817618
000320 73 2e 21 bf bb 55 3c bd ae 20 cc bc 16 66 dc be
       -0.629615 -0.045980196 -0.024917927 -0.43046635
000330 be 07 3e bf 98 46 36 3f 80 1c ff 39 78 89 6a bd
       -0.74230564 0.7120147 0.00048658624 -0.057260007
000340 81 27 09 3e 5e 8d 08 c2 39 4d de bc 04 35 25 c0
       0.13393976 -34.138054 -0.027136432 -2.5813608
000350 5d 6b 50 3e 25 0f 17 3a df 4f 25 3d 68 84 95 bc
       0.20353456 0.00057624496 0.040359374 -0.018251613
000360 1e 54 e1 bd b3 cd 16 c1 37 f2 1a 3e 1a c3 3e bf
       -0.11002372 -9.42522 0.1513146 -0.7451645
000370 14 6f 50 bd 5f b4 d0 bb f3 bf cc 3c e4 19 08 3b
       -0.050887182 -0.006369158 0.024993872 0.0020767385
000380 5f d8 c4 be 76 fc 21 3d 90 63 05 be d2 f7 b7 bc
       -0.38446328 0.039547406 -0.13026261 -0.022457037
000390 86 f5 2a bd 8c a9 dc bc 17 b5 69 3f 89 61 21 be
       -0.041738056 -0.026936315 0.91291946 -0.15759863
0003a0 02 a8 85 3c 6b e8 1b bf 86 55 4f bd 92 49 18 3a
       0.016315464 -0.60901517 -0.05061867 0.00058093027
0003b0 77 b6 ca ba 36 3f fd 39 88 d8 69 bc 1c 37 19 bd
       -0.0015465756 0.00048303016 -0.0142728165 -0.037406072
0003c0 3a 93 d9 be 80 4e f6 be 87 e4 14 3a bd 79 19 42
       -0.42495137 -0.48106766 0.0005679805 38.368885
0003d0 a3 06 0d bf 37 c7 08 bb a1 8d 35 bd cd d1 7d bc
       -0.5508825 -0.0020870694 -0.04432452 -0.015491915
0003e0 9e e6 1d 3e 5c 7c ef bc bb 0c c5 b9 e0 0a c0 bc
       0.15420005 -0.029234104 -0.00037584253 -0.023442686
0003f0 a3 e5 16 3b 91 af 69 3c 4f 4c 49 bf a2 ff ee bc
       0.0023025058 0.01426305 -0.7863206 -0.02917463
