uncertain/InvertedDoublePendulum-v2/critic.pth (torch, 505439 bytes, 5 tensors)

l1.weight f4 [400, 12]
00000000: 281c 81c1 1f8d 3bc2 5d38 3bc2 e102 2a3f
00000010: a297 a0bf af4c 25c1 4cf1 4ec1 1d9c c4c0
00000020: 20d5 983d 8661 82be e7a9 0abe a61d 7c3d
00000030: febf dec1 150f 47c2 29a6 25c1 c756 22c0
00000040: c30e 8cc0 a322 52c1 6ba8 59c1 4b9d 8dc0
00000050: a2b4 e43e b484 853d 983c 5d3e cbcf ac40
00000060: 79e8 3b3f 27d5 e641 437e 5742 4734 fac0
00000070: 0728 ce40 6bee 773f b010 d740 aebb b240
00000080: ef42 223f 1b7c 90be 6162 83be aa0f 0b3f
00000090: ddd2 0340 45f9 81c1 d43e 5741 e38c a741
000000a0: ee7e c141 76ba 0cc0 2f84 d540 59f7 57c1
000000b0: 4c3f 16c1 f445 043e 9464 a43d 67dc 15c1
000000c0: 93bb 7941 01ff 57c2 d12b 51c2 857e 07c1
000000d0: 8bdf 61c1 9090 bdc0 8b18 9e40 c438 8c40
000000e0: 9f0e 6441 b42a 913e 3659 4abe e22b b341
000000f0: 8f61 cc40 7521 eabf 9d9b 763f 1cc4 b641
00000100: 6b5c b541 5fd9 cfbf fd0f 6b40 f034 a2c0
00000110: abda 3f40 9c80 143e c049 7e3d fb89 fac0
00000120: eb79 9cbf 2182 5142 123a 4cc2 ff89 81c0
00000130: c860 a9c1 3c22 673e 35f9 b73f cbaa 7fc0
00000140: 626d b3c0 c801 3a3d 3f4b 25be c5a0 0cc1
00000150: 2f94 1340 6fe6 2642 d859 e7c1 4144 adc1
00000160: 72fb 1ec1 61b7 1b40 1f8d c740 7f3c eb3f
00000170: 215f 9140 42b0 193e 95c8 60be 5fa9 3841
00000180: 0714 c1c1 8c2c 8f40 ab63 02c0 b9f5 f0c0
00000190: 9537 14c1 ab63 4cbf 1904 7fc0 fc43 dc40
000001a0: aac0 79c0 d2d8 323e baf0 20be 329b 0ec0
000001b0: e225 5441 9b00 07c1 0c9c c4c1 43c5 22c1
000001c0: 4565 0fc1 94ea 0141 fbae 0bc1 441d 08c1
000001d0: b1ad 11c0 5c12 283e 40ff ef3c 53b3 2c41
000001e0: aae6 0941 deac ab41 114e e741 bafd a7c0
000001f0: c621 b7c0 c4d3 5c41 7a64 4e40 fe92 c0c0
00000200: dec6 7940 d055 f63c e011 42be 1691 9641
00000210: 0584 0f40 c196 01c0 fd62 8140 2c92 b841
00000220: 58c3 b341 f890 ca3f d5a8 f6bf d0d5 883e
00000230: 9d37 1c40 a005 913d aaae 93bd b4fa e3bf
00000240: 7fcc 2e40 e01c 8142 cd72 92c2 cbda 9cbf
00000250: 5a9b a1bf becf dfc0 1f93 6a41 b10f d6c0
00000260: 4a8b 2ac1 f092 a13c 9a0e cfbd 2e67 b341
00000270: 4c17 3fbf 0900 b0c1 b571 5242 2234 a4c1
00000280: 10dd afc1 a84a 97be 314e fdc0 0a7f 00c0
00000290: 4d25 f8c0 a055 7c3e 3e10 76be 0bd3 4ac1
000002a0: 205d d140 7ba6 25c2 8a27 8342 2710 0cc1
000002b0: 6f73 09c1 091b bb3f 0d0e 2a40 5d7a 0541
000002c0: 19df cc40 f6a7 44be 90d4 df3d 14ba 8a41
000002d0: 7ea3 b13d d40b 8a3e 929e cabd 9ff8 5dbe
000002e0: 3785 08be 73c6 06be 62e3 aebd 0ea8 02bd
000002f0: e70c 71bc 10a1 11bd a437 613e 08b9 19be
00000300: 8a4b fac0 00e9 ecc1 09c1 2ac2 c783 81c0
00000310: 5917 ad40 d57c c0c0 473e 11c1 ed18 a3c0
00000320: 1ed0 89be a43c 23be c3ff 37be cdb4 08bf
00000330: ae65 16c0 7e1e 9741 c8a1 81c2 cf95 d1c0
00000340: f02c 90c1 bc6a 20c0 cdda 3bc0 6879 81c0
00000350: 61fa 113d 4c61 0fbe 107f 933c 2ff4 a140
00000360: 678a 1ac0 babf 04c2 f8ad 47c2 9000 cbc0
00000370: 12b3 c540 9633 0ac0 4438 01c1 0818 c4c0
00000380: dc17 0e3e ee29 afbd 2ff7 79be 26bc 8c3e
00000390: d0bc 56c1 c3fc 08c2 2693 12c2 4bfc 2ec0
000003a0: be4a 0f40 99cc 0dc1 371e 3cc1 d48c c2c0
000003b0: 42a4 68bd 5204 453e 3822 803e 7f46 38bf
000003c0: dea9 af40 34e2 dc41 6af8 22c2 a053 53c1
000003d0: f669 1dc1 918d 2cc0 4dba 4bc0 ce55 eabf
000003e0: 2f63 0a40 3cd2 f23d 6081 04be 0910 d541
000003f0: 8fb9 7bbf 7333 8bc2 1be0 3a42 d815 a441
-16.138748 -46.887814 -46.805042 0.6641064 -1.2546275 -10.331222 -12.93391 -6.144057
0.07462525 -0.2546503 -0.13541375 0.061551712 -27.843746 -49.76473 -10.353066 -2.5365465
-4.376802 -13.133456 -13.603618 -4.425451 0.44669062 0.06519452 0.21605146 5.4003654
0.734016 28.854078 53.873302 -7.8188815 6.442386 0.9684817 6.720787 5.58541
0.6338338 -0.28219685 -0.25660995 0.54320776 2.059745 -16.246714 13.452839 20.943792
24.186977 -2.1988807 6.6723857 -13.497888 -9.390453 0.1291731 0.08026996 -9.366309
15.6082945 -53.999027 -52.29279 -8.468389 -14.117076 -5.923897 4.940496 4.3819294
14.25357 0.28352892 -0.19760594 22.396427 6.386909 -1.829146 0.963312 22.845757
22.670126 -1.6238211 3.6728508 -5.068962 2.9977214 0.14502186 0.062082052 -7.8293433
-1.2224706 52.37708 -51.05671 -4.048095 -21.172256 0.22571653 1.4372927 -3.9947994
-5.6071024 0.045411855 -0.16141985 -8.78925 2.3059194 41.725033 -28.918869 -21.658327
-9.936388 2.4330676 6.2359767 1.8377837 4.5428624 0.15008643 -0.21951516 11.54135
-24.134779 4.474188 -2.0373333 -7.5299954 -9.26357 -0.7983958 -3.984625 6.883299
-3.9023843 0.17465523 -0.1571683 -2.2282224 13.259249 -8.437648 -24.576195 -10.17316
-8.962224 8.11977 -8.73022 -8.507145 -2.2762263 0.16413254 0.029296517 10.79378
8.618814 21.459408 28.913118 -5.2497225 -5.7228727 13.801701 3.2248826 -6.0179434
3.902763 0.030070215 -0.18952131 18.820843 2.2424328 -2.0248263 4.0433335 23.071373
22.470383 1.5825491 -1.9270273 0.26725626 2.4408944 0.07081151 -0.07211049 -1.7810884
2.7312315 64.5564 -73.22422 -1.225427 -1.2625535 -6.994109 14.660918 -6.6894155
-10.659006 0.019723386 -0.10110207 22.42538 -0.74644923 -22.000017 52.611042 -20.525455
-21.98294 -0.29549146 -7.915795 -2.0077538 -7.7545533 0.24642038 -0.24029633 -12.676524
6.542618 -41.41258 65.577225 -8.753943 -8.590682 1.4617625 2.6571076 8.342374
6.4022336 -0.19204697 0.10929215 17.340858 0.08673762 0.2696215 -0.09893526 -0.21676873
-0.13332067 -0.1316164 -0.085394636 -0.03189855 -0.014712549 -0.03555399 0.21993881 -0.1501199
-7.821721 -29.61377 -42.68851 -4.047336 5.4091 -6.0152383 -9.077704 -5.0967927
-0.26916593 -0.15941101 -0.17968659 -0.5340088 -2.349956 18.889889 -64.81598 -6.549537
-18.021942 -2.5065145 -2.9352295 -4.04607 0.03563917 -0.1400196 0.018004924 5.0610576
-2.4146974 -33.187233 -49.91989 -6.3438187 6.178109 -2.1593986 -8.076237 -6.1279335
0.13876289 -0.08552919 -0.244107 0.27487296 -13.421097 -34.246838 -36.6437 -2.7341487
2.238937 -8.862451 -11.757377 -6.079691 -0.056797273 0.1923993 0.25026107 -0.7198257
5.4894857 27.61045 -40.74259 -13.207916 -9.838369 -2.6961405 -3.183246 -1.8307436
2.1623037 0.11856505 -0.12939978 26.63283 -0.98330015 -69.60049 46.718853 20.510666

l1.bias f4 [400]
00000000: e759 1dc1 6c6c 3cc1 f3bc 1dc1 2e5d c641
00000010: e369 75c1 a2a8 ba41 7c66 7dc1 a1a9 1cc1
00000020: fc18 21c1 30aa 11c1 d31d f7c0 23d4 ba41
00000030: 2cbb 0fbf 3749 b0c1 aa57 d3c0 979d 02bf
00000040: ee3e ddc0 74a0 38c1 93d0 47c1 47f2 ecc0
00000050: a1f5 fac0 50ed 2e41 07bc a53f e94d 6cc0
00000060: 8d25 3bc1 3aa0 58c1 d237 20c1 1f02 b741
00000070: 2803 64c1 b212 10c1 7537 26c1 9048 5dc1
00000080: 921e 38c1 8c9b 75c1 9f61 35c1 f34d 29c1
00000090: d8f1 77c1 0a83 3cbe 39f8 5d3f b938 b7bf
000000a0: 4d1e b5c1 ba2a 82bf aeb2 e5c0 fbce 133f
000000b0: 5dd7 13c0 d0ce e3bf 9692 31c1 1869 67c1
000000c0: 80c5 01c1 66be 693f 4d31 26c1 a6ef 65c1
000000d0: 9259 08c1 7301 30c1 2721 0bc1 3d9e 603f
000000e0: f615 17c1 2678 56c1 7038 7bc1 29a8 2ec1
000000f0: 8f07 6840 60e0 fbc0 be09 3cc1 334a 44c0
00000100: b795 9ec0 1fc6 9041 6c93 96c1 d2bc 8040
00000110: adcb cac0 3f09 13bf 398d 8cc1 3e15 34c1
00000120: 16c5 cdbe fc2d 8cc1 20d6 fdc0 f519 efc0
00000130: 986d 6cc1 6909 3cc1 05ef bec1 cb2b 26c0
00000140: 6c41 32c1 4f6b 34c1 f3a4 d33f d5ee 873f
00000150: 042c 04c1 9108 81c0 241c 89c0 ca31 5ac1
00000160: 9749 4440 ed36 27c1 8959 49c1 72d5 2ec1
00000170: b022 7f3f 7048 47c1 2306 27c1 ccc9 3ac1
00000180: eb95 9bbf 47e0 1ac1 e3b6 81c1 624e 6cc0
00000190: bbf3 b73f e4b5 75c1 812c 64c1 cdd4 82c0
000001a0: 57bb e0bf d5bb 78c1 a937 a1c1 1dfb 8ec1
000001b0: 7b3b b5c0 5f80 a3c0 44b8 9fbf 2059 f7c0
000001c0: 1ed3 47c1 ea8b 2bc0 3488 8ac1 d9a1 76c1
000001d0: b803 01c1 ebc6 77c1 d1ba 313f fc56 90c1
000001e0: 6898 e2c0 a38b 41c1 9070 42c1 6260 aac0
000001f0: e994 7ec1 e856 8940 9057 043f 4858 9ec1
00000200: 2af5 24c1 9d48 a43f fc71 1cbe 5c67 9540
00000210: 4580 92bf ce74 dac1 cfb4 9bc1 980c 2b40
00000220: f6bf 4cc0 a9ce 4ac1 a1f0 ba41 62f2 eec0
00000230: 22ba a8c0 37b9 e5c0 946e e8c0 d77c 76c1
00000240: c1d1 5cc0 aa63 2ec0 ccdc 90c0 da97 3740
00000250: 67d8 04bf 7dbe 06c0 e763 81c1 6827 7dc1
00000260: 1dc6 37c1 3931 21c1 1d76 91bf ffc3 efc0
00000270: 1cdb 1ac0 d5cf 85c0 9220 9fbf b153 9c3d
00000280: ab67 44c1 9ba9 4ec1 ce47 a0c0 2525 29c1
00000290: a334 dcc1 99c2 41c1 f9ac 91c0 e7f1 65c1
000002a0: 20d0 6e41 1cf5 1c41 e7fa 25be 4dec b9c1
000002b0: 2e81 68c1 6011 0fc1 935c 8741 eb5b a0c1
000002c0: ffcc eec0 a87f f0c0 950d 1dbf 341d 2fc2
000002d0: e13d 39c0 a46f 813f bc95 0ec1 4516 8cc0
000002e0: c235 9cc0 65e2 7ec1 6935 a5c1 8aec 4fbf
000002f0: d2f9 7ac1 87c8 fdc0 e71b 4fc0 5605 4641
00000300: 8376 2c3f 0117 48bf 42f4 2ec1 5737 80c1
00000310: ef94 35c0 5930 44c1 20c8 5cc0 ba7c 3b41
00000320: 584b 70bf 8482 3fc0 1f61 57c1 fff5 37c0
00000330: 9a8e c3c0 7e9e bd3f 2f21 b941 b0fc 41c1
00000340: 49fd e8c0 daef 89c1 0ed1 c8bf 1d53 97c0
00000350: d081 b7be 0f6a 78c1 2e40 bb41 8f3a 1dc1
00000360: ca4c efbf 73d3 84c1 0bf7 08c1 e606 5bc0
00000370: cf6e ba41 9ab2 48bf fa22 9f41 58fb d8bf
00000380: e539 07bf 7b57 7ec1 4493 07c1 07bc 8bc1
00000390: 7a8c ba41 b3b5 93c1 185d 0ec1 97c7 05c1
000003a0: 7e46 543f 7996 4ac1 afe2 c03e c859 93c1
000003b0: 467b b0c0 625a c4c0 820c cdbe 9bf0 09c0
000003c0: 8bbd bb41 0c86 28c1 c5e0 87c1 7cb7 21c1
000003d0: ea29 80c1 72e0 aec0 8782 bac0 2b53 13c1
000003e0: 330e 18c1 d7fb 91c1 60f0 b7c0 cade 56c1
000003f0: 69b6 0dc1 7016 c5c0 8783 433f 23c1 99c1
-9.834449 -11.77647 -9.85863 24.795498 -15.338351 23.33234 -15.837521 -9.791413
-10.0686 -9.10405 -7.7223907 23.353582 -0.56144977 -22.03575 -6.604451 -0.51021713
-6.913932 -11.539173 -12.488421 -7.404575 -7.842484 10.932938 1.2948006 -3.6922553
-11.696668 -13.539118 -10.013628 22.876036 -14.250771 -9.004564 -10.388539 -13.830215
-11.507463 -15.350475 -11.336333 -10.581531 -15.496544 -0.18409362 0.8670688 -1.4314185
-22.639795 -1.0169289 -7.1780615 0.577377 -2.3100197 -1.7797489 -11.098288 -14.463158
-8.110718 0.9130615 -10.387036 -14.371008 -8.521868 -11.000354 -8.695594 0.8774145
-9.442862 -13.404333 -15.701279 -10.916055 3.6254613 -7.8711395 -11.752378 -3.0670288
-4.9557757 18.096739 -18.821983 4.0230494 -6.337363 -0.57435983 -17.568956 -11.255186
-0.40189427 -17.522453 -7.9323883 -7.4719186 -14.776756 -11.752297 -23.866709 -2.596423
-11.140972 -11.276198 1.6534714 1.0619761 -8.260746 -4.0322957 -4.284685 -13.637156
3.0669916 -10.45091 -12.584359 -10.927111 0.99662304 -12.455185 -10.438998 -11.674267
-1.2155126 -9.679755 -16.2143 -3.692284 1.4371256 -15.356907 -14.260865 -4.0884767
-1.7557172 -15.545857 -20.152178 -17.872614 -5.663511 -5.1094203 -1.2478108 -7.7296295
-12.489042 -2.6804147 -17.316505 -15.414514 -8.063408 -15.486064 0.69425684 -18.042473
-7.0811043 -12.096591 -12.152481 -5.3242655 -15.911355 4.2918587 0.5169611 -19.793106
-10.3098545 1.283466 -0.15277857 4.668867 -1.1445395 -27.307034 -19.463285 2.6726437
-3.1992164 -12.675454 23.367495 -7.4670877 -5.2727213 -7.178859 -7.2634983 -15.4054785
-3.4503024 -2.724833 -4.5269527 2.8686433 -0.51892704 -2.1053765 -16.17378 -15.822121
-11.4858675 -10.074517 -1.136417 -7.4926753 -2.4196234 -4.18162 -1.2431815 0.0763315
-12.27531 -12.916408 -5.008765 -10.5715685 -27.525702 -12.110009 -4.552365 -14.371558
14.925812 9.809841 -0.16208993 -23.240381 -14.531538 -8.941742 16.920202 -20.044882
-7.462524 -7.515583 -0.6134885 -43.77852 -2.8944018 1.0112195 -8.911556 -4.3777184
-4.881562 -15.930272 -20.65108 -0.81220305 -15.685991 -7.9307284 -3.236078 12.376303
0.67368335 -0.781601 -10.934633 -16.027021 -2.8372152 -12.261804 -3.4497147 11.717951
-0.93864965 -2.992341 -13.461211 -2.8743894 -6.1111574 1.4813993 23.141203 -12.124191
-7.2809186 -17.242115 -1.5688798 -4.7288957 -0.35841227 -15.525893 23.406338 -9.826797
-1.8695309 -16.603247 -8.560313 -3.422296 23.304106 -0.78397524 19.892078 -1.6951704
-0.52822715 -15.896358 -8.4734535 -17.46681 23.318592 -18.46372 -8.897728 -8.361228
0.8292006 -12.6617365 0.37672946 -18.418839 -5.515048 -6.136033 -0.40048605 -2.1553104
23.46755 -10.532726 -16.98475 -10.107296 -16.020466 -5.464898 -5.8284335 -9.207805
-9.503467 -18.247969 -5.7480927 -13.429392 -8.857034 -6.158989 0.7637257 -19.219305

l2.weight f4 [300, 400]
00000000: e9d9 e9c3 fbaa b7c3 7031 b4c3 f56a 4f41
00000010: 64ce 8541 538b 7b41 b042 99c4 5cdf 0b43
00000020: e36f b440 6685 2442 fca4 2741 2cb3 8541
00000030: 1b92 9c41 1014 3643 29f5 5542 2e44 d43d
00000040: 922c a1c3 3be9 eec3 5499 91c3 e26c b1c3
00000050: 4437 3f42 0faa 8541 3acd 9242 598f 9c41
00000060: 744d bfc3 6eb1 dec3 c74f f142 6485 8b41
00000070: 2791 22c3 d053 3fc3 bf69 a3c3 399a 41c4
00000080: 0558 33c3 1240 ce42 da64 ce42 3563 3dc3
00000090: 1bba 75c4 6f11 953c 5555 14c3 4ecc 94c3
000000a0: d5d1 8e42 cb1a 6442 299f 3cbd b0bc 7e42
000000b0: 2245 a3c1 4264 bb43 2b01 d442 614b 8dc4
000000c0: 918c 80c3 1134 b8c1 25ee cec2 1722 c1c3
000000d0: a710 26c4 7f66 5a43 a3cd 6d42 cf0c 02c3
000000e0: 35dc be41 a2ca b6c3 a48b aec3 69a4 dcc2
000000f0: 14cd f141 309b d6c3 8ad9 13c4 a872 0ec2
00000100: dc15 3ec2 7b71 9741 3a79 98c3 cf6e 60c3
00000110: 0ca5 6e42 6f9a 8bc2 51ff 83c4 3bf8 8440
00000120: f729 fabd b89b b5c3 f63f 6dc2 ae5e 50c3
00000130: 1c49 48c2 d0a2 2143 99c3 63c4 febb 0343
00000140: 5e12 5742 e61c dec2 3cd9 4042 a165 9842
00000150: 477f aec3 85be a742 0f9c bbc1 057f 31c0
00000160: 079b 8342 137c 11c4 284f af42 3ac3 12c3
00000170: 2a6a 16c3 05a2 3742 91f9 88c3 732c fcc3
00000180: 8081 1fc2 c65b 0143 ddbc 21c4 e846 96c2
00000190: b59a f03f 9dc0 b1c4 f813 eec3 68c2 cec2
000001a0: e789 4ec1 d73e 84c4 043d b1c3 58e5 af40
000001b0: 8717 b3c1 0f9d 3642 e17d 06c2 05ce d442
000001c0: d61f 38c4 b8c3 f3c0 cf46 2dc3 76d8 dbc3
000001d0: f61b 36c3 2a21 96c3 3ecf c542 474a e842
000001e0: a8b7 5ac3 2c34 4dc4 ec23 2cc4 7e6b d4c3
000001f0: 0fa6 82c3 3c61 4640 b902 d242 d47b eac3
00000200: b530 80c2 33cc 4c42 ba5e 1ac3 2849 5cc3
00000210: d0f3 1d43 30ac a9c0 5311 79c3 9a2b 15c0
00000220: ca33 9742 a576 9d42 8c01 8341 320e 8ac4
00000230: a2a2 eb42 d5c8 a142 d4bf b4c2 9d9e 8642
00000240: cfe4 3843 5434 e0c2 90a0 b1c3 f77f b8c3
00000250: fef3 283c 70b4 8ac3 a7f4 e4c3 8819 c342
00000260: aa19 bdc3 bef5 8fc0 4509 6b43 ffdb 71c3
00000270: 4c27 81c1 7ecb 6442 fc7f 6542 5377 7e42
00000280: 3d8d 47c3 6cbf a4c3 b96e 8942 2642 82c4
00000290: 0927 5740 6b12 d3c3 9f46 dfc2 1869 e9c2
000002a0: 15e8 6d41 1019 b041 86b3 4cbc 7a40 a842
000002b0: 3b9c 1243 2f0b 1d43 b5b3 8741 1bcf 7ac4
000002c0: df0d d6c3 c907 a242 b08d 96bd 0a47 5ebf
000002d0: 0fb5 d8c3 63a7 3041 73f8 bac3 043b 81c3
000002e0: 1bd1 58c3 658a b5c4 317e 8043 8726 c0c1
000002f0: efcb 8dc4 79ef 7c43 52d3 f043 d3a2 8641
00000300: f3f1 2cc3 c48f 94c2 c3d4 a4c3 ef7f 9fc3
00000310: 7eea fa42 6aba 5ac3 bff2 29c4 4c2f 6441
00000320: 2d56 37c2 c0d0 87c1 ecb4 7042 65dd 5041
00000330: 8545 d2c2 bd06 7542 7d55 8441 2107 14c4
00000340: c345 f7c3 e642 f8c3 63cd 0342 3a4f 62c2
00000350: 0423 b03d 0b88 95c4 4f11 8441 fcf7 ee42
00000360: 5bad fac2 6294 2943 a9a6 eac1 434d d8c3
00000370: baee 8241 46f4 81bd 5ca7 8541 1db5 e842
00000380: a528 023b 728f 92c4 8cf0 2143 f70d 4e43
00000390: cb6c 8541 f443 94c3 e2f7 b442 da24 2d43
000003a0: d528 7642 4436 89c4 6f66 9a42 d502 8f42
000003b0: 6b40 cc41 39da 42c2 a91f 90bd 7600 00c3
000003c0: 67b7 8341 3909 bac3 fa2c d6c3 c04e cfc3
000003d0: 04b9 1343 6be6 ccc3 cca1 1743 3b17 e742
000003e0: d5a8 28c3 32c3 f941 85a2 a342 7abb 87c3
000003f0: 2065 ad42 fc61 be42 c403 6542 53a4 0742
-467.70242 -367.3358 -360.38623 12.963613 16.725777 15.721515 -1226.084 139.8725
5.638658 41.130272 10.477779 16.712486 19.57134 182.07837 53.489414 0.10364567
-322.3482 -477.8221 -291.19788 -354.85065 47.80397 16.708036 73.40083 19.569994
-382.6051 -445.38617 120.655815 17.440132 -162.567 -191.3274 -326.82614 -774.4097
-179.34383 103.12514 103.196976 -189.38753 -982.9079 0.01819679 -148.33333 -297.59613
71.40983 57.026165 -0.046050224 63.684265 -20.408756 374.78326 106.00228 -1130.3556
-257.09818 -23.025423 -103.465126 -386.26633 -664.2602 218.40038 59.450817 -130.05003
23.857523 -365.58307 -349.09094 -110.32111 30.225136 -429.2124 -591.39905 -35.61197
-47.521347 18.93041 -304.94708 -224.43285 59.66118 -69.80163 -1055.9786 4.1553016
-0.122150354 -363.21655 -59.31246 -208.36984 -50.071396 161.63599 -911.0562 131.73434
53.767937 -111.05644 48.212143 76.198494 -348.99435 83.87211 -23.4512 -2.7733777
65.80279 -581.93866 87.6546 -146.7626 -150.4147 45.908222 -273.94974 -504.34726
-39.876465 129.35849 -646.951 -75.13849 1.8797213 -1422.0192 -476.156 -103.3797
-12.908668 -1057.9637 -354.47668 5.496746 -22.386488 45.653378 -33.62293 106.40238
-736.49744 -7.6176414 -173.2766 -439.6911 -182.10922 -300.2591 98.90477 116.14507
-218.7174 -820.8152 -688.5613 -424.83978 -261.29733 3.0996847 105.00532 -468.9674
-64.09513 51.199413 -154.37003 -220.28577 157.9524 -5.302269 -249.06767 -2.3307862
75.60115 78.73173 16.375755 -1104.4436 117.81764 80.89225 -90.374664 67.30979
184.89378 -112.1022 -355.2544 -368.99973 0.0103120785 -277.40967 -457.91135 97.549866
-378.2005 -4.498748 235.03621 -241.85936 -16.144188 57.198723 57.374985 63.616528
-199.55171 -329.49548 68.716255 -1042.0671 3.3617575 -422.1439 -111.63793 -116.70526
14.869161 22.012238 -0.012493974 84.12593 146.61028 157.04369 16.962748 -1003.236
-428.10837 81.015205 -0.073512435 -0.86827147 -433.41452 11.040866 -373.941 -258.46106
-216.81682 -1452.3248 256.98587 -24.018812 -1134.3729 252.93544 481.65094 16.829504
-172.94511 -74.28079 -329.6622 -318.99948 125.45799 -218.72818 -679.7929 14.261547
-45.834156 -16.976929 60.17668 13.054051 -105.13578 61.25658 16.541742 -592.1114
-494.545 -496.52264 32.950573 -56.57737 0.08600429 -1196.2513 16.508451 119.484344
-125.338585 169.57962 -29.331377 -432.6036 16.366566 -0.063454196 16.706718 116.35374
0.0019860652 -1172.4827 161.93964 206.05455 16.678122 -296.53088 90.484146 173.14395
61.539875 -1097.6958 77.200066 71.50553 25.531454 -48.713108 -0.07037289 -128.0018
16.464552 -372.07205 -428.35138 -414.61523 147.72272 -409.80014 151.63202 115.54537
-168.6595 31.22031 81.81742 -271.46466 86.69751 95.191376 57.253677 33.910473

l2.bias f4 [300]
00000000: e95c a241 92d0 b041 fc06 a641 e20b afbd
00000010: 4a9f 07bd 17ba a1bc 2908 a941 6aed 9941
00000020: f49c 68bd da12 85bc 75d4 bd41 cb25 92c0
00000030: 8f25 8ebc 84f5 89bc b801 07bd 2894 e041
00000040: dc60 a141 a9d2 ac41 f207 a141 c982 cd41
00000050: 264b b4bd 228c a041 19d6 9f41 2eac 1242
00000060: 0906 8cbd f140 c441 88eb b841 1fe2 a941
00000070: 97db a541 8dc8 8941 2958 c541 a3b9 0cc2
00000080: 61ab 9f41 b87b 9d41 e624 55bd def9 9f41
00000090: 5c16 8dbd 6868 45bd df2f d9bb 8788 04bd
000000a0: 3585 a241 bec8 d8bc e405 9d41 741f 08bd
000000b0: 6ee2 88bd 2105 ed3c d460 603b a2a4 7dbd
000000c0: b339 a0bd ffc8 a7bc e484 ca41 913b a941
000000d0: 0791 70bc eeda 82bd 07c7 d4bc 9eb9 aabc
000000e0: bb4a 9d3c 72e7 9e41 19c1 05bd 672c aa41
000000f0: df03 293d ce4d c1bd f8b9 67bd 002f fdbc
00000100: 6401 a441 fb18 90bd 1567 47bc ff23 a6c1
00000110: 1bde ec41 6cc0 7b3c 4020 1dbd 78a0 83bd
00000120: 4b6c ff3a be39 5abd 80d2 0bbd 086b be41
00000130: 0787 a741 7b0f 9e41 b34b 5cbc 3d6f a441
00000140: a440 a341 52dd ad41 2165 29bd 6e91 f641
00000150: 3d5f b5bd dc09 a839 bcbc f641 8cce aabd
00000160: d720 b241 5420 88bd dd72 a541 fa23 9d41
00000170: 5bdf 76bd 8e45 9e41 57c3 f0bb ffa1 a441
00000180: 7789 1abd c0bb d041 cb83 9941 c361 0ebc
00000190: e6c8 9741 96a0 9d41 e72f aa41 87f4 9d41
000001a0: c4cc 6b3b a28c 67bd ca3c b9c1 a60b 0abd
000001b0: 331b a341 3154 c341 2670 4e3b 119c 9e41
000001c0: 8b78 f7bb 25ee a841 1906 5fbd 52bf 7839
000001d0: b06d 4dbd c79d 9f41 853d 9e41 4a74 a1bd
000001e0: debc 623a c0ed 87bd 27a0 5ebc 5618 90bc
000001f0: 35a4 edbc 4725 b13c bb61 ba42 58d0 2fbd
00000200: af36 fabc 4561 a0c1 b5fa 9442 58c8 f141
00000210: f06d b841 c93c 653c fb83 f7bc e8c3 b241
00000220: 8cd1 ac41 3030 ec3a 0c87 9541 7bda ab41
00000230: 37e5 26bd 8cc2 a041 d7ee 363c b455 62bd
00000240: 8bdf a441 2566 9b41 7aba 9abd f40c af41
00000250: 5478 9b41 114c 58bd 3e02 83bd eb8e ad41
00000260: baf7 a141 31eb 9f41 e14b 883b d239 403c
00000270: af75 c1bf d88d a741 eb41 b5bc 91c4 07bd
00000280: 0929 9fbc 1c34 a541 2c8e a641 fa25 82bd
00000290: a596 9f41 72d0 8d3b a652 80bd f2b2 22bd
000002a0: 3734 a43b ca0e 68bd b1a3 c8bc a2c9 f53b
000002b0: f272 9e41 b803 6bbd 160c 9c41 b672 463c
000002c0: 01d6 523c 4b6b 60bd 6400 b641 3a99 9d41
000002d0: c4e7 a141 820f 483c cdb1 35ba 2e1a a041
000002e0: 3103 e6bc c950 29bd 7e3a e1bc bd0a ca41
000002f0: ff0e a541 75b5 babd 3b88 a441 3cc4 05bd
00000300: 2f86 d841 d644 bd41 83a0 9c41 fc2e 9741
00000310: e70b d441 0db9 9e41 51d9 9741 049e aa41
00000320: cd48 0ac1 ef85 8a3c d50f c141 6a03 9e41
00000330: cf7d 02bd f216 57bd 1ea0 9a41 436c bc41
00000340: 67cb 9c41 976d b541 7e77 9741 07e3 9f41
00000350: 5e2e 88bd f58e ea3b 4d58 9dbd c3a6 52bc
00000360: 7ade 80bd 726f a441 e460 9741 5e25 9a41
00000370: e500 a641 c856 b141 2a43 9a41 4128 9d41
00000380: 2066 ab41 6f17 47bd d0e2 9741 a49b 2bbc
00000390: 9eb8 43bd 2118 c1bc 0956 a341 8433 a841
000003a0: e58c 3fbd 5638 8cbd 1df0 cd41 fc28 9d41
000003b0: a22a 12bd 77b0 76bd 40a3 1fbd 24fb 143b
000003c0: 5c3c 4bbd 7a88 24c2 1a76 2dbd 9cde 843d
000003d0: feff 9841 9d3b 9d41 1661 a541 1e40 8bbb
000003e0: c424 303c 7c5c 23ba f7bd a241 1ebd 5fbd
000003f0: d14a fd3b 6578 d83c f439 8ebb 1197 a441
20.295366 22.101841 20.75341 -0.08547188 -0.033110894 -0.019742055 21.128984 19.240925
-0.056790307 -0.01624434 23.728739 -4.5671134 -0.017351894 -0.016840704 -0.032960624 28.072342
20.172295 21.602861 20.12888 25.68886 -0.08803396 20.068424 19.97954 36.668144
-0.068370886 24.53171 23.115005 21.23541 20.732222 17.222925 24.668047 -35.181286
19.958681 19.68541 -0.052037142 19.997005 -0.0688903 -0.048195273 -0.006628021 -0.032356765
20.315042 -0.026462909 19.627876 -0.03323312 -0.06683813 0.02893311 0.0034237402 -0.061924584
-0.07823505 -0.020481585 25.314888 21.154085 -0.014683015 -0.06389414 -0.02597381 -0.020840462
0.019200673 19.86301 -0.032654855 21.27168 0.041263457 -0.09438668 -0.056573838 -0.0309062
20.500679 -0.07036015 -0.012170573 -20.767576 29.60845 0.015365701 -0.038360834 -0.06427091
0.001948723 -0.053277723 -0.034136295 23.802261 20.940931 19.757559 -0.0134457825 20.554316
20.406563 21.733067 -0.04135621 30.82101 -0.08856056 0.00032050803 30.842155 -0.08340177
22.266035 -0.06646791 20.681086 19.642567 -0.060271602 19.783962 -0.007347505 20.5791
-0.037728753 26.091675 19.189352 -0.0086903 18.973095 19.703411 21.27339 19.744398
0.0035980204 -0.056530602 -23.154682 -0.033702515 20.38828 24.41611 0.003149995 19.826204
-0.0075522116 21.116282 -0.054449175 0.00023722395 -0.050153434 19.95204 19.780039 -0.078835085
0.0008649359 -0.06637144 -0.013587988 -0.01758973 -0.029008964 0.02162422 93.19088 -0.0429233
-0.030543653 -20.047495 74.48966 30.222824 23.05368 0.013991543 -0.0302143 22.345657
21.602318 0.0018019732 18.69094 21.48168 -0.04074594 20.094994 0.011165342 -0.055257514
20.609152 19.424875 -0.07555099 21.881325 19.433754 -0.052806918 -0.06396912 21.694784
20.24596 19.98984 0.004159436 0.011732535 -1.5114039 20.94426 -0.022126159 -0.033146445
-0.019428747 20.650444 20.81942 -0.063549 19.948557 0.004327827 -0.06265764 -0.039721437
0.0050111073 -0.05665473 -0.024492117 0.007500843 19.806126 -0.057376593 19.505901 0.01211231
0.012868405 -0.054789823 22.75019 19.699818 20.238167 0.012210729 -0.00069310964 20.012783
-0.028077694 -0.04133681 -0.027493712 25.255243 20.632322 -0.091166414 20.566519 -0.032657847
27.06552 23.658611 19.578375 18.897942 26.505812 19.840357 18.981112 21.327156
-8.642774 0.016909568 24.13273 19.751667 -0.03185826 -0.052512117 19.328182 23.552862
19.599318 22.67851 18.933346 19.985853 -0.06649469 0.007158155 -0.07682858 -0.012857142
-0.06292434 20.554417 18.92231 19.268246 20.750437 22.167374 19.282795 19.644655
21.424866 -0.048606332 18.985748 -0.010474119 -0.047783487 -0.023571076 20.41701 21.025154
-0.046765227 -0.06846683 25.742243 19.645012 -0.03568519 -0.060226884 -0.038974047 0.00227327
-0.04961811 -41.133278 -0.04234896 0.06487772 19.124996 19.654108 20.672405 -0.0042495867
0.010750953 -0.0006231738 20.342756 -0.054623716 0.007729866 0.026424596 -0.0043404046 20.573763

l3.weight f4 [1, 300]
00000000: c1e2 e344 40ef f844 0f28 e744 2d38 3d3a
00000010: 1232 02bd 0556 98bc cc6f ec44 2822 fd44
00000020: 5d75 323b e4f1 b3bb f189 df44 c389 ddc4
00000030: 0743 31bc 0a08 cabc 44f1 1bbd 91d9 9544
00000040: 729e fb44 8884 b744 cb4a f344 e31b dd44
00000050: 4590 993c e79d f944 6013 fa44 01dc 01c5
00000060: 287d 1539 ed57 eb44 8e27 af44 b409 f444
00000070: 965a f944 4889 d144 38fc ca44 fcf5 5644
00000080: 6794 fc44 67bb e744 4af3 b73d 77dc fb44
00000090: 1433 993b b0e7 8abc 10e3 21bc 2574 41ba
000000a0: fc3e ed44 d2be 6a3c 0577 fa44 35e1 06ba
000000b0: f6d0 9d3c 3f1d cabc b3be 7d3c 18a3 ee3c
000000c0: d730 a43c 44ac 9f3c a4f0 d244 5d15 f244
000000d0: 0f76 923c 232a f73c e3a2 e93c 65f9 d13a
000000e0: 8cf8 0abc 6f2a fb44 4119 9fbc 93bf a344
000000f0: 1070 be3a ee98 cb3c 9a13 27bc ba97 e6bc
00000100: efb3 f744 d706 e4bc 7cc2 bebc 99a1 5544
00000110: 7260 a644 3adf 89bb 3f78 f83a 6ffd 34bd
00000120: 61ad 693b 6fae a0bb 2743 c33c 1d37 e644
00000130: 8162 ef44 f7d4 f944 a6d3 aebc b171 f744
00000140: a7aa fa44 395f e044 092f 1bbc 84ac 09c5
00000150: dd48 2b3b 77c4 0a3c 1345 a544 8da0 a43a
00000160: 6f85 ea44 1898 cfba c34f e544 8f78 fb44
00000170: a2ab 8abc 3eb8 f244 94da bfbc 85ff fa44
00000180: abc7 3d3b 9fe1 e044 d070 fd44 9ff1 f43c
00000190: 994c fc44 1dd1 fa44 d6b2 f144 5052 f944
000001a0: a25f 1bbd 6a22 43bb 938a 9ac4 f7c2 f63c
000001b0: 29eb ee44 d149 e744 6599 5c3c 9888 f644
000001c0: 7fbf 31bc 9341 f744 30bb bb3c 8854 083c
000001d0: 4d91 b2bc 5d34 fb44 59e5 f444 2144 f4bc
000001e0: 8f3d a73c 052e 603c d1bc b9bc 0a08 743c
000001f0: fe3c b5bb 605d 8d3c 1377 2643 5e57 13bb
00000200: 5466 d43c 74fe c2c4 518f 7243 26a2 00c5
00000210: d26d ec44 9d76 363c b231 c43c 15f1 f744
00000220: 42a2 ee44 ea04 e5bb dd89 f844 9a08 f444
00000230: ddac d5bb 4519 f044 5f27 24bc bfee 623c
00000240: 7601 f644 c06b fa44 da65 15bc 8b00 ef44
00000250: abf4 ea44 a63e 1d3d f816 fe3a 58eb c444
00000260: c368 b644 3904 fb44 c95b 12bd 3049 90bb
00000270: 7427 08c5 dde4 f044 c123 e1bb 4ed1 503c
00000280: 0eaa 303d 11a2 e844 d0c6 f144 2661 cbbc
00000290: 7bd7 f744 01a6 9c3c bfb8 203c de37 7b3a
000002a0: 0cd5 27bd 25f8 ccbc 60a3 c2bb 6902 e03c
000002b0: 4053 f744 98c9 7fbb 24ff fd44 de2d bebc
000002c0: 4549 003d bbc8 013b b3fa e144 f8d8 fb44
000002d0: 17c4 f544 5337 b53c a4d3 a6b9 7812 f244
000002e0: 9fcc 03bd 781e a5bc ac45 e93a 9872 eb44
000002f0: dddd f444 8e18 36be d082 f644 21d6 af3c
00000300: 7e6f 5944 517e ec44 7ae3 f744 2a8f fb44
00000310: cc41 e444 6d6f fb44 fa90 fa44 a602 f744
00000320: d183 9844 bc88 66bc cd84 ea44 45d9 fc44
00000330: b138 3ebc aba4 153c cae9 fa44 7682 c744
00000340: 4712 fa44 b3b7 ee44 66b6 fc44 6994 f944
00000350: 8b8f 65bb a94a e0bb b2f0 e23c bc89 13bd
00000360: 168e 5c3c 160d fb44 d720 fc44 dc77 de44
00000370: 6b06 f444 8cf2 f544 e149 d744 6106 fd44
00000380: 2438 f544 1909 7fb8 5151 fe44 2a39 8f3b
00000390: 3827 603b c802 75b8 2fe1 fc44 e5f3 f344
000003a0: 9ec6 ebbb c2ff 913c b1e1 e344 2507 fb44
000003b0: bb3e 68bc 356a b03c 5195 363b d07f 7d3c
000003c0: 33f9 8a3b 3c5f 3e44 c819 89bc 876c 03c5
000003d0: 61ea fa44 eb2b f444 7d31 ef44 9900 0cbd
000003e0: 791d 94bb e95c 9cbc 0baf f444 d3e3 82bb
000003f0: 0131 d03c 1725 1a3d 63de a1ba a455 f744
1823.086 1991.4766 1849.2518 0.00072181487 -0.031786032 -0.018595705 1891.4937 2025.0674
0.0027230598 -0.005491482 1788.3107 -1772.305 -0.010819203 -0.024662036 -0.038071886 1198.799
2012.9514 1468.1416 1946.3373 1768.8715 0.01874555 1996.9344 2000.6055 -2077.7502
0.00014256372 1882.7477 1401.2361 1952.3032 1994.8308 1676.29 1623.8818 859.8435
2020.6376 1853.8563 0.089819506 2014.8895 0.0046752784 -0.01695618 -0.009880796 -0.00073796726
1897.9683 0.014327722 2003.7194 -0.0005145253 0.01926468 -0.024672149 0.015487361 0.029130504
0.02004282 0.019491322 1687.52 1936.6676 0.01787856 0.03017146 0.028520053 0.001601976
-0.00848211 2009.326 -0.019421222 1309.9867 0.0014529247 0.024853196 -0.0101975445 -0.02814852
1981.6229 -0.027835293 -0.023286097 854.52496 1331.0139 -0.004207519 0.0018956735 -0.044187006
0.003565632 -0.0049036066 0.023835732 1841.7223 1915.0782 1998.6552 -0.021341156 1979.5529
2005.3329 1794.9757 -0.009471663 -2202.7822 0.002613596 0.008469692 1322.1586 0.0012560055
1876.1698 -0.0015838174 1834.4926 2011.7675 -0.016927544 1941.7576 -0.023419656 2007.985
0.0028958123 1799.0507 2027.5254 0.02990037 2018.3937 2006.5348 1933.5886 1994.5723
-0.037933 -0.002977515 -1236.3304 0.030122263 1911.3488 1850.3068 0.0134643065 1972.2686
-0.010848879 1978.0492 0.022916406 0.008320935 -0.0217978 2009.6364 1959.1671 -0.029817643
0.020415096 0.013682847 -0.022673042 0.014894495 -0.0055309525 0.017256439 166.46513 -0.0022482495
0.0259277 -1559.9517 242.55983 -2058.1343 1891.4319 0.011136678 0.023949478 1983.5338
1909.0706 -0.006989111 1988.3082 1952.2688 -0.006520851 1920.7897 -0.010019152 0.013850867
1968.0457 2003.3672 -0.009118522 1912.017 1879.6459 0.038389824 0.0019385507 1575.3545
1459.2738 2008.132 -0.035732064 -0.004403256 -2178.4658 1927.152 -0.0068707173 0.012745215
0.043130927 1861.0646 1934.2129 -0.024826597 1982.7338 0.019122126 0.009809672 0.0009583215
-0.04097466 -0.025020668 -0.005939886 0.0273449 1978.6016 -0.0039030071 2031.9731 -0.02321523
0.031319875 0.0019803483 1807.8344 2014.7803 1966.1278 0.022121107 -0.00031819672 1936.5771
-0.032177564 -0.02015613 0.0017797253 1883.581 1958.9332 -0.17782804 1972.0879 0.02146441
869.74207 1891.9474 1983.1086 2012.4739 1826.0562 2011.482 2004.5305 1976.0828
1220.1193 -0.014070686 1876.15 2022.7897 -0.011610196 0.009133498 2007.3059 1596.0769
2000.5712 1909.7406 2021.7 1996.6378 -0.0035028185 -0.0068448377 0.027702663 -0.036020026
0.01346161 2008.4089 2017.0262 1779.7456 1952.2006 1967.5796 1722.3087 2024.1993
1961.7544 -6.080521e-05 2034.5411 0.004370828 0.0034203064 -5.8415142e-05 2023.037 1951.6217
-0.007195308 0.01782215 1823.0529 2008.2233 -0.014175112 0.021535018 0.0027859996 0.015472367
0.0042411326 761.48804 -0.016735926 -2102.783 2007.3243 1953.3724 1913.5465 -0.034180257
-0.004520115 -0.019087272 1957.4701 -0.003994444 0.025413992 0.037633028 -0.0012349602 1978.6763
