uncertain/InvertedDoublePendulum-v2/uncertain.pth (torch, 22559 bytes, 5 tensors)

layer1.weight f4 [64, 12]
00000000: 4443 19be 3611 0e3e edc9 0fbe 0aff 853e
00000010: 783c 05be eba3 eb3d a113 8139 fbd2 14be
00000020: 734e 413e 6d37 a63d 0154 dbbd 3b7e 573e
00000030: ec95 0a3e 701b 7abd cc62 363e add2 c6bd
00000040: 39a6 673d f2c1 583e e744 e9bc 7a63 803e
00000050: 4666 3ebd 79f3 bfbd 24d6 013e 9102 00be
00000060: 60ff b63d af7d 523e 9889 a1bd 5e6d d2bd
00000070: dc87 333d 5f75 4a3e 35fb 413e 2ac0 5bbe
00000080: 75be 9d23 ca7e 02be 58b3 ed3c da23 193e
00000090: 2f4a bb3d acfa d53d f73f 103e b7a6 343e
000000a0: 4f83 463e 8124 d03d f346 bfbd a4ce 043e
000000b0: 4832 4538 7457 b6ba 9230 c637 9b00 f1bd
000000c0: b5ba 99bd b74a acbd 27cb 283e 312f e4bd
000000d0: 6873 5dbc 6044 6bbc d50d 2c3e 67c0 413e
000000e0: b544 3fbe b628 523d 66b9 183c 8efa 07be
000000f0: 15f4 2fbe d442 27bb 819e ae3b 1a05 cf3d
00000100: 4c63 793e 79af 263e c4de 28be daa3 863d
00000110: e483 013e f2c9 bdb1 6735 2b3d 8463 363e
00000120: 5b40 903b 1434 b7bd a376 49be 2779 f6bd
00000130: 5ca0 a53d 70f8 83be 2e6d eebd 00d7 293d
00000140: 8a89 0abe d80b 5d3d 26cb 613d c64d d73d
00000150: 0a39 9a3d 672c 27bb 358b af3d 43bd 8a3d
00000160: e853 7d3c 6879 c0bd 1850 52bd a47c 0e3d
00000170: b162 1d3d 3bf2 25be e1a8 d93d 5f6e 863d
00000180: 2788 47be b7fb 283e 5f58 6cbd 28bf 08bd
00000190: 9455 48be 214b 3f3d 0974 56be c1ab 5d3e
000001a0: 5d00 26be 23a7 e8bb c247 d11a cb4e 14be
000001b0: c8ca 42be 2b96 87bc f44e 5abe 2a88 39be
000001c0: 24c0 a2bd 776b 2fbd e9c7 2ebe a0fa 4dbd
000001d0: 8c6d 84bd e83f 203c efcf 153b d5f2 0bba
000001e0: 4fbe 79be 4519 653e 34a2 02be 634f 6b3d
000001f0: 3911 cbbc f77e 93be 8b13 9d3d 7ed5 563e
00000200: 5d6c 3cbc e84d ab3d 52ee d93d f0c5 263e
00000210: 73d1 123e 1d2c 83be 5edb 2c3e 0aee 413d
00000220: 5b0b bdbd 8d05 b6bd 378c bdbd 768d e43a
00000230: 3a43 50be 9208 dcbd 16c4 df3b 1728 bfbd
00000240: 3e0c eebd 0a8b 4bbd b2a1 67bd e0a3 fcbd
00000250: 2194 c4bd af86 5dbe a809 6dbe 8623 6d3e
00000260: 936f 0e3e ce19 9dbd 8b14 42be f679 43bd
00000270: a584 e23d ff71 433e 5544 3a3e e7a6 55be
00000280: 6868 a93c 65fe 063e c5c3 3ebe c034 fbbd
00000290: 2505 069c 7dc0 3e3e 7656 273e 7ad7 8fbd
000002a0: 5cb5 63be 15a8 7a3d 31b4 cebd 74e3 603d
000002b0: 6254 173d 073a 243d 61f7 eabd 4980 a1bd
000002c0: 0a4a e7bd 0a85 843d 28f3 353e 8d5b 4fbc
000002d0: 8dd6 d2bb 5cab 563e 5069 8abc d4f8 08bd
000002e0: 37e4 163d bc3b 70be acb1 e73d e7e5 19be
000002f0: c429 3cbe b6c8 a43d 40b3 993d 94b6 d1bd
00000300: 40a4 66bb 6b76 aebd 6738 30bd 60ef 31be
00000310: ba66 603e e4d1 ee3d 7b3f 13be ff78 843d
00000320: c460 f2bd da43 0fbe ccd9 20be 56e5 2ebe
00000330: 7358 6abe 5af7 853e 72e0 8cbc 219b 523e
00000340: bfac 93bd b9d0 3bbd 52ce 15be 79d2 4cbe
00000350: f1f9 9b3d 8bcc 4e3d e2f1 1f36 3c5d 8d3e
00000360: 8a5f 51be f7a2 bf3b 6908 07be f63b 243e
00000370: 3b6d c73d 323c 363d 3843 86be 8b01 93be
00000380: 1aa5 c03b 07f4 25bd 9502 f5bd 48d3 0abe
00000390: 796a 163e d950 01be 3287 883d fff6 803d
000003a0: e65c 1f3e 5d96 3f3c cbc9 843c f607 6bbe
000003b0: d76b 0ebe c8cf 32bd 94e3 303e 3476 49be
000003c0: d4d6 0abd 12f2 91bc 7ec4 35be 6327 433e
000003d0: 0e35 93bd 8867 6a3e 8a89 6e3c 66c4 c6bc
000003e0: 3f26 36be c71f 8c3d 7ed3 7dbd 9588 463e
000003f0: 0144 6d38 7940 14be 12b6 04bb c4ac 58be
-0.14967066 0.13873753 -0.14041872 0.26171142 -0.13011348 0.11505874 0.00024619422 -0.14533608
0.18877582 0.081160404 -0.10709382 0.21044247 0.13533753 -0.061061323 0.17811126 -0.09708152
0.056555007 0.21167734 -0.028475238 0.25075895 -0.046484254 -0.093726106 0.12679344 -0.12500979
0.08935428 0.20555757 -0.07887572 -0.102747664 0.043830737 0.19771336 0.18943484 -0.21460024
1.7102636e-17 -0.12743679 0.029016182 0.14955083 0.09145009 0.104482025 0.140869 0.17641722
0.19386028 0.101632126 -0.09339704 0.12969452 4.7015288e-05 -0.0013911561 2.3626057e-05 -0.117676936
-0.07506315 -0.08412688 0.16483746 -0.111418135 -0.0135162845 -0.014359564 0.16802152 0.18921052
-0.18678553 0.051308356 0.009321546 -0.13279173 -0.17182954 -0.002552201 0.0053289537 0.10108395
0.24354285 0.16277875 -0.16491228 0.06574221 0.12647969 -5.5235825e-09 0.041798975 0.178114
0.004402203 -0.0894548 -0.19674163 -0.12034827 0.08087227 -0.2577548 -0.11641918 0.041464806
-0.1352903 0.053966373 0.055125378 0.10512881 0.075304106 -0.0025508644 0.085714735 0.0677438
0.015461899 -0.093981564 -0.051345915 0.034786835 0.038424198 -0.16205685 0.10627914 0.0656402
-0.19485532 0.16502272 -0.057701465 -0.033385426 -0.19563895 0.046702508 -0.20942701 0.2164755
-0.16211076 -0.0071000024 8.6556305e-23 -0.14483182 -0.19022667 -0.016551098 -0.2131918 -0.18118349
-0.07946804 -0.042827096 -0.17068447 -0.050287843 -0.06466207 0.009780861 0.0022859534 -0.0005338614
-0.24389003 0.22372921 -0.12757188 0.057448756 -0.024788486 -0.28807804 0.07669743 0.20979878
-0.011500445 0.08364469 0.10641159 0.16286445 0.14337711 -0.25619593 0.16880557 0.047346152
-0.092306815 -0.088877775 -0.092552595 0.0017437178 -0.20338145 -0.10743822 0.006828795 -0.093338184
-0.11623429 -0.049693145 -0.05655069 -0.12335944 -0.09598566 -0.21633409 -0.23148215 0.23158082
0.1390975 -0.076709375 -0.18953149 -0.047723733 0.11060456 0.19086455 0.18190129 -0.2086445
0.020679668 0.13182981 -0.18629368 -0.12265921 -4.434353e-22 0.18628116 0.16341576 -0.07023521
-0.22237152 0.06119545 -0.100929625 0.054904416 0.036945708 0.0400944 -0.11472965 -0.078857966
-0.11293419 0.06470688 0.17768538 -0.012656105 -0.006434268 0.20963806 -0.01689592 -0.033440426
0.036838736 -0.23460287 0.11313185 -0.15029107 -0.18375307 0.08046095 0.07504892 -0.10239902
-0.0035193115 -0.0851868 -0.04302254 -0.1737647 0.21914187 0.11661127 -0.14379685 0.06468391
-0.11834863 -0.13990727 -0.15708083 -0.17079672 -0.22885303 0.26165277 -0.017196868 0.2056699
-0.07210683 -0.04585335 -0.14629486 -0.20002164 0.07616032 0.050488036 2.383364e-06 0.27610195
-0.20446602 0.0058482843 -0.13186802 0.16038498 0.09737631 0.044491 -0.2622316 -0.28712115
0.0058790566 -0.040515926 -0.11963383 -0.1355716 0.14689054 -0.12628497 0.066664115 0.06297111
0.15562782 0.011693564 0.016209504 -0.22952256 -0.13908325 -0.043655187 0.17274314 -0.19673997
-0.033896282 -0.017815623 -0.17750737 0.19057994 -0.07187854 0.22891057 0.014559159 -0.024263572
-0.17788027 0.068419985 -0.061969273 0.1938804 5.6568537e-05 -0.1447772 -0.0020250124 -0.21159655

layer1.bias f4 [64]
00000000: acca d43d 54c4 1ebe 9fb7 2cbd 1697 6e3e
00000010: 6365 27be 69e7 5d3e 4456 c83d 688a 343e
00000020: dfd9 023d 6b77 df3c 2c54 19be 4554 953e
00000030: 6637 773e d13e 283e 55b4 e13d d2f5 2fbe
00000040: 9577 4abe 0bd3 fc3d ce31 fabb eb72 2ebe
00000050: e28d 353e ca01 1abd a63d 113d ac8b 93bc
00000060: c953 a33d 2638 36be 4435 943e f11c 0ebe
00000070: 7351 a53e 3840 493e 24a8 c13b a603 53be
00000080: 1a73 933e bd5a 263e ccde 37be d422 883e
00000090: 1c5f b93c 359d 193c d323 313e 1106 0dbd
000000a0: 597e 71bd ff5c 88bb b7cf 15be 7637 613e
000000b0: 62f5 653e d71b dcbd a6c8 2cbe 164e 1fbe
000000c0: 066e 2fbe afa0 5cbe a50a 4dbe 9578 953e
000000d0: 40bd 983d eb2f 19be 68b0 8fbd 7ceb 073e
000000e0: 0241 0e3e 295b f73c 7321 0bbe 70b6 583d
000000f0: a90b ba3d b782 fb3d 7552 65be 0ec1 50be
0.10390219 -0.1550458 -0.042167302 0.23299822 -0.1634727 0.21670307 0.09782079 0.17630923
0.03194606 0.027278623 -0.14973515 0.29165855 0.24142227 0.16430213 0.11020724 -0.17183617
-0.1977218 0.12344941 -0.0076353317 -0.17036025 0.17729905 -0.037599362 0.035459183 -0.018010937
0.07974965 -0.17794856 0.28946888 -0.13878228 0.32288703 0.19653404 0.0059099365 -0.2060686
0.28798753 0.16245551 -0.17956084 0.26589072 0.02262836 0.00937586 0.17298822 -0.034429614
-0.058958385 -0.0041614766 -0.14630018 0.21993813 0.22456887 -0.107474975 -0.16873416 -0.15557131
-0.17131814 -0.21545671 -0.20023592 0.2919356 0.074579716 -0.14959686 -0.07016069 0.13273424
0.13891986 0.030194836 -0.13586979 0.05290836 0.09084255 0.12280791 -0.22394736 -0.20386145

layer2.weight f4 [64, 64]
00000000: b775 0f3e 2c0b 56bd 7b48 21bc 4258 8d3d
00000010: f7f0 4f3d a52e c8bd 0a84 443d 2036 553d
00000020: 0e3d 593d beab 9e3b 42b3 003e 28d1 393d
00000030: 25e1 143d e600 95bd 7f06 a23d 567b 5bbd
00000040: 09ee adbc 613a 423d 4269 e93d 57ea 1fbd
00000050: ba87 4a3d 7b99 183d 48d5 9fbd 88ca 9cbd
00000060: dfdf f93c dfa8 3cbd b0ab 84bd ef21 a53d
00000070: e787 3abc fac1 7ebd 27f5 643d 52d9 c23a
00000080: 5e5d 01bc 135c 8fbd 6faa d23d 9c71 39bd
00000090: 2d6e eabb 135e b0bc 18ba bb3d e1c0 18bd
000000a0: 9268 593d 625c bebd 1346 13bd fb50 4c3d
000000b0: 87f4 023e 997a c53d 0826 41bc e79b 98bc
000000c0: d3dc 343d e94a e23d f28d 3c3d 2446 fa3d
000000d0: bc8b 80bd f6b7 713d 2ae2 11bd cecc bb3d
000000e0: 9f3e 6f3c 2b6f 04bb d648 973d c78d 8bbd
000000f0: c2c5 543d 62f2 e13d 0662 5cbc 5e8f 143d
00000100: 4eb1 8d3d a0a9 213d acd0 b4bd c437 2bbd
00000110: b7ca 2e3b 9526 04bd 9c9e 053d 11d4 4dbd
00000120: e4e8 b43d 9832 a9bb bc18 30bd a45c f83d
00000130: 2d47 ccbd 7845 d53d 6448 af3d 0898 cbbd
00000140: f53d 633d a207 c93c 3d40 2cbd 4c29 1fbd
00000150: 0a09 b9bd 88d1 073d 437b c03b 0e41 7b3d
00000160: 73b5 023e 456e 1c3d 86f0 e63d a276 62bd
00000170: 4c13 af3d 4dbb a53d 8fb8 91bd b81d b73a
00000180: 8883 aa3d f61b 363d 0fc9 723d e97e a9bd
00000190: 18b0 5b3d fe8d 123d e66a 63bd b740 16bd
000001a0: a005 273d e010 3a3c b8a1 2dbd 9945 e13d
000001b0: c2a8 a73d 835b ea3c 3cc9 153d eb37 8d3d
000001c0: 5ad3 0239 c6a3 4f3d 61ad c0bd 8db7 5abd
000001d0: 1c80 ba3c a9e2 29bd 5817 17bd dda6 0a3d
000001e0: b08a 4f3d 5821 f8bc f6a2 943d 1d89 b63b
000001f0: 2b51 08bc b1f7 2cbc 102b dfbc c9d4 a23b
00000200: d452 9abc 79d0 edbd 1c09 e2bc e7d9 0c3e
00000210: b3a7 7dbd 2ad9 1c3d a72f e83d ce4c d83d
00000220: b33e cfbb a856 85bd 6733 e43d 6640 30bd
00000230: cc4b 853d 39a3 0c3a 0583 0c3d 057d a1bd
00000240: 5365 f63b 726b babc f69b 693d 92c4 d53d
00000250: 0bad a93d d6a8 93ba 3562 9ebd 8b7d 99bc
00000260: 8e53 df3d 82ea 6ebd 6f4d 9c3d e961 623d
00000270: cd7a 123e f9a0 363c 7f6d 24bd 4741 123b
00000280: 2e99 95bd 2981 ba3d c4e2 94bd 15cf 703d
00000290: 3044 1b3d 34af b0bc b68b 76bd 0177 583d
000002a0: 00af 88bd 0a7a 02be 5468 a93d 57c1 ed3c
000002b0: 22cd cc3d 0669 2bbd 9b65 263b cd98 803d
000002c0: c2f3 9ebb 892f 863d 9bc2 ff3c 3be2 acbc
000002d0: ae8a a0bd 1140 d9bc 7ecc e2bd 4ccf 4f3d
000002e0: ebfb b0bd 6e04 013d 9ad2 8e3d e498 393d
000002f0: 7e31 ca3d 7b17 bc3d 14d0 6c3d 75ad b93a
00000300: d1e6 6c3c aa50 bcbd f602 dabd a24c 073d
00000310: 2cea bcbc c357 a7bc b695 6ebd 5b44 2bbd
00000320: ca3c a43c c5a2 8dbd 04df e03d 9a7f cd3c
00000330: fb6a bf3d c3f1 af3d 9c12 503d ca7b a3bc
00000340: 023d 543d 9b7e 3fbd 1981 da3d ae71 b0bd
00000350: 6556 273d 0819 ec3a ce18 bb3d 88f8 6cbb
00000360: d69c 0e3e 119e 8e3d 59e3 153e cd6b 95bd
00000370: 5d90 c83d e28c 893d 109f 1dbd 8ae3 ddbc
00000380: c954 933d 6950 b5bd 7c14 a23b 81bb 8bbc
00000390: e57b a3bd 9d36 213c c341 d7bd d4b4 4d3d
000003a0: 11dd 4f3d 439e c0bd 1624 0a3c 720e e83d
000003b0: 36e1 e23d 2e1c ac3d a2a5 f83c 5b5d 08bd
000003c0: 2063 6f3c 877e 7bbd 599b c3bd 9256 143e
000003d0: 51ee 90bb 06be acbc 3dce c4bd 4376 303d
000003e0: c5a6 74bc 65a3 c83d 9ddb 37bd 9e74 a93d
000003f0: e54b d13c 5b5d 61bd 4116 a53d 5922 c53d
0.14009748 -0.052256748 -0.009843941 0.069015995 0.05076691 -0.09774522 0.047977485 0.05205357
0.053036742 0.0048422506 0.12568381 0.045365483 0.036347527 -0.07275562 0.07911395 -0.05358442
-0.021231668 0.047418956 0.113970295 -0.039041843 0.049445845 0.037255745 -0.07804352 -0.07655817
0.030502258 -0.046059486 -0.06478059 0.08063113 -0.011384941 -0.06219671 0.055897858 0.0014865792
-0.007895796 -0.06999984 0.10286414 -0.045274362 -0.0071542473 -0.021529233 0.09166354 -0.03729332
0.05307824 -0.092949644 -0.0359555 0.049881916 0.12788592 0.09642524 -0.0117888525 -0.018629028
0.044155907 0.11049444 0.046033807 0.122204095 -0.06276652 0.05901333 -0.035616077 0.09169923
0.014602332 -0.0020207863 0.07386939 -0.06814151 0.05194641 0.11032559 -0.013451105 0.036269538
0.06918584 0.039468408 -0.088288635 -0.04180123 0.002667112 -0.032263357 0.032621965 -0.05025107
0.08833483 -0.005163502 -0.04299234 0.12127045 -0.09974513 0.10413641 0.08558729 -0.09941107
0.05547901 0.024539772 -0.04205345 -0.038857743 -0.09034927 0.03315881 0.005874069 0.061341338
0.1276453 0.0381911 0.11276345 -0.05528892 0.085486025 0.080923654 -0.0711528 0.0013970649
0.08325869 0.04446026 0.059273776 -0.08276159 0.053634733 0.035779946 -0.05552187 -0.03668281
0.04077685 0.011356562 -0.042390555 0.10999603 0.08186485 0.02860809 0.036568865 0.06895431
0.000124765 0.050693296 -0.094080694 -0.053397704 0.022766165 -0.041475926 -0.036887497 0.03385054
0.050669372 -0.030289337 0.07257645 0.0055705444 -0.008320133 -0.010557101 -0.027242213 0.0049692136
-0.018838324 -0.11612029 -0.027592234 0.13754998 -0.06192751 0.03829304 0.11337214 0.10561524
-0.006324613 -0.06510669 0.11142617 -0.043030165 0.06508598 0.0005364898 0.034304637 -0.07885174
0.007519403 -0.022756312 0.0570335 0.104378834 0.082849585 -0.0011265527 -0.07733575 -0.018736621
0.10904609 -0.058329113 0.07631957 0.055269156 0.14304657 0.011146777 -0.040143486 0.002231674
-0.07304607 0.091066666 -0.072698146 0.05879124 0.037906826 -0.021567918 -0.060191832 0.052847866
-0.066740036 -0.12741867 0.08271852 0.029022856 0.100000635 -0.041848205 0.0025390151 0.062791444
-0.0048508355 0.06552035 0.031220725 -0.021103969 -0.07838951 -0.026519807 -0.1107416 0.050734803
-0.086417995 0.031498365 0.06973763 0.045311823 0.09872721 0.09184166 0.057815626 0.0014166074
0.014459328 -0.09195073 -0.10645096 0.033032067 -0.02306088 -0.02042759 -0.058248244 -0.041813236
0.020048518 -0.069158114 0.10980037 0.02508526 0.09346577 0.08591034 0.050798997 -0.019956488
0.051815994 -0.0467516 0.10669155 -0.08615433 0.040853877 0.0018012831 0.091355905 -0.0036158878
0.13927016 0.069637425 0.14637507 -0.07295952 0.0979316 0.067163244 -0.038481772 -0.027086038
0.07193906 -0.08853228 0.0049462896 -0.017057182 -0.079826154 0.009839681 -0.1051059 0.05022128
0.050747935 -0.09405186 0.008431455 0.1133088 0.11078112 0.08403812 0.030352417 -0.033292156
0.014611036 -0.061399963 -0.095511146 0.14486149 -0.004422941 -0.021086704 -0.09609649 0.043081533
-0.014932339 0.0979679 -0.044887174 0.08274196 0.025548885 -0.05502067 0.08060885 0.09625692

layer2.bias f4 [64]
00000000: f7e9 07bd f87e 1b3e 658d 8bbd 6e2d f13d
00000010: b881 fab6 0dc1 a23d 84ae 0fbd 8425 20bd
00000020: 187f 993d 5f1b 0dba 85e3 fe3c 0cff 563a
00000030: 6d48 88bd ade8 843d ced6 c9bb 3243 183d
00000040: d14d 87bc 4263 fd3c 0d10 0b3e 2d9c a83d
00000050: 210b d4bc 522c d7bc e647 f1bd e3e2 483d
00000060: fefc 853d 0d8c b83d c2a1 04bd 4f6a 3d3c
00000070: 03c3 d13d 9915 4f3c d93e 1a3d 1cd7 833d
00000080: d544 d63d 9b6b 67bd 61f9 053d 8372 ecbc
00000090: d854 143d 89ff dfbc dabc 083c b2bf 423c
000000a0: 15ef 26bd 9b54 01bd b74d a43d 83d1 91bd
000000b0: f4a0 8fbc 0475 22bd 74c1 a93a d677 a83c
000000c0: 83b3 6dbd 0214 173e 4419 c4bc 0387 9a3d
000000d0: d020 17bd 281b c73d c688 71bd 5050 5fbd
000000e0: eba3 bebd 8d44 133e f82d b93c 1010 8630
000000f0: 01b1 013e 8b98 29bd f405 3cbd a73f aebc
-0.03318211 0.15185153 -0.06814078 0.11776243 -7.465682e-06 0.07946978 -0.03507854 -0.039098278
0.07494944 -0.0005382802 0.03111435 0.0008201457 -0.06654439 0.06489692 -0.00615964 0.037173457
-0.016516598 0.030931119 0.13580342 0.08232913 -0.025884213 -0.02626625 -0.11781292 0.0490445
0.06542395 0.090110876 -0.032380827 0.0115609905 0.10242274 0.012639427 0.037657592 0.06437513
0.104623474 -0.056499105 0.03270853 -0.028863197 0.036213726 -0.027343528 0.008345807 0.011886524
-0.04075535 -0.031574827 0.080226354 -0.07120039 -0.017532803 -0.039662376 0.001295133 0.020564955
-0.058032524 0.14753726 -0.023937829 0.07545283 -0.036896527 0.097219765 -0.058968328 -0.05451995
-0.093086086 0.14381619 0.022604927 9.754348e-10 0.12665178 -0.041405242 -0.045904115 -0.021270586

layer3.weight f4 [1, 64]
00000000: ff6f c93d dd15 563d 4c76 033e 8f98 b83d
00000010: 6bda 1a3e c90b 183e f6dd d6bd 05f5 393d
00000020: b6fe 93bc e4a8 94bd 851f f43d 0775 00bc
00000030: e0c8 f83d bc63 bdbd 1845 5ebd ca37 b13d
00000040: a896 eebc 18b2 2d3d 9815 d73c 5409 c63d
00000050: dd54 6abd 2060 e0bc 4a2e d8bd 15f3 e83d
00000060: 40c3 f0bc 2ae6 22bd 5c78 103e 77c7 90bd
00000070: d0a8 a53d fcd1 e3bd 250f 273d b0b0 09bc
00000080: eb92 2a3e cbd7 37bc a0de d2bd a552 171a
00000090: ddbf e63d 7103 16bd 5234 b7bd a9d4 9abd
000000a0: 8607 70bc 1634 aabd f3f1 393d 97ce 0b3e
000000b0: 186e d23d 248d 95bd 9d9c 8dbd 8b9d 623a
000000c0: ee3a c7bd 3426 093e 2716 15bd 5987 963d
000000d0: e485 6fbd 2986 45bd 8e9f 6bbd 7e00 063e
000000e0: 876e 4bbd 955e 193d f7ec 213d 3105 d6bc
000000f0: 217d 043e 28f0 f0bc bcaa 233d de72 003e
0.09835815 0.052266944 0.12838095 0.09013473 0.15122382 0.14848246 -0.104915544 0.045399684
-0.018065792 -0.07258776 0.119200744 -0.0078404015 0.12147689 -0.092475384 -0.05426511 0.08653219
-0.029124573 0.04240617 0.026255414 0.09669748 -0.05720984 -0.027389586 -0.10555704 0.11374489
-0.029389977 -0.039770283 0.14108413 -0.07069295 0.08088839 -0.11124036 0.040785927 -0.008403942
0.16657607 -0.011220883 -0.102963686 3.1292828e-23 0.11267064 -0.036624376 -0.08945526 -0.07560093
-0.014650231 -0.08310716 0.045396756 0.13653027 0.10274905 -0.07302311 -0.06914637 0.00086446916
-0.09728037 0.1339348 -0.03639808 0.07350034 -0.058477297 -0.04822365 -0.05752521 0.13086125
-0.049665954 0.037443716 0.039532628 -0.026125522 0.12938358 -0.02941139 0.039957747 0.12543818
