uncertain/Humanoid-v2/actor.pth (torch, 119909 bytes, 6 tensors)

l1.weight f4 [64, 376]
00000000: c8ff b6bc f890 a1bd 1b15 f4bc a298 7abd
00000010: b3b4 34bf e8c3 883e c52a c8bd 391b 52bb
00000020: 280c b63f 70e8 01bf d21f fdbe edec f5bf
00000030: 7609 98bf 549f 373f 80fb a63e 2836 07bf
00000040: ec88 123e 25de 7f3e bc49 74bd a24e dabe
00000050: 585f 203f 8200 82bd 73c9 28bd 5ffa 8e3e
00000060: cfd8 06bf c636 6b3d 73d2 083e 9938 d6bd
00000070: 17f8 47be c384 e3bd 01c8 20be 32b9 353e
00000080: 5456 36bd d68d 95be 5aa1 4bbe c512 883e
00000090: e16a 92be 3bff ffbd 8879 48bd ab01 ba3d
000000a0: a982 fb3c 2cdb 5bbd e5d5 01be 104b 163d
000000b0: 7ed3 d53d a3fe 43bd d090 4bbd 1b26 fe3b
000000c0: dfa7 8cbc 923b 5f3c 3754 3b3d c5fe 293d
000000d0: 99a8 08bc 7cc4 193d a84a cb3c db5f 08bc
000000e0: 6abd 9fbd ce38 293f 2dbe bbbf 237e 2fbd
000000f0: 0020 233e 3feb 8fbd 2a1b c2bd 3e21 4c3a
00000100: 87a5 4e3d 2be6 7e3e dfb8 803e cf8b 013f
00000110: 46f6 cc3e 4e68 053f 847f 25bf 3215 f8be
00000120: 21ae 6f3f d0e0 e23d 943c 183d 9f5d 353f
00000130: 4cc1 163f 19c3 2b3f c397 633f ed43 233f
00000140: 7fe0 9d3e 5a48 83be 1152 2d3f 4674 c53e
00000150: d114 833c 1b31 b6bd 82d4 4dbe 39d7 933f
00000160: e599 c3be 905e c93e 561c 923e d850 f23e
00000170: 0c06 543e 0802 963e 985a 0b3d 9d7d eebd
00000180: 2307 1d3d bc69 e93f 445e 633f fa21 073f
00000190: e0ee 9ebf e99c 093f 476a 94bf 37d0 16bc
000001a0: 01c7 e63d e0a8 253c 758d af3d b1fe d03f
000001b0: bc1b 0b40 1a44 253f d924 0fc0 4fa6 133f
000001c0: 8b48 0bc0 d8b7 59bd 90fe a53d 3559 443e
000001d0: 75a7 093e 47f1 843e efdc 783f ac33 32bf
000001e0: 1ea0 383e e721 3abf 6155 8f3e 4428 ddbd
000001f0: d4ed cf3c 49fa 34bc 3863 aa3c fd33 553f
00000200: 32c1 9a3f 2796 31bf 6c78 debe add3 2abf
00000210: b7cf 76be e67e 1cbd b93c c83d 222f 62bd
00000220: ab89 48bc 4f8d 933f 15a6 b43f f4a9 2abf
00000230: e573 7abf f342 11bf 0974 3fbf c318 a8bc
00000240: 95b0 813d e916 423e a2c9 3d3f 9f28 3cbf
00000250: 23d1 563e 789c 9ebe 41b1 c2be 1071 0f3e
00000260: ff94 0b3f 22f9 c43e 27df 553d 1406 1dbf
00000270: f228 023f 6689 47bf 128d edbe f825 a1bd
00000280: f039 14bf 4fdc 4b3f fa5f 683f d3dd a23d
00000290: 15f8 ec3c 6cb9 c0be 184e e8be 89f3 273c
000002a0: b45c cabf 9687 323e 2469 3c3f f983 a03e
000002b0: e4ee b7be 7b2f 95be 7573 d93d 2398 5ebf
000002c0: 4cc8 4fbd fba7 21be 38b1 15c0 5528 ac3e
000002d0: d249 12be 504c 1d3f ec79 27bd 44ad 16bf
000002e0: 175f 153d 3ffe 123d 480a 2d3c d578 24bc
000002f0: 8fd0 4b3d 2a06 02bd 37a0 013d dd17 0d3e
00000300: 639d 93be a2e1 2bbe 85ca 1a3e 2356 ff3e
00000310: 1920 ccbe b909 793e c186 c2bd 223c c5bd
00000320: 1c52 483e 6f73 753b bb4e 96be e170 c2bd
00000330: 6ee7 27be 3e18 493d f4e3 e23e c656 9fbe
00000340: b60f a0be d064 2b3e 2a65 9fbe e5d5 8e3d
00000350: bfd6 0fbd 7f20 7abf 818c b8be ed4c b4be
00000360: d015 85be 26d1 a8bd a85a 53be 9e5d 34be
00000370: 92d4 b23e 184b 96be f578 a4be 18bf b4bd
00000380: 98f6 59be 4d66 22be 9a4f ce3e e538 9ebd
00000390: 0f35 c2be c9dd 133e b6cf f7be 4f4d 99bf
000003a0: 00da 90be 1b55 b4be 0377 94bd 4d80 343e
000003b0: e912 b9bd ee87 0ebf c1c1 8f3e 8458 dabe
000003c0: 5895 0bbe 54ce 483e 7c1a f3bd 6112 09bf
000003d0: 3901 733e 2121 303e 0c56 8c3c 7338 a2be
000003e0: f021 ebbe f6cc 28bf 5275 763e 1119 5cbe
000003f0: ae75 0abe 0df4 ad3d d9de 5d3d f581 c13c
-0.022338763 -0.07888979 -0.02979522 -0.06118072 -0.70588225 0.26711965 -0.09773783 -0.0032059683
1.422246 -0.50745296 -0.4943834 -1.9212929 -1.1877887 0.7172749 0.32613754 -0.5281701
0.14310044 0.24987085 -0.05964063 -0.42638117 0.62645483 -0.06347753 -0.041207742 0.27925393
-0.52674574 0.057425283 0.1336153 -0.10460014 -0.19528233 -0.11109307 -0.15701295 0.17746428
-0.044515923 -0.29209775 -0.1988577 0.2657682 -0.28597167 -0.12499853 -0.048944026 0.090823494
0.030701952 -0.053675815 -0.1267925 0.03669268 0.104407296 -0.047850262 -0.04969865 0.0077560074
-0.01716989 0.0136250425 0.04573461 0.041502733 -0.008340978 0.037540898 0.024815872 -0.008323635
-0.077998 0.661023 -1.4667412 -0.042844903 0.15930176 -0.070272915 -0.094778374 0.0007786936
0.050450828 0.2489249 0.25141045 0.50603956 0.40031642 0.5211228 -0.646477 -0.4845367
0.93625075 0.11078036 0.037167147 0.7084598 0.588887 0.6709457 0.88903445 0.6377552
0.3083534 -0.25641137 0.6770335 0.38565272 0.016001137 -0.08896085 -0.20100597 1.1550056
-0.3820335 0.39329958 0.28537244 0.47327304 0.20705432 0.29298425 0.034021944 -0.116450526
0.038336884 1.8235393 0.8881571 0.5278622 -1.2416649 0.5375505 -1.1594933 -0.009204916
0.11268426 0.010111064 0.08571903 1.6327726 2.1735678 0.6455704 -2.236624 0.5767564
-2.1763027 -0.053153843 0.081051946 0.19174655 0.13442786 0.2596533 0.9721212 -0.69610095
0.1802983 -0.7270798 0.27994826 -0.10798696 0.02538196 -0.011046001 0.020799264 0.8328245
1.2090209 -0.6936974 -0.4345125 -0.6672924 -0.24102674 -0.038206957 0.09777207 -0.05522073
-0.012239854 1.1527499 1.4113184 -0.6666558 -0.9783309 -0.5674278 -0.7478643 -0.02051962
0.063325085 0.18954052 0.7413579 -0.7349948 0.20978217 -0.3097875 -0.3802586 0.14007974
0.54524225 0.38471323 0.052214768 -0.613374 0.5084373 -0.7794403 -0.4639669 -0.0786857
-0.57900906 0.7963304 0.9077145 0.07952466 0.028926888 -0.37641466 -0.4537208 0.010250934
-1.5809541 0.17434534 0.7359793 0.31350687 -0.35924447 -0.29137787 0.10617725 -0.8695089
-0.050728127 -0.15786736 -2.3389416 0.3362452 -0.14285973 0.6144457 -0.040887758 -0.5885813
0.036467638 0.035887 0.010561533 -0.010038574 0.049759444 -0.03174416 0.031646933 0.13778634
-0.28831014 -0.16785291 0.15116318 0.49870405 -0.3986824 0.24320115 -0.094983585 -0.0963061
0.19562572 0.0037452837 -0.29356942 -0.09494186 -0.16396877 0.049095385 0.4431454 -0.3112089
-0.31261986 0.16737676 -0.3113187 0.06974391 -0.035116907 -0.97705835 -0.36044696 -0.3521494
-0.25993204 -0.08243017 -0.20640051 -0.17613837 0.34927803 -0.29354167 -0.32123533 -0.08825511
-0.21285474 -0.15859337 0.40295106 -0.077256955 -0.37931105 0.14440073 -0.48400658 -1.1976718
-0.2829132 -0.3522118 -0.07249262 0.17627068 -0.0903681 -0.5567616 0.2807751 -0.42645657
-0.13631189 0.19609958 -0.11870286 -0.5354367 0.23730935 0.17200138 0.017130874 -0.31683692
-0.4592433 -0.65937746 0.24068192 -0.21493937 -0.13521454 0.084938146 0.054167602 0.023621539

l1.bias f4 [64]
00000000: 3672 ab3d 9867 42bd 330a 6a3c 9319 e8bc
00000010: 16e8 923c ae56 59bd 91b0 d93c 5d39 883a
00000020: 5537 35bc 52ed c83c d9c1 a23c 6691 cd3c
00000030: 1690 833c 4562 073e 32fe 1d3e ffb0 4f3c
00000040: 3b99 a43b 36b5 083d be55 b23d ffd5 70bb
00000050: d91a 1d3d 46d5 c43c 7fbc f13b 155e 0abe
00000060: 9dbb aa3d d1b2 993d b23a 8b3c 4fb3 823d
00000070: 62ea 05bc 44f5 9a3d d203 5e3d af06 923d
00000080: 67ee c13d 9aea ca3d 7e77 6f3d 4a40 623a
00000090: ce65 b33d acbf 553d ecf3 acbb 4563 de3c
000000a0: eec0 8dbd 3afb 803d 0dd1 723d af93 c43b
000000b0: ef87 e73d 0dcc b1bd 51a2 803d df19 a43c
000000c0: ccd9 db3c 8ca1 a13c 1b46 083e 718c 7c3c
000000d0: 2921 543d 56b8 663d 49ee 913d 3af6 393d
000000e0: 435b d9bd 6cd9 f13c ef20 3f3d fe88 293c
000000f0: 03ab 283e 16e9 0e3d 728a 103e f89c 3d3d
0.083713934 -0.047462076 0.014284658 -0.028332507 0.017932933 -0.05306118 0.026573451 0.0010393072
-0.011060555 0.024527226 0.019867824 0.025093745 0.016059916 0.1322108 0.15428999 0.0126764765
0.0050231493 0.03337594 0.0870776 -0.0036748645 0.038355682 0.024027478 0.007377207 -0.13512452
0.08336566 0.0750481 0.016995762 0.06381857 -0.008173557 0.07566312 0.054202862 0.07130181
0.094693 0.09908028 0.058463566 0.00086307956 0.08759652 0.052184746 -0.005278101 0.027146945
-0.06921564 0.06297918 0.059281398 0.0059990506 0.11305224 -0.08681498 0.062809594 0.020031868
0.026837252 0.019730352 0.13307993 0.015414343 0.051789436 0.05632814 0.071255274 0.045400836
-0.1061311 0.02952262 0.046662267 0.010347603 0.16471486 0.034890257 0.14115313 0.046292275

l2.weight f4 [64, 64]
00000000: c8b2 52be 9693 c8be ed47 03bf 234d 1abf
00000010: b1f9 cb3d 4774 183f 63b7 07be 7ede db3e
00000020: 5534 523f 02bc d73e 9cf2 dd3e eadb 9abe
00000030: bae6 06bf dc2e f6bd 512e c73e 846b 0e3f
00000040: dbed 4a3e 8467 ee3d 5c4c d8bc f397 03bf
00000050: 287e 953d ee1d c33e caa3 ad3e d6a2 54bf
00000060: 9309 f2bc 63f0 c4bd f6b8 16be 5f64 533f
00000070: e469 f0be 1a21 833e 3cd4 86bc e775 0cbd
00000080: c442 9fbe bfb7 b33c 6cea 743e e3dd 083f
00000090: aa86 ac3d ab8f 15bf 7c7b 60be 8f23 bebe
000000a0: a1fb 6d3e 264f ed3e e0ec c93e 81a2 70bf
000000b0: 91fd 863e 7c1e 3c3f f7f6 a73d 5bda 6c3e
000000c0: b901 3a3d b5fa d1be d444 c03e 2a0a 373e
000000d0: 9412 2fbe f160 d53d cc7f bd3d b9b4 4a3c
000000e0: 6579 eabd 4f32 9e3e 928b c23d 4ba4 b03e
000000f0: 51c7 0dbc d1a7 943d 2b9a 48be 83b1 783e
00000100: 48e8 ab3e cc9c 8cbd 1963 5d3e e3f8 e43e
00000110: 4807 a23e e45e 943e 299f 8b3d ed4a a1be
00000120: 4141 d83e 1607 96bd daf8 e4bd cdfb 89be
00000130: 9231 983d 05af 6c3d f8a2 633e 5a44 57be
00000140: 9c97 0b3f 5b45 6f3e b5e1 95be 2ed9 a13e
00000150: 398f 0fbf 999b 363e 663a 8abf e4fa 993e
00000160: 7930 e03e d4b4 b8bc 9673 9bbe d4ae 4d3e
00000170: e7f1 203f 1dc3 babe 6d01 c03d 63e4 e33d
00000180: e74a c7be 494a aa3d 68b5 9c3e 84db a2bd
00000190: dbf2 263d 491b 1c3e 0183 ce3e 240e 653e
000001a0: af27 a8bd 8b34 c13d 7ae3 bcbe c9ad 1a3d
000001b0: 7f9e 0cbe 6e41 9bbe 25c2 fd3d 2763 90bd
000001c0: 9ef7 133f 1442 393f c655 633d 7133 05be
000001d0: 3c2b 573f 7ccf ea3d 9ee7 503e 1514 8c3e
000001e0: 1311 fd3d 8581 fdbe 111b 57be 2220 dc3e
000001f0: ee8e eabd f053 0cbe 5ab3 18bc a2aa 223e
00000200: aed0 af3d a90d 0cbe 2e65 30be ee18 e6be
00000210: 5a6b 083d cbad 13bf 8a16 c6be 4373 983e
00000220: 654d 523f 791a aa3e 4571 39be a8a5 793e
00000230: 95f6 a5be a96a f8be 3b5c 42be 80b5 b83e
00000240: 9370 20bf 1c07 e1bd 9a7a ae3e 668b c03d
00000250: 3ed5 873d 206a 763e bf51 153f 9657 abbe
00000260: 5358 273f da20 1dbb fd33 2a3d 7081 d53d
00000270: 35f4 99be 326d a73d 5eb9 193e c130 0d3e
00000280: e849 383d 0886 7a3e bf05 8abe f798 013e
00000290: 9031 aa3e 28d2 893d 7aa3 d6be a334 9ebe
000002a0: c0cf 57bd f370 df3d bc3a b9be e1ab f33d
000002b0: 13d0 cdbd 60c1 513f 2e0c 9e3d b727 29be
000002c0: 1af5 473e 254c 5fbe 2e18 7d3e d517 fc3d
000002d0: 4da7 41bd 9529 823e c8fc 433e 29d8 e03d
000002e0: ae01 d53e 5b4e 93bd 8897 d33d 4ff4 cebd
000002f0: 05dc 20be 12b8 c93d b734 3e3e 3c91 603e
00000300: c069 a43d a999 173e 06be 713d 4fa8 9d3e
00000310: 2e6f a73e 057a ec3d 29c0 22bf 7428 8dbf
00000320: 4fd1 55bf 25f0 03bf bf4b b03d 5774 8abe
00000330: 9520 c4bb 6f97 e1bb f995 a73e 959f 17bf
00000340: 1757 e4be 0d28 fd3e e7f8 e9be df77 3c3e
00000350: 2458 ef3c d3a1 9cbe a417 ce3b e723 473e
00000360: 0585 9ebd 84d0 853e d9e9 a03e aed7 c9be
00000370: a8df 6c3f 48d5 013d e4d6 7fbe 8997 21bf
00000380: 16b9 ea3e d43c 95be d844 3fbe a900 5fbf
00000390: 7d39 253e a38c df3d 857a 883d 0548 0d3e
000003a0: de7c 1e3d a54d 3cbe b8f9 50bd b9dc 053e
000003b0: c42d 17bd 332f 33bf b567 4fbd fc34 e2bd
000003c0: 45ec 8ebf 33be 523f df9f 453e 1e3a c8be
000003d0: d12e 72be c9bd ba3e 7d70 713e f735 a33d
000003e0: 8b77 0dbe a6e0 8d3e e1e5 2d3e b612 a83f
000003f0: f1dd f63d 0108 603d 7d26 a33e fa8b 78bd
-0.20576012 -0.391751 -0.51281625 -0.6027395 0.09959734 0.59552425 -0.1325355 0.42943186
0.821111 0.42135626 0.4334916 -0.30245906 -0.5269581 -0.120206565 0.38902524 0.55632806
0.19817297 0.11640838 -0.026403598 -0.5140373 0.07299453 0.38108772 0.33914024 -0.8306097
-0.029545581 -0.09616163 -0.14718994 0.8257503 -0.46955788 0.25611192 -0.016458623 -0.034292128
-0.31105626 0.021938203 0.2391755 0.5346357 0.08424123 -0.58422345 -0.21922106 -0.37136504
0.2324052 0.46349448 0.39438534 -0.9399796 0.2636533 0.73484015 0.08201402 0.23130171
0.0454118 -0.41011587 0.37552512 0.17874971 -0.1709693 0.10418881 0.09252891 0.012372189
-0.114489354 0.30897757 0.09499277 0.34500346 -0.008653478 0.07258571 -0.1959006 0.24286465
0.33575654 -0.06865844 0.21619834 0.44721135 0.3164618 0.28978646 0.06817467 -0.31502476
0.42237285 -0.0732557 -0.11180277 -0.2694992 0.0743133 0.0577841 0.22230136 -0.21022168
0.5452821 0.23366301 -0.29273763 0.31611007 -0.56077915 0.17832793 -1.0799072 0.30074227
0.43786982 -0.022547163 -0.30361623 0.20086223 0.62869114 -0.36476985 0.09375272 0.11127546
-0.38924333 0.0831495 0.30607152 -0.079520255 0.04075895 0.15244783 0.40334323 0.22368675
-0.08210694 0.0943385 -0.368923 0.03776339 -0.13732336 -0.30323356 0.12390546 -0.07050162
0.5779971 0.7236645 0.05550172 -0.13007905 0.84050345 0.11465356 0.20400855 0.2735907
0.12356772 -0.49512878 -0.21006419 0.42993265 -0.11453043 -0.13703895 -0.0093201045 0.15885404
0.08584724 -0.13677086 -0.17226097 -0.44940895 0.033305503 -0.5768706 -0.3868907 0.29775438
0.82149345 0.33223322 -0.18109615 0.24379599 -0.3241469 -0.48518875 -0.18980496 0.36075974
-0.62671775 -0.10987684 0.34077913 0.09401588 0.066324696 0.24063921 0.5832786 -0.3346526
0.6536915 -0.002397588 0.041553486 0.10425079 -0.30069128 0.08175124 0.15012118 0.1378813
0.044992357 0.24465191 -0.2695751 0.12656008 0.33240938 0.06729537 -0.41921598 -0.30899534
-0.05268836 0.10910215 -0.36177623 0.11898018 -0.10049453 0.8193569 0.07717167 -0.16519056
0.19527093 -0.2180639 0.24716255 0.12309233 -0.04727869 0.2542235 0.19139397 0.10978729
0.41602844 -0.071926795 0.10331637 -0.10105192 -0.15708931 0.09849562 0.18574797 0.21930403
0.08027983 0.1480471 0.05901911 0.30792472 0.3270201 0.11546711 -0.63574463 -1.102797
-0.83522505 -0.51538306 0.086081974 -0.27041885 -0.0059853294 -0.0068845074 0.32731608 -0.5922788
-0.44597694 0.4944462 -0.4569771 0.18405102 0.029216833 -0.30592212 0.0062894393 0.1944729
-0.07740215 0.26135647 0.31428412 -0.39422363 0.9252877 0.03169754 -0.24984318 -0.6312185
0.45844334 -0.2914797 -0.18678606 -0.8711038 0.16135211 0.10915496 0.06663994 0.13797005
0.0386933 -0.18388994 -0.0510194 0.1307248 -0.03690888 -0.69993895 -0.050636012 -0.11045262
-1.1165854 0.8232147 0.19299267 -0.3910684 -0.23650672 0.3647292 0.23578067 0.07969277
-0.13815133 0.27710456 0.16982223 1.313071 0.12054051 0.054695133 0.31865302 -0.060680367

l2.bias f4 [64]
00000000: 45ec 69bd 0b1c 30be 1688 253c 3de2 a03b
00000010: 8d35 cb3d 2a7e 08be 458e 47bd a949 c13a
00000020: 4c0f 513e ed78 5c3d ac0c 3fbd bb4d 1c3e
00000030: d950 9f3d 1e7d 583d bf62 95bd f3d8 4d3e
00000040: 2115 3a3e 0346 983d ea24 44be e216 8fbd
00000050: 192f d7bd 9357 9a3e 7bb7 923d 9cd1 ee3d
00000060: 8d50 5d3e d33e 0ebd 62d0 96bd c21c 543e
00000070: bbfd 1b3e e064 59be d055 913c c9b6 af3d
00000080: 5dd9 a03d 6a53 e23c 6f3c 4abe 8690 53be
00000090: 0215 313e 5b85 433d 0815 b7bc 3a9a 65bb
000000a0: fd73 013d 7a44 d3be a77a af3d 5e83 e23d
000000b0: 6a8b 54bc 8a45 c73d 9611 8b3d 6cb8 e2bd
000000c0: c769 d8bc e4af 033e 4a5d a13d f03a b0be
000000d0: 54c7 0c3e 548d 8b3d cc94 423e 253c 82bd
000000e0: 50b8 db3d c2ff f1bd 9c77 38bc 9af2 fe3c
000000f0: 838f 2c3e 9984 193e 8b72 ac3d 32de 613e
-0.05711009 -0.17198198 0.010103246 0.004909782 0.099223234 -0.13329378 -0.048719663 0.0014746684
0.20415992 0.05382626 -0.046642944 0.15264027 0.07779092 0.052853696 -0.07294225 0.20102291
0.18172123 0.07435229 -0.19154707 -0.069867864 -0.1050703 0.3014494 0.07163902 0.116610736
0.21612759 -0.034727883 -0.073639646 0.20714095 0.15233509 -0.21229887 0.017741114 0.085797854
0.07853959 0.027627666 -0.19749616 -0.206606 0.1729317 0.0477346 -0.022348896 -0.0035034553
0.031604756 -0.4126318 0.08568316 0.110602126 -0.012972692 0.097300604 0.067904636 -0.11070332
-0.026417626 0.12860066 0.078791216 -0.34419966 0.13747913 0.068140656 0.19002074 -0.06359128
0.10728514 -0.1181636 -0.011258986 0.03112154 0.1685162 0.14991988 0.08420285 0.22057417

l3.weight f4 [17, 64]
00000000: fb73 0bbe 9c7a 97be 5d6a 26bd 6847 1fbf
00000010: 904b 233f b9d1 3cbf 13ce d9be 64a0 3fbe
00000020: 1dd2 20bf a292 87bf 00cd cd3b a586 60bd
00000030: c590 2abd fee1 693e 91b4 8a3f 78c9 16be
00000040: 6be2 36bf 7a5b bbbe ba80 993e 2f85 26bf
00000050: c29e aa3f 870c 6c3e 1cda b8be ba69 1ebe
00000060: a928 9c3e 24a7 cfbe e074 cb3d 1cdd 8cbd
00000070: 54c2 0b3d a885 3e3e e8d0 28bf b0d4 cb3d
00000080: 0525 28be 3159 3abe 318b 1e3f beb4 c5be
00000090: 8a23 073e c968 9cbf 3d82 653f afad ba3e
000000a0: f38b 3ebf 51b5 803f 0cb4 583d 36d2 3bbf
000000b0: edbe 3f3f 1701 3cbe a73e 1fbd 9f9b 8abe
000000c0: 668e 33be 4ea8 91be 642d 363e fbdb 113e
000000d0: 8141 0e3f 01d2 293f fad3 363f ae04 a23d
000000e0: dec2 11be 2599 fd3d 4e6f 08bf 9f28 ab3e
000000f0: b5ab 71bd 8b21 5c3f d608 ee3e 976c a93e
00000100: dd69 49be 5d21 c8bd 9726 753e 10ff 4bbf
00000110: 5c22 de3d a943 4fbd 9fc5 8d3f b171 11bf
00000120: 9248 3abf fc88 213f bd43 9fbe 3785 1c3d
00000130: 753a b1bb 9268 ab3d 25ba 07be 0a17 bebd
00000140: afe8 03be af53 0bbf 5572 1bbe d05c 1e3f
00000150: 3d8c 483e 7c7f c13e 6861 ec3d 7440 89be
00000160: 88fa 2c3e 3968 6bbe e0ee b7be 0800 ca3e
00000170: df9a 833e 820b 373e 51e6 28be 0cfb 533e
00000180: b5c0 74be fdf4 aebe 0c21 bfbe e8b3 c6bd
00000190: 5dc1 5abe 49ca 75be 1b47 f8be 50d1 c23e
000001a0: 602b ddbe b1ca bbbe 2884 3d3f 93cb 123f
000001b0: 8ad6 23bf 0512 2dbe c1d1 693e 7f5f 0c3f
000001c0: 84df 28be 71de c33c 5a52 d53e 60c9 753e
000001d0: fcad 8f3e 3a45 95be 9627 8abe 2665 ab3e
000001e0: 8582 923e 5829 0dbf 422f 723d 3386 013e
000001f0: 9480 013f b11a e1be 069c 693d f86f 863d
00000200: a920 98bf c916 b5be 6795 e7bd 6ef7 423f
00000210: 82e4 043f 140f 013f 2d33 e63e dbd1 5fbf
00000220: 9c61 39bf 1d8d 723f 1c60 333e 64f0 3cbf
00000230: 84b4 0cbf b4e1 17bf 3938 22bf 09bb 98bd
00000240: 804a 393f 0637 083f 5f70 24be da79 dbbe
00000250: 12de 243e 3b69 e83e 6ab6 dd3d 6a5a 63bf
00000260: aa13 3fbd e221 8ebe fedb e53d b075 933e
00000270: d800 33bf 2d91 f23d 5b0f 87bd a84f 1abf
00000280: 1e5a d3be 4126 f03d 4d1e 6ebc 3065 d73e
00000290: e431 b53e d18e 1dbd 663d 20be 3e81 5c3e
000002a0: 9328 203f cb6f 9a3f b24c 4f3f bad4 2bbe
000002b0: a698 48be 564b 6bbe 6afa 03bf 0af9 033f
000002c0: 5692 61be e324 7abe 462d 52bd 1736 d53d
000002d0: 191e 04bf 8380 e93c c363 2abe 9c93 113e
000002e0: 6b77 813e d0f2 cd3e 0c09 0e3f fef7 20bf
000002f0: 024e 633e ef2d f33b cac2 22bf 45a7 363d
00000300: 1b57 b93c e666 073e cfbd 8dbe 4ec8 193f
00000310: 9a56 8cbe d167 04be 2288 d23e 169e 0e3e
00000320: 4f46 8e3f 550f ac3e b84b cd3e a196 5bbf
00000330: 12ab 23bc d74c 5dbe 822c 5f3e 9012 1a3f
00000340: eca1 8a3e 7330 cf3d e223 19bf 0d6f c4be
00000350: dee6 38bf eb9d 473e 4fa4 273f 4e77 38bf
00000360: 4314 233f 3e05 bf3e 6689 19bd c263 c43e
00000370: c58a 2c3e fabb 5ebc c154 293f a747 d33e
00000380: 79c6 023f 8af1 fe3d 076b 0abf 79ad 313d
00000390: c85f 983d 67b3 afbd 2506 17be daf4 473e
000003a0: ce15 ce3e 6995 3dbf 0e01 743e ff81 673e
000003b0: 669e 26be a8c3 8c3b ecb9 c2be b386 353d
000003c0: 9bee b83e e43a 303e 4f86 b43d 0c1a 1fbe
000003d0: fd4e bd3d 2761 6f3e 1f36 263e e25e 6d3d
000003e0: edeb eebd e741 0a3e 496f 8c3c dff3 2c3e
000003f0: 70fa 48bb ac84 bd3c b3c1 a0be 31be 98bb
-0.13618462 -0.2958573 -0.04062878 -0.6221833 0.63787174 -0.7375751 -0.42540035 -0.18713528
-0.6282061 -1.0591624 0.0062805414 -0.054815907 -0.04164197 0.22840115 1.0836354 -0.14725292
-0.71439236 -0.3659323 0.29981023 -0.6504697 1.3329699 0.23051654 -0.36103904 -0.15470019
0.3049977 -0.40557206 0.099344015 -0.06878111 0.034120873 0.18605673 -0.65943766 0.09952676
-0.16420372 -0.18198086 0.6193114 -0.38614458 0.13197151 -1.2219478 0.8965185 0.36460635
-0.74432296 1.0055333 0.05290608 -0.7336763 0.74900705 -0.1835979 -0.03887811 -0.27071854
-0.1753479 -0.2844872 0.17790753 0.14244072 0.555687 0.66336066 0.714172 0.07911049
-0.14234492 0.123827256 -0.5329484 0.3342943 -0.059001643 0.8598868 0.46491116 0.3309066
-0.1966929 -0.097719885 0.23940502 -0.7968607 0.10846397 -0.050601635 1.1075934 -0.56814104
-0.72766984 0.63099647 -0.31106368 0.03821298 -0.00540858 0.083695546 -0.13254602 -0.09281738
-0.1288173 -0.54424566 -0.15180333 0.6186037 0.19584747 0.37792575 0.11542016 -0.26806986
0.16892445 -0.22988977 -0.35924435 0.3945315 0.25704095 0.17875484 -0.16494109 0.20701236
-0.23901637 -0.34171286 -0.373299 -0.09702283 -0.21362825 -0.24002947 -0.4849175 0.38050318
-0.43197155 -0.3667808 0.7402978 0.5734188 -0.63999236 -0.16901405 0.22833921 0.54833215
-0.16491514 0.02390978 0.41664392 0.240026 0.28062427 -0.29154378 -0.26983327 0.33475608
0.28615203 -0.5514121 0.0591271 0.12648849 0.5058682 -0.43965676 0.05703356 0.06564325
-1.1884967 -0.35368946 -0.11307793 0.761588 0.51911175 0.5041363 0.4496092 -0.8742959
-0.72414565 0.9474657 0.17517132 -0.73804307 -0.54962945 -0.5932877 -0.6336704 -0.07457549
0.723793 0.5320896 -0.16058491 -0.42866403 0.16100338 0.45392784 0.10825808 -0.88809836
-0.046649612 -0.27760226 0.11223601 0.28800726 -0.6992316 0.11844096 -0.06594726 -0.60277796
-0.4127969 0.11726046 -0.014533591 0.42069387 0.35389626 -0.03846628 -0.15648422 0.21533677
0.6256191 1.2065367 0.809764 -0.16780367 -0.19589481 -0.22977957 -0.51553977 0.5155188
-0.22028479 -0.24428134 -0.051312707 0.104107074 -0.51608425 0.028503662 -0.16639619 0.14216465
0.2528642 0.40224314 0.55482554 -0.62878406 0.22197726 0.007421247 -0.63578475 0.044593114
0.022624543 0.13222846 -0.27683875 0.60071266 -0.27409822 -0.12930228 0.41119486 0.13927492
1.1115206 0.33605447 0.4009683 -0.85776716 -0.009989517 -0.21611343 0.21794322 0.60184574
0.27076662 0.10116663 -0.5982038 -0.38365975 -0.72227275 0.19493835 0.6548509 -0.72057045
0.6370279 0.37308687 -0.03748455 0.3835736 0.16849811 -0.013594622 0.6614495 0.41265604
0.51084095 0.12448414 -0.5406956 0.043378327 0.07440144 -0.0857914 -0.14748438 0.19526997
0.4025101 -0.74056107 0.23828527 0.22608183 -0.16271362 0.004295785 -0.38032472 0.044317912
0.36119542 0.17209965 0.0881468 -0.1553728 0.092435814 0.23376904 0.16231583 0.057951815
-0.11666093 0.13501702 0.017142909 0.16889904 -0.003066685 0.023134552 -0.3139778 -0.0046613445

l3.bias f4 [17]
00000000: 3b34 393e 01ce 803d 836f 5e3d 1f98 913d
00000010: 8f7e bc3e 0cdf 043c 5900 173d 28a5 283e
00000020: 9285 5bbe fded 0b3e 1b93 543c cb09 81bd
00000030: f291 adbe 9a60 8b3e 5414 46be 4905 bd3d
00000040: 8b36 42be
0.1808633 0.06289292 0.054305565 0.07109093 0.36815307 0.008109819 0.036865566 0.16469252
-0.21437672 0.13665004 0.012974526 -0.06300696 -0.3390041 0.2722214 -0.19343692 0.09229524
-0.18966119
