uncertain/Humanoid-v2/uncertain.pth (torch, 120095 bytes, 5 tensors)

layer1.weight f4 [64, 393]
000000 c8 60 7e bc b5 60 ac bb fa ee fd b8 6a 12 85 b9
       -0.015526004 -0.005260552 -0.00012108493 -0.00025381456
000010 33 75 71 3b 67 4a c2 b8 2f 1c 40 bc f7 57 16 3c
       0.0036843538 -9.2644994e-05 -0.0117254695 0.009176246
000020 0a 79 96 b7 9e e6 3c 3c 95 7d ec b9 63 bf 4e bb
       -1.7937757e-05 0.011529593 -0.00045106994 -0.003154718
000030 c7 9d 7d b9 3e 28 b1 3a d1 44 7d 3a f1 e7 06 3c
       -0.00024186737 0.0013516021 0.00096614385 0.00823401
000040 83 64 4b 3b c0 8f 11 3b 91 7f 8c ba 0a 06 d9 bb
       0.0031035251 0.0022210926 -0.001071917 -0.0066230344
000050 2a 00 a1 3a ec d3 02 3b aa 9d 2b ba ec 85 de 3a
       0.0012283374 0.001996274 -0.0006546626 0.0016977168
000060 4f af 87 3a 93 3f ff bb f7 70 fd bb 85 38 aa 3c
       0.0010351929 -0.007789561 -0.0077344137 0.020778904
000070 6e a2 02 3c 54 ad 04 3c b4 ee e3 bb 06 2f d2 3b
       0.007973297 0.008097965 -0.006955946 0.006414297
000080 6a ec 8a bb 70 a5 8c 3c 30 be 1e 39 23 e3 db 3b
       -0.0042396085 0.01716873 0.00015138905 0.0067104264
000090 cf f5 44 3c 9d 0c 9e b9 ca 61 8d 3b 5f 93 d7 bc
       0.012021496 -0.00030145506 0.004314636 -0.02631539
0000a0 35 61 92 bc 8e 1b 81 39 8e b2 70 bc ea 5d 86 bc
       -0.017868618 0.00024625327 -0.014691008 -0.016402204
0000b0 c0 c8 b0 bc 6b 57 22 bb ce 09 f6 36 d6 28 15 bc
       -0.0215801 -0.0024771343 7.3325127e-06 -0.009103974
0000c0 12 39 4c b9 42 7c c2 3b a1 47 06 3b 35 72 c0 a4
       -0.00019476216 0.005935223 0.0020489471 -8.34602e-17
0000d0 ab f0 e3 b3 87 ee 05 2c c0 ea 0a b7 29 af b4 bc
       -1.06142885e-07 1.9032846e-12 -8.280098e-06 -0.02205618
0000e0 28 1c 13 bc ac 29 86 3a 44 1e d8 b6 ea a8 1e b8
       -0.008978881 0.0010235808 -6.440825e-06 -3.782745e-05
0000f0 1a 4d 09 bc 30 01 ec b9 d9 80 00 3c f5 ba b0 bc
       -0.008380199 -0.00045014312 0.00784322 -0.021573523
000100 2d 1f 88 bc 48 9d b9 b8 cb dd 94 b8 15 23 e0 3b
       -0.016616428 -8.850783e-05 -7.098502e-05 0.0068401196
000110 6e 1b 64 37 3f 9a 07 3b 9c b7 ac 3b f4 df 69 38
       1.35962455e-05 0.0020691303 0.0052709114 5.57601e-05
000120 c3 1e 7e b8 fe fe 8b 38 e7 5b 8a 3c ee 11 dc b8
       -6.0586968e-05 6.6755325e-05 0.016889526 -0.00010493757
000130 2a 9c 3a b8 ba e6 93 b7 7b 7f 07 b8 83 78 d2 b9
       -4.4491295e-05 -1.7631206e-05 -3.2305234e-05 -0.0004014411
000140 c4 16 de b7 10 59 2a 3a 6a 94 70 3b b4 f8 af bb
       -2.6475063e-05 0.00064982567 0.0036709555 -0.005370224
000150 8a e7 1a bb 28 91 fc b8 a6 94 bc ba 60 2a 54 b4
       -0.0023636543 -0.00012043334 -0.0014387562 -1.9759455e-07
000160 1e 05 8e ba 1b f4 ab 38 e0 03 76 38 95 05 c7 b8
       -0.0010835265 8.1993836e-05 5.865458e-05 -9.490099e-05
000170 20 ff 02 39 a1 c0 d6 bb bf 49 57 bc 38 5a b2 ba
       0.00012492808 -0.006553725 -0.013140141 -0.001360721
000180 ad 41 0b bc d2 8e af bb 3e f6 be 36 a3 a1 29 bb
       -0.008499545 -0.0053576017 5.6911076e-06 -0.0025883697
000190 22 4f a7 39 32 2e 17 ba f9 f7 ba 39 4f ae d7 3b
       0.0003191168 -0.00057670765 0.0003566144 0.0065820585
0001a0 6d 59 c1 3b 13 7a 7d 3c 13 ec dc 3a c4 b2 56 b7
       0.005900553 0.015470999 0.0016855024 -1.2797016e-05
0001b0 39 3e 05 3a 5d c1 0a 38 55 1c 7c ba e8 de 0c 3c
       0.0005082819 3.3081848e-05 -0.0009617259 0.008598067
0001c0 2e 20 17 bb e4 b1 be 3a a8 c9 8c bc 55 be 68 ba
       -0.0023059952 0.0014548865 -0.017186001 -0.00088784593
0001d0 9c fc f9 38 67 81 8c bb d8 d6 d5 b8 36 8d c3 b9
       0.000119202974 -0.004287887 -0.00010196649 -0.0003729851
0001e0 4f 72 29 3b 23 0d d8 bb 12 ce 23 ba c0 6b af 3b
       0.0025855487 -0.006593363 -0.00062486634 0.005353421
0001f0 6e 19 c9 3a 2a 24 21 bb c1 e6 6f 3a 4b ee 10 3a
       0.0015342662 -0.0024588206 0.00091515115 0.00055286725
000200 06 89 53 3a 08 c4 d1 38 a6 d4 06 b9 25 55 ca 3b
       0.00080694293 0.0001000241 -0.00012858454 0.006174701
000210 4e a5 9f 3b 32 bd 9b bb 5b d1 8f 3c 23 3e 24 bc
       0.004872001 -0.0047527784 0.017555883 -0.01002458
000220 b9 3e 50 bc 79 a9 76 bb 0a c6 88 b8 90 e7 3d bb
       -0.012710267 -0.0037637635 -6.521873e-05 -0.0028977133
000230 80 1e b2 b9 c5 e4 6b b9 1b 45 e8 39 92 4e 55 bb
       -0.0003397353 -0.0002249657 0.00044301976 -0.0032548052
000240 d5 f5 af bc 71 31 ec ba d7 f2 88 ba ba 03 01 bb
       -0.021479527 -0.0018020106 -0.0010448348 -0.001968606
000250 38 ca eb bb da 87 c0 38 cf 5c 3c 3b 65 60 2c b9
       -0.007195737 9.180578e-05 0.0028741842 -0.00016439108
000260 66 14 b5 3a 16 d8 de 3b ba 04 0a bc c8 66 d2 b9
       0.0013815283 0.006800662 -0.008423978 -0.000401309
000270 3a 9a be b8 30 1e af 3a 76 0c 12 37 18 11 11 bc
       -9.088633e-05 0.0013360437 8.705179e-06 -0.008854173
000280 58 7f 1b b7 5f 8e 82 ba 00 8b ee 3a 49 6d 92 3a
       -9.2683695e-06 -0.0009960643 0.0018199384 0.0011171486
000290 a4 9b 31 bc 64 9d 84 ba 55 38 09 ba 6d 24 2e 3b
       -0.01084033 -0.0010117707 -0.00052345294 0.0026572004
0002a0 e9 78 4f 38 a8 f5 94 ba cb 8f 8d ba 32 01 35 3a
       4.9465252e-05 -0.0011364715 -0.00108003 0.000690478
0002b0 c6 82 20 bb 6d e3 ce ba 59 3d e8 bb 29 55 94 b9
       -0.002449201 -0.0015784331 -0.0070873913 -0.0002829221
0002c0 bf 7c 31 bb f5 16 a5 3b 75 4d 0a 39 24 fd cf 39
       -0.002708241 0.005038137 0.0001318956 0.0003967072
0002d0 a6 bd d3 35 2d e2 02 ba 18 ab a1 b8 1f 1c 44 bb
       1.577592e-06 -0.0004992809 -7.708947e-05 -0.0029923988
0002e0 6b 74 a0 3a 8b 92 d8 3b 25 42 66 29 40 93 33 a8
       0.0012241727 0.006609266 5.112763e-14 -9.968426e-15
0002f0 ef b0 c9 35 66 7e d0 21 3a c7 15 b7 cd f6 0b 3b
       1.5027161e-06 1.4128086e-18 -8.927478e-06 0.0021356822
000300 5a c9 ab ba 73 94 a3 bc b1 b5 3b bb 57 83 0a 39
       -0.0013106272 -0.019968247 -0.0028642232 0.00013209633
000310 d9 f5 1c 3b d2 92 2c 3c fc 66 54 3b 5b d9 ad 3c
       0.0023950248 0.010533052 0.0032410016 0.021221807
000320 74 95 f3 bb 03 fc 59 b9 f1 fb 96 3a 0b ce 4c 3b
       -0.0074335877 -0.00020788614 0.0011519176 0.003125074
000330 29 db a5 ba 69 3b 23 3b af d2 c3 b9 7a 90 aa ba
       -0.0012653816 0.0024907237 -0.0003735027 -0.0013013028
000340 e2 67 b5 3a 1f d8 c1 bb b6 e6 a0 bc ef d8 a2 3c
       0.0013840164 -0.005915656 -0.019641262 0.019878833
000350 5c cc fa 3a df 8d b7 b9 c2 52 bf 3a c3 4f f2 3b
       0.001913439 -0.00035010182 0.0014596807 0.0073947622
000360 2b 1d e8 3b 4c e3 84 3c 45 dc 94 ba 16 74 c8 b9
       0.007083555 0.016221665 -0.0011357149 -0.00038233463
000370 4a 36 37 bc 49 3c 3c bb b4 c0 46 3b 16 5f ba bc
       -0.011182377 -0.0028722456 0.0030327262 -0.022750419
000380 98 a9 28 3a cc a8 a0 39 11 6d 0b bc fc 20 30 3b
       0.0006433963 0.00030643342 -0.00850989 0.002687513
000390 c1 3e ef 3b 29 81 e1 3c f3 12 f9 3b cb e4 db 39
       0.007301182 0.027527409 0.007601136 0.000419414
0003a0 cc 13 9b 3a 1b 26 d3 bb 7f 96 78 3c d8 72 c9 bc
       0.0011831461 -0.0064437515 0.0151726 -0.024590895
0003b0 d4 a1 37 3c ac 3c 9d ba a1 02 03 bc e3 18 23 3c
       0.011208016 -0.0011996231 -0.007996232 0.009954664
0003c0 83 d2 8d 3c 42 02 8b bc d2 65 2a bc ce 46 15 bc
       0.017312294 -0.01696885 -0.010400252 -0.009111119
0003d0 11 76 15 3b d3 bf fb bb cb ff d8 3b 34 fd c6 bb
       0.0022805969 -0.0076827793 0.00662229 -0.0060726646
0003e0 81 25 83 ba 29 ea c5 bb 3c e9 99 bc 25 91 02 3d
       -0.0010005684 -0.006039877 -0.018787973 0.0318767
0003f0 79 fd 9d bc 8d e4 9a 3c 2d be 8f 3c 1e 0f b3 3b
       -0.019285904 0.01890781 0.017546738 0.0054644486

layer1.bias f4 [64]
000000 83 b5 1d bc 67 51 32 3b e8 b7 0a bd 7a 2f 89 bc
       -0.009625795 0.0027209164 -0.033866793 -0.016746271
000010 09 74 e8 b8 78 4e 18 bd 0c 8f 56 bc e1 fe 9e 3b
       -0.00011084235 -0.03718421 -0.0130956285 0.0048521613
000020 d4 a8 09 3d 96 c5 7f 3b 66 18 5c bb 4f 55 0d 3b
       0.033608273 0.0039027683 -0.0033583879 0.002156574
000030 7b c8 96 bc 15 73 1a 3c f6 bf 1f 3b eb fd 58 bc
       -0.018406143 0.009426852 0.0024375892 -0.0132441325
000040 87 db 03 3c d7 b8 01 3d a1 82 2e 3a a2 0a 9d 3c
       0.008047945 0.031670418 0.00066570385 0.01917011
000050 7b ae 1d 3d d4 31 9f 3c 3e 40 fd bc 1c b6 ac bc
       0.038496476 0.01943294 -0.030914422 -0.02108293
000060 8f 46 1c 3a c0 b5 07 bd 3a 7d 5f 3b 8b 71 31 ba
       0.0005961442 -0.033132315 0.003410174 -0.00067689334
000070 b0 0c 0e bd ef bf c9 3c dd d8 06 bc 06 0a 1d bd
       -0.03468007 0.024627654 -0.008230415 -0.038339637
000080 8b d0 35 3c dc 54 70 bc 88 98 9a bc ea 54 1e 3b
       0.011097084 -0.01466867 -0.01887156 0.00241595
000090 9c ac ac bc b7 71 b0 bb d9 f0 89 3a 7a e3 8f bc
       -0.0210784 -0.0053846496 0.0010524049 -0.017564524
0000a0 11 dc c0 3b fd c9 24 bd 2a 39 f8 bc 9b df d6 38
       0.005885609 -0.040231694 -0.030300695 0.00010245965
0000b0 9a d4 93 39 8d 19 11 3c 04 8e 97 bb 78 d2 f5 bb
       0.00028196425 0.008856189 -0.004625084 -0.0075018965
0000c0 4e ba 8f 3a f7 f4 3b 3c 64 d7 80 3c 4b 72 b2 3c
       0.0010965557 0.011471978 0.015727706 0.021783015
0000d0 3a ad 17 3b e5 56 a4 3b f5 81 f3 3c 11 46 eb ba
       0.0023144023 0.0050152414 0.029725054 -0.0017949959
0000e0 6b 1b 28 bb 84 46 e9 3a a4 9d 07 3a 8e c6 eb 3b
       -0.0025651108 0.0017797505 0.00051733316 0.0071953004
0000f0 7c 2c c9 b5 e6 f8 69 b8 9c 1f 7f 3c 51 e5 5e 3b
       -1.4988614e-06 -5.5783334e-05 0.015571501 0.0034011195

layer2.weight f4 [64, 64]
000000 60 34 9d bd c5 cf d1 3b a8 ba 0e bd 68 2b 3b 3d
       -0.07676005 0.006402942 -0.034845978 0.045695692
000010 60 22 11 3c 24 35 07 3d 82 70 6d bd 51 8a a1 bb
       0.008858293 0.033009663 -0.057968624 -0.0049298187
000020 74 7e 41 bb e8 11 07 bc b5 bd aa bd 30 96 7e bd
       -0.0029524835 -0.008244015 -0.08336965 -0.06215495
000030 7f 69 aa bd bc a0 b2 bd 17 18 89 3d 00 a1 8b bd
       -0.08320903 -0.08722064 0.06694048 -0.06817818
000040 75 04 29 3c 90 3c a0 b9 a5 c7 18 3d 72 0b 07 bd
       0.010316004 -0.000305627 0.03729977 -0.0329699
000050 3a dc 07 3d 06 a0 cc bd 95 16 69 3d 2b 05 3d 3b
       0.03316901 -0.099914595 0.0569063 0.0028842192
000060 fb ce 65 bd 11 0c 6e bd e5 81 b6 3c 18 f6 ea 3b
       -0.056105595 -0.058116976 0.022278735 0.00717045
000070 14 ac 88 3d bb 1a ab 3c 72 d2 96 bd de c8 bf bc
       0.06673446 0.02088677 -0.07364358 -0.02341121
000080 0b 99 de bd e5 ef 91 bc 9d 55 14 3d 45 df 90 bd
       -0.108690344 -0.017814586 0.03621446 -0.07073835
000090 53 c1 aa 3d 98 26 dc 3d e2 9a 85 3d 2f 06 c5 3d
       0.08337655 0.10749549 0.06523682 0.0962032
0000a0 e5 8c 26 3d 00 73 8e bd c5 d0 9d 3c f7 9b 8f 3d
       0.04066171 -0.06955528 0.019264588 0.0701217
0000b0 7b 88 77 bd 1a 54 b9 3d 18 02 0b 3d 79 6c 68 bc
       -0.060432892 0.09049244 0.033937544 -0.014186018
0000c0 43 1a 12 3d 90 5b 45 bc 08 8e 5b 3d 63 0b ac 3d
       0.035669576 -0.012045756 0.05360225 0.08400609
0000d0 ea 10 46 bd 7d b5 7b 3c af f1 1a bd 11 01 0d bb
       -0.048355974 0.015363094 -0.037828144 -0.0021515528
0000e0 c1 92 da 3d 8c 1b 7a 3c 11 7a 59 bd 38 ab d7 3d
       0.10672522 0.015265357 -0.053094927 0.10530704
0000f0 19 60 d4 3c d8 b0 8f 3c b5 2b c9 bb ef 77 75 bd
       0.02592473 0.01754038 -0.0061392435 -0.05992883
000100 f6 5b c3 3d ae 21 b7 3d a7 36 3c bd a7 91 54 bd
       0.095390245 0.08941971 -0.045950558 -0.051896717
000110 85 4b e2 bc ac 0c cb 3d 9a 21 9f bd a6 9f a9 bd
       -0.027623901 0.09914526 -0.07770081 -0.08282404
000120 29 f9 0a 3d 2a e2 bb bd a0 bb 50 bb 3d 79 b8 3d
       0.033929024 -0.09173997 -0.0031850114 0.09007499
000130 52 6d 13 3d 87 25 9c 3b f4 5f 88 bd 62 e9 95 3d
       0.035992928 0.004765216 -0.066589266 0.07319905
000140 f9 2a fc ba e3 0b 8d bb 32 53 88 bd f4 81 e1 bd
       -0.0019238881 -0.0043043955 -0.06656493 -0.11011115
000150 47 5f a4 bd a6 31 ac 3d 60 8b a4 bd 2c c7 85 bd
       -0.08025985 0.08407907 -0.08034396 -0.0653213
000160 4f 66 23 bc 6c 5d 5d bd ce 69 71 3d 70 9b b5 3c
       -0.009973123 -0.054044172 0.058938794 0.022168845
000170 67 98 65 3d e7 07 97 3d 04 ed 1e 3d aa ca 8c bd
       0.056053545 0.07374554 0.038800254 -0.068745926
000180 1f 47 9b 3d 71 9b ee bd 39 75 9b 3d 5b 12 cc bc
       0.07581925 -0.11650742 0.07590718 -0.024911096
000190 77 aa 27 3b a7 57 38 bd e2 df 27 3a ee 9d 30 bd
       0.0025583783 -0.045005467 0.00064039056 -0.043119363
0001a0 7d 80 81 bc 45 a1 43 bc 38 1f ce 3c 37 33 34 bb
       -0.015808338 -0.011940305 0.02516137 -0.0027496347
0001b0 a5 8c 8c bc ec cf c2 3d 1e 80 0a bc 8a d0 b8 bc
       -0.017156908 0.09512314 -0.008453397 -0.022560377
0001c0 b8 9b 15 bd bd c8 4b bd 8f c0 ae 3d 2b 73 e3 3d
       -0.036525458 -0.049751986 0.085328214 0.11105951
0001d0 9b c3 3e 3d dd 73 b0 bc 46 6d 71 3d 46 7f ed bc
       0.046573263 -0.021539623 0.058942102 -0.028991353
0001e0 63 4c cf bc c4 8b 6c 3c 60 77 22 bc 7a 42 94 bc
       -0.025304979 0.01443762 -0.0099161565 -0.018098105
0001f0 e5 ae 42 bc 50 62 71 bd 84 3b 1f 3c 99 19 60 ba
       -0.011882518 -0.05893165 0.0097187795 -0.0008548736
000200 e3 ac f7 3a 1c 81 c9 3c 92 be c3 3c 05 f1 9b 3d
       0.0018896129 0.024597697 0.023894582 0.0761433
000210 c1 fa 80 3c 3c e8 46 3d 0a 13 ae bc 7e 7e ce bd
       0.015744569 0.04856132 -0.021249313 -0.1008272
000220 0e 6d 4b bc f9 86 db 3d 29 e2 c3 3d 02 b7 90 3d
       -0.012416137 0.10719103 0.09564621 0.07066156
000230 f0 9e e1 3a c1 b7 9a bd 6f 2d 62 bc 6e f2 f9 3d
       0.0017213505 -0.075545795 -0.0138047775 0.12204443
000240 39 f8 88 3d 0f 2b fc 3b 1c 0a c0 bd 7f d0 ce 3d
       0.0668797 0.0076955627 -0.09376928 0.10098361
000250 ed d9 06 3d de 53 b6 3d c9 1f 50 bd b2 8b 90 bd
       0.032922674 0.08902715 -0.050811563 -0.07057895
000260 1a c7 86 3d 51 96 8e 3d ec fb 53 3d d1 4c ca 3d
       0.06580944 0.06962264 0.051753923 0.09877933
000270 da c0 7b 3d 36 ac 4b 3b 8f 5b fc 3d 16 a0 4d bd
       0.061463214 0.0031077988 0.12322151 -0.050201498
000280 d5 94 11 3c 99 ab a8 3d 13 cc ef bd ae ad c1 3d
       0.008885582 0.08235855 -0.11708846 0.09456955
000290 34 5f b5 bd 28 e9 d6 bd 36 3e 39 3c 5e 98 b5 bd
       -0.08856049 -0.1049369 0.011306336 -0.08866952
0002a0 69 6b d5 bd f0 71 54 bd 2c 35 16 3d 44 18 9c bc
       -0.104208775 -0.05186647 0.036671802 -0.01905454
0002b0 fd 82 66 3d 50 07 ea bd 8f f3 ed bc 88 0d 28 3d
       0.056277264 -0.11427176 -0.029046802 0.04102853
0002c0 48 79 72 bd 86 e7 4e 3b ea 02 95 bc 35 0a 80 bd
       -0.059197694 0.0031571104 -0.018189866 -0.06251947
0002d0 e3 6f 87 bd 3b 9c b8 3d 6d 75 f8 3c 74 24 b1 bd
       -0.066131376 0.090141736 0.03032943 -0.08649531
0002e0 62 d7 76 bd 14 8b b7 3c a0 62 8b 3d 46 8c f0 3c
       -0.060264 0.022405185 0.068059206 0.029363763
0002f0 6c 5a 43 3c d5 70 a1 3c 87 d6 a1 bd 0d d6 8b 3a
       0.011923414 0.019707123 -0.07902246 0.001066865
000300 0c 3d 15 bc c2 af 87 3c a2 aa bf 3d d9 b9 b0 bd
       -0.009108793 0.0165633 0.093587175 -0.086291976
000310 40 08 41 bd f2 ed 4e 3d 32 03 8b 3d 0d 48 5f bd
       -0.04712701 0.05051989 0.06787719 -0.054512072
000320 e3 29 8e 3d 82 7c f9 3c 86 b8 5c bd 50 25 c2 3d
       0.06941583 0.030454878 -0.053886913 0.09479773
000330 8a 50 cf 3d 10 a4 a2 bd f3 6f ca 3d 1c ca 7b bd
       0.101227835 -0.07941449 0.09884634 -0.061472043
000340 35 9b b5 3d fc 7f 1d bd 56 38 3f bd 85 18 5a bd
       0.08867494 -0.038452134 -0.046684586 -0.05324604
000350 d6 30 f9 3c 9c ee 67 3d c9 22 b3 3d 56 75 76 bd
       0.030418795 0.05662404 0.08746869 -0.060170494
000360 4e 54 a9 bd 87 76 54 3d d3 58 f9 3a 9e a4 84 bc
       -0.08268033 0.05187085 0.0019023664 -0.016191777
000370 46 bb 27 3c f9 f7 e5 3b 33 73 c0 3c fd 97 03 bd
       0.010237521 0.007018086 0.023492431 -0.03212737
000380 6a 01 5d 3c 3b 19 97 bd 2e 71 14 bc c4 69 89 3d
       0.013489107 -0.07377859 -0.009060187 0.06709626
000390 aa 98 4d 3d 6d c6 73 bd 26 ac c0 b9 2f dc 7e 3d
       0.05019442 -0.059515405 -0.00036749354 0.062221702
0003a0 e7 1e d5 3c ef 47 01 bd 61 7d 64 bc 9b 60 73 b9
       0.026015712 -0.03156274 -0.013945908 -0.00023210274
0003b0 ee 84 b2 3a a7 00 a6 bb ee 72 02 3d fc da 30 bd
       0.0013619938 -0.0050659957 0.031847887 -0.04317759
0003c0 35 8d 60 bd 80 cf 4e bd 2d 42 c8 3d 37 bc 4d 3b
       -0.054822166 -0.050490856 0.09778247 0.0031392702
0003d0 42 b0 a5 3d e9 0f 54 3d da 05 e1 3b 8e c5 85 bc
       0.08090259 0.051772986 0.0068671526 -0.016329553
0003e0 dd 3d 37 3d eb a4 e1 bb a5 7e 11 bd 27 ae bd bd
       0.04473673 -0.006886115 -0.03552117 -0.092617325
0003f0 3e 81 62 39 6f bb 69 3d 70 ff 5c 3c f3 ce e8 3c
       0.00021601186 0.057063516 0.013488635 0.028418994

layer2.bias f4 [64]
000000 36 77 26 3d 7d 4e a7 3b 89 d6 24 3c 45 a2 88 bb
       0.040641032 0.005105792 0.010060915 -0.0041697347
000010 ef 39 98 3d 76 74 e3 39 fc 28 bc bc 63 4f 75 3d
       0.07432925 0.00043383584 -0.022968762 0.059890162
000020 87 c5 0a 3d 2c eb 8d bd 39 cf e5 39 f7 36 b2 3d
       0.033879783 -0.06929621 0.00043832677 0.0870189
000030 f0 d6 e7 bb d1 04 ba 3d 33 85 dd bc a4 0e aa bb
       -0.007075183 0.0908295 -0.027041053 -0.0051897336
000040 0d 0c 22 ba 1d 0b 49 3c d9 11 80 3c 89 25 ff bb
       -0.0006181605 0.012270716 0.01563351 -0.007786457
000050 0d 48 c7 3c cd d0 4c 3d a6 47 e9 3d 7b f6 16 bd
       0.024326349 0.050003815 0.11390619 -0.036856156
000060 3b 8d 22 bd 5a 87 e6 bd 48 43 11 bd 40 6d 24 3d
       -0.03968547 -0.11256285 -0.035464555 0.04014325
000070 d8 a6 8f bd 62 a0 e8 3a 2f c3 a5 3d 26 e0 70 bd
       -0.07014245 0.0017747993 0.08093869 -0.058807515
000080 ee 68 bf 3d a8 a0 13 bd d4 50 83 bd 96 01 14 bd
       0.093461856 -0.036041886 -0.06411901 -0.036134325
000090 35 d0 49 bc dc b5 fc bc 54 97 59 bd 52 9c fb bc
       -0.012317707 -0.030848436 -0.053122833 -0.030714188
0000a0 ce 54 4a bd 96 ab fd b9 5a 85 b7 3c b8 d8 86 3a
       -0.049397282 -0.00048383762 0.022402454 0.0010287976
0000b0 15 9c 02 bd 64 fd d3 3d a6 a4 9a 3c 3c ec 4b bd
       -0.031887133 0.10351065 0.018877339 -0.049785838
0000c0 d0 7a cd bd 0f ff 45 3d 1d e0 81 bd 16 4a 78 bd
       -0.1003319 0.048338946 -0.06341574 -0.06061753
0000d0 25 c7 bf bd 39 58 87 3c b0 1d b6 bd 1d 06 33 3b
       -0.09364156 0.01652156 -0.08892381 0.0027316876
0000e0 11 89 6d 3d 2c b8 04 bd 39 21 c2 3d 89 57 cc 3d
       0.057992045 -0.032402202 0.09478993 0.099776335
0000f0 b2 6d 26 3d 2f 97 92 3d 8c 5e 86 3c 0f c6 e0 3c
       0.040631957 0.07157742 0.016402505 0.027438192

layer3.weight f4 [1, 64]
000000 0c 05 ab 3d 1b c7 67 bd ee 34 1d 3d ed 8f 12 3c
       0.08350572 -0.056586366 0.038380556 0.008945447
000010 d5 ef 70 bd 4f f0 ef bc 11 9e 37 3d 06 ac 71 bd
       -0.05882247 -0.029289393 0.04482848 -0.059001945
000020 f4 cc 7e 3d cb 01 28 3c 8f de 2f 3d 03 a7 d9 3c
       0.062207177 0.010254334 0.042936858 0.026568895
000030 1c c5 2c bc 7f e2 f5 3d f7 8b 4f bd be d5 f0 3d
       -0.010545041 0.12006091 -0.05067059 0.11759518
000040 9d 7f 4c 3d db cb 7c 3d 15 4d a7 bd e9 f9 bc bd
       0.04992639 0.06171785 -0.08168999 -0.09227354
000050 f4 8f 0d bd 15 66 ee 3d ca 22 b6 bd 19 89 aa 3d
       -0.034561113 0.11640564 -0.08893354 0.083269306
000060 8b e4 18 3c 82 b3 b4 bd 36 48 c0 3d 24 c8 26 3d
       0.009331833 -0.08823301 0.09388773 0.040718213
000070 94 8e c0 bd 22 6a 79 bd a0 fa b3 bd c1 19 ee bd
       -0.094021946 -0.06089223 -0.08788037 -0.11626006
000080 52 83 99 bc 3a 95 c0 3d 83 1e 7d bc 40 d2 ad 3d
       -0.018739376 0.09403463 -0.015449169 0.08487368
000090 88 0a dd 3d 3b 4e ad bc f8 1f 87 3d 69 e5 be bd
       0.10793024 -0.021155467 0.065978944 -0.093211
0000a0 4c 91 0a 3d 0f de 8d 3d ad 52 0f 3d e0 0d 6c bd
       0.033829972 0.0692712 0.034990955 -0.05763042
0000b0 d8 16 c9 bd ff 15 0c 3d 1f 1e 01 3c f3 e8 11 bd
       -0.0981881 0.034200665 0.007880717 -0.03562255
0000c0 64 c6 3d bd f6 6c 0b 3d 2c 8b a4 bc b7 eb 87 3d
       -0.04633178 0.03403946 -0.020085894 0.06636756
0000d0 38 03 d8 bd ce 51 b8 bc ef 27 49 3d 43 fb 14 bd
       -0.10547489 -0.022499945 0.04911035 -0.036372434
0000e0 76 dc 52 bd 0f 3f ab bd 86 82 ef bd 32 7f e4 bd
       -0.05147978 -0.08361637 -0.11694817 -0.11157073
0000f0 6b 0c 43 bd cb 6c db 3d 02 c6 82 3c 93 4d c9 bc
       -0.047619265 0.1071411 0.015963558 -0.024573123
