uncertain/HalfCheetah-v2/uncertain.pth (torch, 25375 bytes, 5 tensors)

layer1.weight f4 [64, 23]
-0.094727404 0.13040048 0.033660278 -0.0885689 0.120823696 0.019214986 -0.10271813 0.16602919
0.011350545 0.15843658 -0.053281583 0.111581646 -0.0035129818 -0.1520593 -0.019852364 0.04430908
-0.035819963 0.031173335 -0.100426085 -0.036775585 -0.0812337 -0.07408599 -0.06880651 -0.053170335
0.020097736 0.07040968 0.06505602 0.029266188 -0.16339824 -0.123802125 -0.031016462 0.055792924
-0.019437633 0.012044293 0.073526055 0.07770138 0.009522624 -0.17587636 -8.524477e-05 -0.15794095
-0.14977847 0.048543368 0.17505896 -0.09484496 0.13023534 -0.14071736 0.06807231 0.028774805
-0.019754276 0.084568605 0.018651323 -0.097195014 -0.04679865 -0.09895873 0.16984609 -0.14705087
0.12164996 -0.15966067 -0.03500592 0.0066799703 0.06810928 -0.05687599 -0.17920052 -0.10268562
0.05684623 0.054491855 0.058294203 -0.11364 -0.108136974 -0.0033875809 0.03840117 -0.012932408
0.06821778 0.12675445 0.14009668 -0.11192044 0.02439923 -0.0726158 0.11990734 0.14679998
-0.15061654 -0.029834608 0.07131582 -0.025605267 0.110944234 -0.034487233 0.13540836 0.16809449
0.034332726 0.16188334 -0.005416597 0.08568281 -0.08117908 0.096252136 -0.06340205 0.1374433
0.14764927 -0.13674653 -0.0046604117 0.12566246 -0.07608714 -0.123561315 0.13838507 0.17356801
-0.14168558 -0.058736373 -0.17963319 0.09877508 -0.15978043 0.070948124 -0.0047413944 0.16695654
0.10399374 -0.08464836 0.16251433 0.058205295 -0.14437617 -0.07043418 -0.11987649 -0.052244954
0.10277108 -0.036023606 0.052049454 -0.042484406 0.08735578 0.04732864 -0.17126994 -0.14065987
-0.024509223 0.0958473 -0.028828394 -0.0014441455 0.05971034 -0.11384269 0.053430326 0.12740524
0.06949929 -0.034107458 0.06458686 -0.16291332 -0.12706667 0.012769665 -0.17175443 0.15942048
0.03360305 -0.13484983 0.10668642 -0.10342218 0.056412786 -0.07856161 -0.10858417 0.0048822584
-0.112136304 0.12518547 -0.018946312 0.12141118 -0.13704199 -0.06373081 -0.089687996 0.049361307
0.02401899 -0.12705874 0.07525975 -0.05633271 -0.04741306 0.12381396 0.044577762 0.10048493
0.0093796095 -0.050825767 0.09274492 -0.1271826 0.13881405 0.014020893 0.18370932 0.082071505
-0.09491889 -0.13859715 0.17173873 0.029521057 -0.16792427 -0.13564509 -0.1764208 0.15139365
-0.03715752 -0.19298984 0.17177534 0.007357728 0.13121036 0.14889866 0.012034746 0.0064235223
0.13195257 0.065350235 -0.1618787 0.037627917 -0.16307521 -0.04691755 0.18618889 -0.19102407
-0.02606524 -0.13571753 -0.09439994 0.07252043 0.13283995 -0.02821611 0.05805507 -0.028911896
-0.04581662 -0.11036283 -0.02054884 0.08929862 -0.11566077 0.1595088 -0.061550386 0.21189235
0.013334021 -0.13231486 -0.11022965 0.08597989 -0.12481047 0.16276316 -0.02637699 0.04797722
0.031269442 -0.17716973 0.03506903 -0.15899274 -0.14930016 0.15901719 0.08702153 0.1357198
0.00656718 -0.12071793 0.09746511 -0.16440871 -0.07893287 0.033051815 -0.174813 0.120315894
0.17058028 -0.05313465 0.16695325 0.12878686 0.023349693 0.057068266 0.14750098 -0.06501865
0.04681119 -0.11972696 -0.060710985 -0.12661552 -0.107198745 -0.029371051 -0.040625524 0.0014938444
00000000: 7100 c2bd b487 053e 5cdf 093d 9d63 b5bd
00000010: 6a72 f73d bf68 9d3c e25d d2bd 8e03 2a3e
00000020: a3f7 393c 333d 223e ca3d 5abd eb84 e43d
00000030: 0e3a 66bb 6fb5 1bbe 6da1 a2bc 707d 353d
00000040: f4b7 12bd 395f ff3c 31ac cdbd ffa1 16bd
00000050: db5d a6bd 65ba 97bd 6dea 8cbd 23c9 59bd
00000060: 02a4 a43c f332 903d 173c 853d a5bf ef3c
00000070: de51 27be f88b fdbd 3c16 febc 1f87 643d
00000080: ac3b 9fbc 6d55 453c d494 963d e721 9f3d
00000090: c804 1c3c ef18 34be 70c5 b2b8 46bb 21be
000000a0: 875f 19be 69d5 463d a842 333e 133e c2bd
000000b0: 6a5c 053e 3618 10be 7f69 8b3d 24b9 eb3c
000000c0: b8d3 a1bc 4e32 ad3d a9ca 983c 2e0e c7bd
000000d0: f1af 3fbd e0aa cabd 22ec 2d3e 8194 16be
000000e0: 9d23 f93d 167e 23be 5e62 0fbd a7e3 da3b
000000f0: e17c 8b3d ccf6 68bd 5780 37be d74c d2bd
00000100: 98d7 683d da32 5f3d e7c5 6e3d 17bc e8bd
00000110: eb76 ddbd 2d02 5ebb 8c4a 1d3d 73e2 53bc
00000120: c3b5 8b3d ebcb 013e 8175 0f3e 8b36 e5bd
00000130: e5e0 c73c 98b7 94bd fb91 f53d bc52 163e
00000140: 393b 1abe b567 f4bc 070e 923d 23c2 d1bc
00000150: bb36 e33d 7c42 0dbd 7da8 0a3e f620 2c3e
00000160: 79a0 0c3d bfc4 253e b57d b1bb 787a af3d
00000170: 3841 a6bd d71f c53d efd8 81bd f0bd 0c3e
00000180: 5f31 173e 4807 0cbe 5eb6 98bb a9ad 003e
00000190: 93d3 9bbd b70d fdbd d1b4 0d3e d0bb 313e
000001a0: 0616 11be 8d95 70bd c3f1 37be 974a ca3d
000001b0: 7b9d 23be 404d 913d b35d 9bbb a8f6 2a3e
000001c0: acfa d43d 1f5c adbd 286a 263e ad68 6e3d
000001d0: 59d7 13be cc3f 90bd ce81 f5bd cefe 55bd
000001e0: a579 d23d 7d8d 13bd cf31 553d 2104 2ebd
000001f0: 96e7 b23d addb 413d 6361 2fbe 2409 10be
00000200: 91c7 c8bc 974b c43d 8629 ecbc 7b49 bdba
00000210: d492 743d 5b26 e9bd c2d9 5a3d 8576 023e
00000220: a555 8e3d 43b4 0bbd 1e46 843d c0d2 26be
00000230: c41d 02be db37 513c 65e0 2fbe 1f3f 233e
00000240: 5aa3 093d 1316 0abe 697e da3d 02cf d3bd
00000250: 1811 673d e9e4 a0bd 6161 debd 5afb 9f3b
00000260: b8a7 e5bd 9f30 003e 4c35 9bbc 6da6 f83d
00000270: bc54 0cbe 4d85 82bd 57ae b7bd 152f 4a3d
00000280: 79c3 c43c b01b 02be c921 9a3d 21bd 66bd
00000290: 3234 42bd 2c92 fd3d 2c97 363d 0bcb cd3d
000002a0: efac 193c ae2e 50bd 0cf1 bd3d 283c 02be
000002b0: 4525 0e3e e3b7 653c 4c1e 3c3e 1b15 a83d
000002c0: d664 c2bd 69ec 0dbe 47dc 2f3e 25d6 f13c
000002d0: 57f4 2bbe 8ce6 0abe a7a7 34be f006 1b3e
000002e0: 7c32 18bd 219f 45be e0e5 2f3e 1919 f13b
000002f0: 025c 063e e478 183e 622d 453c 697c d23b
00000300: 931e 073e 58d6 853d 88c3 25be bb1f 1a3d
00000310: 30fd 26be 9e2c 40bd 4da8 3e3e d09b 43be
00000320: c586 d5bc 89f9 0abe c154 c1bd 9785 943d
00000330: 3207 083e 7925 e7bc 27cb 6d3d a4d8 ecbc
00000340: 35aa 3bbd e805 e2bd 0a56 a8bc 32e2 b63d
00000350: 8edf ecbd 4656 233e 421c 7cbd 4ffa 583e
00000360: f076 5a3c 8c7d 07be 15c0 e1bd 3916 b03d
00000370: a29c ffbd 63ab 263e 8f14 d8bc c383 443d
00000380: 6314 003d fb6b 35be 8ba4 0f3d fece 22be
00000390: 24e2 18be 67d5 223e 5838 b23d 22fa 0a3e
000003a0: 8031 d73b f63a f7bd ca9b c73d c25a 28be
000003b0: 8ea7 a1bd 5761 073d 2e02 33be 2e68 f63d
000003c0: 99ac 2e3e b8a3 59bd cbf5 2a3e b4e0 033e
000003d0: db47 bf3c 6ac0 693d 7f0a 173e 7f28 85bd
000003e0: 17bd 3f3d 6933 f5bd 15ac 78bd 80a7 01be
000003f0: 048b dbbd 8f9b f0bc f366 26bd 1acd c33a

layer1.bias f4 [64]
-0.07955397 0.06457565 0.030331096 -0.16868247 0.08663012 0.054243267 -0.028880427 -0.051235646
0.16696589 0.03646961 0.15330908 0.07636819 -0.1423023 -0.0714627 -0.008711258 -0.14471084
-0.024568956 -0.17256704 0.016324006 0.016884355 -0.034623668 0.1303702 0.1432395 0.12247139
0.06253473 -0.064949706 -0.051567297 -0.028987153 -0.07885257 -0.16575834 -0.13639243 0.023902943
-0.07158118 -0.011971754 -0.13472886 0.034514055 -0.09924569 0.124277964 -0.15459451 0.06820169
-0.15707004 -0.17289837 0.12415583 0.14846861 -0.119943 -0.12101231 -0.06391559 0.10755613
0.110714436 -0.008376507 -0.02997132 0.16935967 0.15688887 -0.14092155 0.022040963 -0.05090263
0.13767357 -0.102716304 -0.0026209592 -0.14129677 -0.15985896 -0.03405865 -0.052460544 -0.11513148
00000000: 31ed a2bd 3d40 843d eb78 f83c 19bb 2cbe
00000010: 226b b13d 302e 5e3d a596 ecbc 78dc 51bd
00000020: 1bf9 2a3e 2861 153d 0efd 1c3e ed66 9c3d
00000030: b2b7 11be 095b 92bd aab9 0ebc 142f 14be
00000040: d644 c9bc 6ab5 30be ecb9 853c 0f51 8a3c
00000050: 8cd1 0dbd c47f 053e 60ad 123e 48d2 fa3d
00000060: 3512 803d 5a04 85bd 3b38 53bd 7776 edbc
00000070: 757d a1bd 8ebc 29be 75aa 0bbe 1bd0 c33c
00000080: 2799 92bd 2d25 44bc 5df6 09be 9c5e 0d3d
00000090: 5341 cbbd 7285 fe3d 064e 1ebe 54ad 8b3d
000000a0: f8d6 20be 450c 31be 6945 fe3d 2808 183e
000000b0: ada4 f5bd 4dd5 f7bd 2de6 82bd 6346 dc3d
000000c0: 40be e23d 9e3d 09bc 6a86 f5bc 9f6c 2d3e
000000d0: 7aa7 203e bd4d 10be 408f b43c 477f 50bd
000000e0: 4dfa 0c3e ed5c d2bd 66c4 2bbb 1ab0 10be
000000f0: 11b2 23be 1581 0bbd dee0 56bd 0eca ebbd

layer2.weight f4 [64, 64]
-0.07267343 0.1247496 0.08468314 -0.05601698 -0.013951825 -0.09194555 0.0147836385 0.06029925
0.09487537 -0.010640302 -0.040660277 -0.08014594 0.06139259 0.10947662 -0.036086187 -0.008224735
0.002852815 -0.013370653 0.018026518 0.0014390065 -0.11821199 0.01917588 -0.08173833 0.016017606
0.018715734 -0.12244898 0.07193595 -0.024757592 0.09852022 0.087643474 -0.045598745 0.08916155
0.12210653 0.10396366 -0.030721076 0.08410194 0.09678355 0.03831869 -0.060403313 -0.036836244
-0.042987324 -0.075939864 -0.100189246 0.06758403 0.09803529 0.029154811 -0.07286623 0.056990825
0.0915395 -0.025161693 0.10050988 -0.045467645 -0.080168605 0.076675095 -0.06930885 0.055263557
-0.048618566 0.04794966 -0.08024379 0.00823673 0.12255791 -0.013574101 0.06714528 -0.028510582
-0.08861596 0.06845479 -0.071045905 -0.010632942 -0.03648125 -0.03193231 0.01861264 -0.055764306
-0.019421631 0.07762447 -0.05516603 -0.036062084 0.044555485 0.047564782 -0.07434225 0.08303503
-0.024837678 -0.069998436 0.051031657 -0.02637822 0.007080011 0.07485976 0.07311731 0.078032464
-0.023948226 -0.0853694 -0.025974974 0.02443567 -0.09413979 0.09026075 -0.019714264 -0.10473977
-0.06822778 0.091633305 0.01057391 0.05701593 0.07238857 -0.07887891 -0.02020183 0.120090924
-0.024193682 -0.1021293 0.0676879 0.06869217 -0.072422184 -0.10163363 0.1129392 -0.0346103
-0.0785682 0.07040894 0.09537475 -0.098556764 -0.011940853 -0.0897932 0.03311015 -0.10432685
0.08543596 0.07426847 0.031602085 0.09275926 -0.032107767 0.099950306 0.029548435 -0.10757066
-0.056453623 -0.008327968 0.108059056 -0.100326 -0.040326774 -0.0028801225 -0.014206324 -0.029976502
-0.038812295 -0.00996513 -0.016876373 -0.050056506 -0.033212267 -0.11827117 -0.029692616 0.009606099
-0.024396235 -0.009571929 0.07154371 0.07815973 -0.0704217 -0.031051256 -0.07923382 -0.08423505
-0.016353343 0.021183752 0.0033760313 0.014134303 0.031463243 0.0063242754 -0.042248145 -0.057219997
0.08978364 0.06336541 0.0040213144 0.04338682 0.107044384 0.029943375 0.10534175 -0.06906626
0.039085694 -0.004910257 -0.02435579 -0.07250745 0.052277286 -0.08283169 0.0978856 -0.048199322
0.011843035 -0.03807278 -0.027562857 0.054159105 0.08474978 0.012316698 -0.03304558 -0.113111325
-0.020463565 -0.10726773 0.11406516 0.0070955935 -0.10901442 -0.0035259626 0.10167486 0.11303761
-0.054378632 0.10638292 -0.061131995 -0.05015045 -0.08807915 -0.014318977 0.080187 0.07089461
-0.03462084 -0.016787902 -0.06433833 0.027986597 -0.07711512 -0.044450566 -0.036208674 0.048540253
0.11390606 0.049853917 -0.111563876 0.016998842 0.025227081 -0.08761462 0.09649824 0.10884613
-0.037005335 -0.0066201817 -0.08234308 -0.005602513 0.0014996789 -0.0015496771 -0.05251578 -0.060894955
-0.026607167 0.005746909 -0.048539534 0.09027908 -0.040467788 0.1155314 0.04194686 0.022469038
-0.0012070595 0.03371565 0.087724164 -0.10190647 -0.038919184 -0.020186884 0.004974798 0.036604173
0.11556479 -0.103535846 -0.05249776 0.07684645 -0.08255343 0.008983709 -0.005311402 0.07670466
-0.040900335 0.029444955 -0.0008696767 -0.115486264 -0.056095652 -0.018587759 0.0042236736 -0.022142217
00000000: cfd5 94bd b87c ff3d 5b6e ad3d 1072 65bd
00000010: 3296 64bc f34d bcbd 1337 723c 59fc 763d
00000020: 054e c23d a954 2ebc 648b 26bd 8e23 a4bd
00000030: cc76 7b3d 4735 e03d 1ccf 13bd 0ac1 06bc
00000040: 4bf6 3a3b 9510 5bbc 59ac 933c 0c9d bc3a
00000050: 2119 f2bd bc16 9d3c 6d66 a7bd 5b37 833c
00000060: bd51 993c 88c6 fabd 2853 933d 6fd0 cabc
00000070: f8c4 c93d 6c7e b33d c0c5 3abd 559a b63d
00000080: fd12 fa3d e6ea d43d c4aa fbbc a33d ac3d
00000090: 7436 c63d 0ff4 1c3d 7769 77bd 9ae1 16bd
000000a0: 7a13 30bd 5c86 9bbd 0530 cdbd 7f69 8a3d
000000b0: bac6 c83d 12d6 ee3c e43a 95bd 366f 693d
000000c0: 1079 bb3d e51f cebc 20d8 cd3d 483c 3abd
000000d0: 702f a4bd d507 9d3d ccf1 8dbd 0a5c 623d
000000e0: 4324 47bd dd66 443d db56 a4bd 59f3 063c
000000f0: a4ff fa3d e865 5ebc 7783 893d 068f e9bc
00000100: 497c b5bd 0632 8c3d 8480 91bd cb35 2ebc
00000110: 5d6d 15bd 74cb 02bd 8979 983c 1d69 64bd
00000120: 1d1a 9fbc 94f9 9e3d c6f5 61bd d6b5 13bd
00000130: d07f 363d 4ad3 423d c040 98bd 450e aa3d
00000140: 6378 cbbc 575b 8fbd 9206 513d 2317 d8bc
00000150: 70ff e73b 1350 993d 87be 953d 7ccf 9f3d
00000160: 122f c4bc 27d6 aebd 78c9 d4bc 502d c83c
00000170: 5dcc c0bd a1da b83d cf7f a1bc ce81 d6bd
00000180: 02bb 8bbd 3eaa bb3d 313e 2d3c 8989 693d
00000190: 7540 943d 448b a1bd 4f7e a5bc 3bf2 f53d
000001a0: d431 c6bc 2b29 d1bd f49f 8a3d 7bae 8c3d
000001b0: 1552 94bd 4b25 d0bd ab4c e73d 88c3 0dbd
000001c0: 5de8 a0bd 9032 903d d653 c33d 21d8 c9bd
000001d0: 91a3 43bc 7fe5 b7bd 829e 073d 51a9 d5bd
000001e0: 0cf9 ae3d 111a 983d 3071 013d 91f8 bd3d
000001f0: 6f83 03bd bfb2 cc3d 8f0f f23c 024e dcbd
00000200: ea3b 67bd 0872 08bc 114e dd3d b877 cdbd
00000210: b02d 25bd 70c0 3cbb a4c1 68bc 4891 f5bc
00000220: a4f9 1ebd c944 23bc 5240 8abc 0d08 4dbd
00000230: 9609 08bd 2838 f2bd ee3d f3bc e662 1d3c
00000240: 9dda c7bc 95d3 1cbc 8285 923d 3512 a03d
00000250: 4139 90bd 345f febc 5745 a2bd 6d83 acbd
00000260: 72f7 85bc 8c89 ad3c 6840 5d3b 9093 673c
00000270: 9adf 003d de3b cf3b 640c 2dbd 845f 6abd
00000280: 7ce0 b73d b9c5 813d 3bc5 833b 61b6 313d
00000290: 163a db3d cf4b f53c 6abd d73d 9c72 8dbd
000002a0: 5218 203d 39e6 a0bb cb85 c7bc c97e 94bd
000002b0: b520 563d a9a3 a9bd 3f78 c83d a76c 45bd
000002c0: 4a09 423c 34f2 1bbd 80cb e1bc f0d5 5d3d
000002d0: 4b91 ad3d facb 493c cd5a 07bd e9a6 e7bd
000002e0: 35a3 a7bc 2faf dbbd ff9a e93d 2782 e83b
000002f0: f442 dfbd d613 67bb e93a d03d 4380 e73d
00000300: 21bc 5ebd 4adf d93d 8b65 7abd 8f6a 4dbd
00000310: d762 b4bd 249a 6abc 1539 a43d 3131 913d
00000320: 95ce 0dbd c886 89bc d0c3 83bd 2644 e53c
00000330: 88ee 9dbd cc11 36bd 8c4f 14bd 25d2 463d
00000340: 9547 e93d 9f33 4c3d 9a7b e4bd 2841 8b3c
00000350: 06a9 ce3c 4b6f b3bd dfa0 c53d b8ea de3d
00000360: e892 17bd 1cee d8bb 7da3 a8bd 4995 b7bb
00000370: e090 c43a 891e cbba c91a 57bd fd6c 79bd
00000380: 46f7 d9bc 9150 bc3b 64d1 46bd 3de4 b83d
00000390: 8dc1 25bd ba9b ec3d 78d0 2b3d fd10 b83c
000003a0: 3236 9eba 6c19 0a3d baa8 b33d 57b4 d0bd
000003b0: b969 1fbd f75e a5bc a103 a33b 42ee 153d
000003c0: 3cad ec3d 9a0a d4bd e407 57bd ac61 9d3d
000003d0: c611 a9bd 6830 133c 450b aebb 5517 9d3d
000003e0: 1c87 27bd 8c36 f13c 04fb 63ba 1084 ecbd
000003f0: 8ec4 65bd 5b45 98bc be66 8a3b 9863 b5bc

layer2.bias f4 [64]
0.11427254 -0.036873955 0.012624454 0.091116995 -0.0108131105 0.024768176 -0.033695403 -0.08778726
-0.06070798 -0.029367013 0.009352035 0.02790589 0.12891339 0.097283624 0.02257127 -0.0521859
0.12442129 0.0025383262 0.097494595 0.012716248 0.06967885 0.053333748 -0.10333691 0.0211056
-0.11855789 0.039008394 0.07574279 0.017309517 0.031825602 0.0041751326 0.04798983 -0.10527633
0.023676783 -0.049956445 -0.052154955 -0.087245375 0.12770039 -0.073738985 -0.0241484 -0.09872241
0.1257333 0.032499705 -0.03654845 0.010806243 0.053288747 0.084128276 -0.10513485 0.010561698
-0.07300911 0.026454492 -0.04204187 -0.06372267 0.053434435 0.09070194 -0.02629974 -0.02030347
0.045080796 0.00027827913 0.06909002 -0.10638955 0.045513827 0.10099554 0.08774933 -0.023175158
00000000: b907 ea3d 2509 17bd ccd6 4e3c 8c9b ba3d
00000010: 7929 31bc a1e6 ca3c 3104 0abd cfc9 b3bd
00000020: eea8 78bd 1793 f0bc 4739 193c e59a e43c
00000030: df01 043e a33c c73d 62e7 b83c e2c0 55bd
00000040: 97d0 fe3d 0c5a 263b 3fab c73d cf57 503c
00000050: c9b3 8e3d 7d74 5a3d 4da2 d3bd a7e5 ac3c
00000060: 7bce f2bd 44c7 1f3d 091f 9b3d b0cc 8d3c
00000070: 905b 023d 8dcf 883b fc90 443d 1e9b d7bd
00000080: d0f5 c13c 219f 4cbd 6fa0 55bd b4ad b2bd
00000090: e4c3 023e 7704 97bd ded2 c5bc fa2e cabd
000000a0: 3bc0 003e 691e 053d d4b3 15bd ab0c 313c
000000b0: 4d45 5a3d 724b ac3d f150 d7bd f90a 2d3c
000000c0: cd85 95bd 17b7 d83c 1934 2cbd 0881 82bd
000000d0: 11de 5a3d f0c1 b93d 8d72 d7bc 7653 a6bc
000000e0: a4a6 383d fee5 9139 127f 8d3d c4e2 d9bd
000000f0: b56c 3a3d c0d6 ce3d ecb5 b33d d4d9 bdbc

layer3.weight f4 [1, 64]
0.11736727 0.0876651 -0.045787252 -0.117264174 -0.06650438 0.14059043 0.1012515 0.05406808
0.03693093 0.0071957316 -0.022354562 -0.02059948 0.0964981 0.015413108 0.120602906 0.10902643
0.10232769 0.04459769 -0.065727495 0.11395622 -0.09780014 -0.07627035 0.07548313 -0.100961044
-0.059139404 0.062430996 -0.10031154 -0.03527036 0.07805305 -6.804804e-05 0.07028859 -0.08176476
-0.017551292 -0.05822623 0.04053353 0.08150982 0.11380314 -0.023296136 -0.117476575 -0.10068787
0.083379745 -0.080901965 -0.041094832 -0.047546476 0.012641457 -0.013556669 -0.059649434 -0.0020907656
0.060475264 -0.015114267 0.04466466 0.12681116 -0.09141805 0.12354222 0.097755656 0.064983964
0.08844677 0.110038385 0.024470162 -0.119232774 0.07110858 0.017740872 -0.027702969 -0.02851586
00000000: 405e f03d c389 b33d 6a8b 3bbd 3328 f0bd
00000010: 7333 88bd f0f6 0f3e f25c cf3d 7e76 5d3d
00000020: e344 173d 2cca eb3b ea20 b7bc 3ec0 a8bc
00000030: cca0 c53d 4387 7c3c a8fe f63d 4049 df3d
00000040: 2e91 d13d 11ac 363d 239c 86bd e161 e93d
00000050: 714b c8bd a133 9cbd e696 9a3d aac4 cebd
00000060: 293c 72bd a5b7 7f3d 2370 cdbd a777 10bd
00000070: 47da 9f3d 03b5 8eb8 77f3 8f3d 4874 a7bd
00000080: bac7 8fbc a17e 6ebd 7d06 263d 9fee a63d
00000090: 9f11 e93d 8ad7 bebc 8f97 f0bd 7135 cebd
000000a0: 00c3 aa3d eeaf a5bd 0e53 28bd 18c0 42bd
000000b0: 1d1e 4f3c ca1c 5ebc f752 74bd 3a05 09bb
000000c0: e9b4 773d d5a1 77bc 4af2 363d c9da 013e
000000d0: 6339 bbbd b403 fd3d 1e34 c83d 5016 853d
000000e0: 9523 b53d ce5b e13d a675 c83c 5030 f4bd
000000f0: 60a1 913d 4e55 913c 56f1 e2bc 189a e9bc
